etinynet_int8.tflite (tflite, 488368 bytes, 41 tensors)

model/dense/MatMul i1 [200, 384] scale=0.0052332184 zero_point=0
0.1988623 -0.2564277 0.088964716 0.27212736 0.03663253 -0.12559724 0.010466437 -0.09419793
-0.23549482 -0.09943115 0.15699655 0.27212736 -0.20409551 -0.020932874 0.26689413 0.25119448
0.35062563 0.29306024 -0.42389068 0.24072805 -0.06803184 -0.15699655 0.16222978 -0.41342425
-0.020932874 -0.057565402 0.020932874 0.2250284 -0.16746299 0.23549482 -0.18839586 0.16222978
-0.2250284 -0.18316264 -0.12559724 -0.23549482 -0.30352667 -0.1988623 -0.0052332184 -0.16746299
0.32445955 -0.010466437 -0.29306024 -0.06279862 -0.16746299 -0.19362909 -0.057565402 0.16746299
-0.09943115 -0.2250284 -0.20932874 0.1726962 0.057565402 0.0052332184 0.03663253 0.23026161
-0.13083047 -0.026166093 0.09419793 -0.03139931 0.18316264 -0.24596126 -0.120364025 -0.088964716
0.03139931 0.15176333 -0.19362909 0.03139931 -0.21456195 -0.09419793 -0.057565402 0.21456195
-0.1988623 -0.24072805 -0.09943115 -0.026166093 0.026166093 -0.21456195 -0.09943115 0.31922632
-0.13606368 -0.24596126 -0.09419793 -0.24072805 0.120364025 -0.33492598 0.13606368 0.15176333
0.078498274 -0.20409551 0.32969275 -0.2250284 -0.16222978 -0.03663253 -0.06279862 -0.23026161
0.03139931 -0.16746299 -0.03139931 -0.18839586 0.24072805 -0.21456195 -0.18839586 0.010466437
-0.07326506 -0.06279862 0.27212736 -0.16746299 0.06803184 -0.14653012 -0.27212736 -0.2825938
-0.20932874 0.026166093 0.26689413 -0.21456195 -0.083731495 0.06279862 0.07326506 -0.21456195
-0.25119448 -0.052332185 -0.13083047 0.047098964 -0.0052332184 -0.015699655 0.03663253 -0.28782701
0.26166093 0.23026161 -0.19362909 -0.13606368 -0.30352667 0.24596126 -0.10466437 0.1412969
0.10466437 0.0 0.0052332184 -0.052332185 0.3401592 -0.047098964 -0.088964716 -0.10466437
0.3663253 -0.18316264 -0.026166093 0.26166093 -0.06803184 -0.09419793 -0.13083047 -0.33492598
-0.24072805 -0.041865747 0.03139931 0.041865747 -0.057565402 -0.10989758 -0.13083047 -0.21456195
-0.35062563 0.17792943 -0.10989758 -0.047098964 0.18316264 -0.078498274 0.03663253 0.30352667
0.16222978 -0.10989758 0.2564277 -0.14653012 -0.1412969 -0.3663253 0.015699655 0.18839586
0.0 -0.18839586 -0.1412969 0.37679172 -0.25119448 0.3139931 -0.2564277 -0.26689413
-0.27212736 -0.09419793 -0.18316264 0.23026161 0.30352667 0.010466437 0.21456195 -0.18839586
-0.30352667 -0.083731495 0.12559724 0.03663253 -0.33492598 -0.2250284 0.3139931 0.06803184
-0.1726962 -0.052332185 -0.083731495 -0.0052332184 0.32445955 -0.49715576 0.13083047 -0.115130804
-0.06803184 0.0052332184 0.09419793 -0.18839586 0.0052332184 -0.09419793 -0.120364025 -0.020932874
-0.13083047 -0.26689413 0.29306024 0.047098964 0.23026161 -0.0052332184 -0.20409551 0.25119448
-0.09419793 0.19362909 0.13606368 -0.015699655 0.14653012 -0.03139931 -0.15176333 -0.1412969
-0.3401592 -0.1412969 0.057565402 -0.18839586 -0.1988623 -0.27212736 0.28782701 -0.10989758
-0.18839586 0.3139931 -0.28782701 -0.15699655 -0.10466437 0.33492598 -0.27212736 0.16746299
-0.28782701 -0.41342425 -0.057565402 0.083731495 -0.03663253 0.0 0.24072805 0.2250284
00000000: 26cf 1134 07e8 02ee d3ed 1e34 d9fc 3330
00000010: 4338 af2e f3e2 1fb1 fcf5 042b e02d dc1f
00000020: d5dd e8d3 c6da ffe0 3efe c8f4 e0db f520
00000030: edd5 d821 0b01 072c e7fb 12fa 23d1 e9ef
00000040: 061d db06 d7ee f529 dad2 edfb 05d7 ed3d
00000050: e6d1 eed2 17c0 1a1d 0fd9 3fd5 e1f9 f4d4
00000060: 06e0 fadc 2ed7 dc02 f2f4 34e0 0de4 ccca
00000070: d805 33d7 f00c 0ed7 d0f6 e709 fffd 07c9
00000080: 322c dbe6 c62f ec1b 1400 01f6 41f7 efec
00000090: 46dd fb32 f3ee e7c0 d2f8 0608 f5eb e7d7
000000a0: bd22 ebf7 23f1 073a 1feb 31e4 e5ba 0324
000000b0: 00dc e548 d03c cfcd ccee dd2c 3a02 29dc
000000c0: c6f0 1807 c0d5 3c0d dff6 f0ff 3ea1 19ea
000000d0: f301 12dc 01ee e9fc e7cd 3809 2cff d930
000000e0: ee25 1afd 1cfa e3e5 bfe5 0bdc dacc 37eb
000000f0: dc3c c9e2 ec40 cc20 c9b1 f510 f900 2e2b

model/linear_bottleneck_block_12/batch_normalization_39/FusedBatchNormV3;model/linear_bottleneck_block_12/depthwise_conv2d_25/depthwise;model/linear_bottleneck_block_12/depthwise_conv2d_25/BiasAdd/ReadVariableOp;model/linear_bottleneck_block_12/depthwise_conv2d_25/BiasAdd i1 [1, 3, 3, 384]
81 -8 -28 -17 -35 127 83 127
23 -101 -12 -15 -6 127 -16 -39
64 -6 -13 -18 -6 4 -20 17
-19 -12 9 -13 11 -19 -11 -33
-17 -25 -32 -109 -23 -17 10 -13
15 3 -26 -5 25 -30 10 -5
45 127 47 -22 81 5 127 -20
19 -82 14 46 -17 -108 84 81
-45 84 -40 32 13 38 -82 127
-81 11 -1 0 4 2 -44 -13
10 -22 113 -127 -10 -7 41 -6
-29 5 -33 -125 -24 -100 8 -15
-6 -51 31 9 -11 127 71 35
-3 -14 10 127 127 -28 10 -85
-61 45 0 -8 127 83 -28 -51
96 -55 -12 4 127 95 12 127
-3 9 -32 -30 45 2 12 -3
27 -28 127 -54 72 -22 19 1
10 -12 2 -102 -11 127 -9 7
-127 -19 -5 -74 2 15 6 40
23 -3 -12 -14 13 18 -15 127
127 -13 -9 18 -47 -114 -15 -41
-4 127 24 127 -2 -17 -7 8
47 2 8 -17 -7 47 -7 -1
-25 -5 12 -17 -9 -19 -19 127
-54 11 -18 -8 -10 110 28 5
-10 2 -11 60 -120 -123 -13 2
10 -13 127 12 5 -22 53 -39
10 -5 33 -15 -66 -6 0 -109
-126 20 6 30 12 24 -12 -11
-3 -29 -10 -24 52 -90 -52 -24
27 -39 -3 -42 -78 -66 -22 48
00000000: 51f8 e4ef dd7f 537f 179b f4f1 fa7f f0d9
00000010: 40fa f3ee fa04 ec11 edf4 09f3 0bed f5df
00000020: efe7 e093 e9ef 0af3 0f03 e6fb 19e2 0afb
00000030: 2d7f 2fea 5105 7fec 13ae 0e2e ef94 5451
00000040: d354 d820 0d26 ae7f af0b ff00 0402 d4f3
00000050: 0aea 7181 f6f9 29fa e305 df83 e89c 08f1
00000060: facd 1f09 f57f 4723 fdf2 0a7f 7fe4 0aab
00000070: c32d 00f8 7f53 e4cd 60c9 f404 7f5f 0c7f
00000080: fd09 e0e2 2d02 0cfd 1be4 7fca 48ea 1301
00000090: 0af4 029a f57f f707 81ed fbb6 020f 0628
000000a0: 17fd f4f2 0d12 f17f 7ff3 f712 d18e f1d7
000000b0: fc7f 187f feef f908 2f02 08ef f92f f9ff
000000c0: e7fb 0cef f7ed ed7f ca0b eef8 f66e 1c05
000000d0: f602 f53c 8885 f302 0af3 7f0c 05ea 35d9
000000e0: 0afb 21f1 befa 0093 8214 061e 0c18 f4f5
000000f0: fde3 f6e8 34a6 cce8 1bd9 fdd6 b2be ea30

model/linear_bottleneck_block_12/conv2d_13/Conv2D i1 [384, 1, 1, 192]
-54 47 -33 5 -21 47 22 -2
44 7 -2 -52 1 16 8 -8
16 26 4 -101 71 -49 -9 -19
-7 -20 20 -21 12 -9 14 94
-35 -11 3 -15 -56 86 -5 52
99 -20 -30 -40 47 5 7 47
-7 -2 24 -51 -14 29 -74 -12
-30 -11 -31 43 32 -28 -7 5
-19 85 23 11 10 -49 42 -7
7 40 -21 6 33 34 1 -3
29 -27 -12 21 42 -3 46 9
4 15 -7 5 6 28 -12 7
-7 -2 5 23 -95 5 76 -17
-7 15 29 -79 -31 -2 -42 39
-39 -27 -49 -28 -10 27 -33 -24
17 -9 -8 124 1 33 -10 -24
41 -9 -13 6 25 8 7 43
7 1 -9 37 -5 -14 3 13
47 -4 3 -38 -21 -127 -78 -31
-11 -58 -24 0 33 9 -53 47
-17 24 5 13 16 1 21 -16
-21 0 -23 32 -12 -14 15 -41
-17 17 -14 -36 -45 -59 11 -32
-23 -38 -19 37 6 -57 12 16
19 31 13 0 80 56 2 -42
50 35 -58 78 -16 -72 33 7
29 -23 72 -113 -15 -127 23 30
-2 -21 5 34 21 72 -12 10
26 10 68 18 49 36 -1 -37
-21 6 8 13 40 -9 49 -64
-3 29 -41 24 4 -47 23 -5
18 19 -6 -55 -18 102 -16 -13
00000000: ca2f df05 eb2f 16fe 2c07 fecc 0110 08f8
00000010: 101a 049b 47cf f7ed f9ec 14eb 0cf7 0e5e
00000020: ddf5 03f1 c856 fb34 63ec e2d8 2f05 072f
00000030: f9fe 18cd f21d b6f4 e2f5 e12b 20e4 f905
00000040: ed55 170b 0acf 2af9 0728 eb06 2122 01fd
00000050: 1de5 f415 2afd 2e09 040f f905 061c f407
00000060: f9fe 0517 a105 4cef f90f 1db1 e1fe d627
00000070: d9e5 cfe4 f61b dfe8 11f7 f87c 0121 f6e8
00000080: 29f7 f306 1908 072b 0701 f725 fbf2 030d
00000090: 2ffc 03da eb81 b2e1 f5c6 e800 2109 cb2f
000000a0: ef18 050d 1001 15f0 eb00 e920 f4f2 0fd7
000000b0: ef11 f2dc d3c5 0be0 e9da ed25 06c7 0c10
000000c0: 131f 0d00 5038 02d6 3223 c64e f0b8 2107
000000d0: 1de9 488f f181 171e feeb 0522 1548 f40a
000000e0: 1a0a 4412 3124 ffdb eb06 080d 28f7 31c0
000000f0: fd1d d718 04d1 17fb 1213 fac9 ee66 f0f3

model/linear_bottleneck_block_12/batch_normalization_37/FusedBatchNormV3;model/linear_bottleneck_block_12/depthwise_conv2d_24/depthwise;model/linear_bottleneck_block_12/depthwise_conv2d_24/BiasAdd/ReadVariableOp;model/linear_bottleneck_block_12/depthwise_conv2d_24/BiasAdd1 i1 [1, 3, 3, 192]
-95 -7 19 119 -81 45 15 -23
36 99 -62 -11 -7 127 -42 -48
15 -8 -40 18 -9 60 -2 -8
-9 -46 32 -48 51 -30 -51 47
-14 127 -50 95 -13 5 -5 8
60 -67 -5 -4 -5 31 15 83
100 -11 66 1 -24 94 -72 88
-1 -7 -8 15 52 -35 9 -6
-9 21 9 37 76 44 73 92
-124 67 127 17 -25 39 -109 -23
30 -37 13 -8 -79 10 -8 127
38 11 5 4 51 43 10 11
-28 -15 127 2 127 -45 35 98
21 16 -24 -55 -6 9 -20 -4
46 1 -17 87 55 35 0 32
0 3 10 84 102 82 -1 62
30 -36 -37 39 -6 0 -17 -11
32 -15 2 4 -12 13 -11 9
-35 -5 12 83 -127 9 -67 74
5 -1 65 -64 23 -7 -24 -18
-27 -37 104 68 7 -71 -12 81
29 29 -8 51 127 -76 -14 -65
-14 -17 -84 -105 -127 84 9 -43
-8 48 -6 11 22 -84 9 -50
-36 -47 -16 -68 46 39 -48 -21
-34 23 -127 0 21 64 -127 -25
24 -31 -58 127 -19 91 14 -79
-23 5 126 -127 101 -30 88 106
-20 83 -88 -7 -52 79 26 127
112 -127 25 -7 -47 127 13 -93
-127 -49 126 35 -12 50 -120 23
-127 -2 38 58 102 -54 -32 127
00000000: a1f9 1377 af2d 0fe9 2463 c2f5 f97f d6d0
00000010: 0ff8 d812 f73c fef8 f7d2 20d0 33e2 cd2f
00000020: f27f ce5f f305 fb08 3cbd fbfc fb1f 0f53
00000030: 64f5 4201 e85e b858 fff9 f80f 34dd 09fa
00000040: f715 0925 4c2c 495c 8443 7f11 e727 93e9
00000050: 1edb 0df8 b10a f87f 260b 0504 332b 0a0b
00000060: e4f1 7f02 7fd3 2362 1510 e8c9 fa09 ecfc
00000070: 2e01 ef57 3723 0020 0003 0a54 6652 ff3e
00000080: 1edc db27 fa00 eff5 20f1 0204 f40d f509
00000090: ddfb 0c53 8109 bd4a 05ff 41c0 17f9 e8ee
000000a0: e5db 6844 07b9 f451 1d1d f833 7fb4 f2bf
000000b0: f2ef ac97 8154 09d5 f830 fa0b 16ac 09ce
000000c0: dcd1 f0bc 2e27 d0eb de17 8100 1540 81e7
000000d0: 18e1 c67f ed5b 0eb1 e905 7e81 65e2 586a
000000e0: ec53 a8f9 cc4f 1a7f 7081 19f9 d17f 0da3
000000f0: 81cf 7e23 f432 8817 81fe 263a 66ca e07f

model/linear_bottleneck_block_11/batch_normalization_36/FusedBatchNormV3;model/linear_bottleneck_block_11/depthwise_conv2d_23/depthwise;model/linear_bottleneck_block_11/depthwise_conv2d_23/BiasAdd/ReadVariableOp;model/linear_bottleneck_block_11/depthwise_conv2d_23/BiasAdd;model/linear_bottleneck_block_12/depthwise_conv2d_24/depthwise i1 [1, 3, 3, 192]
-4 23 -12 -14 -13 11 -29 -12
127 -101 6 5 -38 2 6 10
-25 -20 -9 47 31 -41 124 -21
-28 127 -1 -19 -61 16 -2 14
1 3 -84 -106 55 -4 -62 -2
-47 24 -53 -9 0 -21 -21 -67
-58 2 17 -24 127 -4 13 -36
-6 -10 30 6 -24 -15 -18 27
-20 -33 -8 -29 -67 0 -26 31
20 -18 17 -71 -13 -13 -9 -22
9 -58 2 127 -66 -28 20 -4
-17 -104 127 -108 19 26 -90 127
18 -24 62 -20 -13 7 -20 76
68 -2 -21 8 -24 16 16 127
58 23 104 -23 9 -4 127 -24
73 -18 44 -23 -18 -11 2 2
127 1 -6 -16 48 -18 -80 -15
2 -34 -32 -37 -3 -4 55 -25
0 -6 -23 -18 -9 60 16 -3
13 47 102 -27 -5 34 -12 -5
7 5 -13 96 127 -24 -43 -3
13 -8 -25 -51 -30 -25 -43 -8
-41 5 7 -25 55 -28 45 -5
91 -45 -66 -24 84 -15 -13 -6
-7 127 -94 17 -125 67 -84 -21
84 29 -6 -22 127 -16 -69 43
-31 -65 -3 -43 -7 -127 -43 -36
-12 -69 -44 -29 -55 -15 12 -110
-6 -74 111 -9 42 -78 127 3
-127 -17 -40 -127 104 -42 44 2
-54 -24 -24 -84 -60 32 -5 89
-8 -7 -14 127 -10 -20 1 -33
00000000: fc17 f4f2 f30b e3f4 7f9b 0605 da02 060a
00000010: e7ec f72f 1fd7 7ceb e47f ffed c310 fe0e
00000020: 0103 ac96 37fc c2fe d118 cbf7 00eb ebbd
00000030: c602 11e8 7ffc 0ddc faf6 1e06 e8f1 ee1b
00000040: ecdf f8e3 bd00 e61f 14ee 11b9 f3f3 f7ea
00000050: 09c6 027f bee4 14fc ef98 7f94 131a a67f
00000060: 12e8 3eec f307 ec4c 44fe eb08 e810 107f
00000070: 3a17 68e9 09fc 7fe8 49ee 2ce9 eef5 0202
00000080: 7f01 faf0 30ee b0f1 02de e0db fdfc 37e7
00000090: 00fa e9ee f73c 10fd 0d2f 66e5 fb22 f4fb
000000a0: 0705 f360 7fe8 d5fd 0df8 e7cd e2e7 d5f8
000000b0: d705 07e7 37e4 2dfb 5bd3 bee8 54f1 f3fa
000000c0: f97f a211 8343 aceb 541d faea 7ff0 bb2b
000000d0: e1bf fdd5 f981 d5dc f4bb d4e3 c9f1 0c92
000000e0: fab6 6ff7 2ab2 7f03 81ef d881 68d6 2c02
000000f0: cae8 e8ac c420 fb59 f8f9 f27f f6ec 01df

model/linear_bottleneck_block_11/conv2d_12/Conv2D i1 [192, 1, 1, 168]
-43 -17 2 -26 11 -23 -1 17
-31 4 -42 11 6 50 74 -7
44 21 -20 -22 61 -53 -22 -22
20 -26 -16 26 -41 -19 -26 -17
37 -3 127 -40 110 -30 28 -13
0 -47 -28 70 6 -16 -39 -22
35 -70 -2 14 51 16 19 15
-6 -5 -28 -30 -86 58 7 9
-14 2 -13 -31 9 26 37 -54
-27 7 -54 -14 -19 42 14 36
-6 12 -6 8 14 -28 24 40
-8 16 -18 39 -7 -11 0 -9
-73 -13 9 31 -17 15 17 4
-67 37 -90 -32 -33 -15 -39 15
-44 18 -2 -38 -32 95 -5 44
27 -9 3 -50 5 -12 11 -5
-26 -7 43 55 47 -29 31 -73
26 21 -3 -32 4 -1 -33 25
43 89 -24 61 38 -19 9 -19
0 -23 -45 -4 -4 72 -21 -7
-20 -33 -26 -26 53 -15 -25 4
-20 17 24 -65 73 23 11 -6
32 -37 -7 -30 -70 11 5 21
-19 -15 -41 -19 5 -7 -15 33
-38 -22 -9 -5 31 8 99 -6
-98 9 23 -15 23 0 -79 -1
-62 -27 -34 15 -25 -9 -29 -72
-28 -42 -43 -78 17 28 5 -23
7 43 -33 -21 -5 -2 -10 -34
127 7 14 -13 -58 -82 -5 -26
43 -19 29 -24 -13 4 -3 -48
10 -24 25 21 27 -41 -18 7
00000000: d5ef 02e6 0be9 ff11 e104 d60b 0632 4af9
00000010: 2c15 ecea 3dcb eaea 14e6 f01a d7ed e6ef
00000020: 25fd 7fd8 6ee2 1cf3 00d1 e446 06f0 d9ea
00000030: 23ba fe0e 3310 130f fafb e4e2 aa3a 0709
00000040: f202 f3e1 091a 25ca e507 caf2 ed2a 0e24
00000050: fa0c fa08 0ee4 1828 f810 ee27 f9f5 00f7
00000060: b7f3 091f ef0f 1104 bd25 a6e0 dff1 d90f
00000070: d412 feda e05f fb2c 1bf7 03ce 05f4 0bfb
00000080: e6f9 2b37 2fe3 1fb7 1a15 fde0 04ff df19
00000090: 2b59 e83d 26ed 09ed 00e9 d3fc fc48 ebf9
000000a0: ecdf e6e6 35f1 e704 ec11 18bf 4917 0bfa
000000b0: 20db f9e2 ba0b 0515 edf1 d7ed 05f9 f121
000000c0: daea f7fb 1f08 63fa 9e09 17f1 1700 b1ff
000000d0: c2e5 de0f e7f7 e3b8 e4d6 d5b2 111c 05e9
000000e0: 072b dfeb fbfe f6de 7f07 0ef3 c6ae fbe6
000000f0: 2bed 1de8 f304 fdd0 0ae8 1915 1bd7 ee07

model/linear_bottleneck_block_11/batch_normalization_34/FusedBatchNormV3;model/linear_bottleneck_block_11/depthwise_conv2d_22/depthwise;model/linear_bottleneck_block_11/depthwise_conv2d_22/BiasAdd/ReadVariableOp;model/linear_bottleneck_block_11/depthwise_conv2d_22/BiasAdd1 i1 [1, 3, 3, 168]
84 -30 13 94 23 -24 18 47
-63 4 -37 55 -44 -5 -41 67
-47 5 127 -42 16 -127 0 -71
27 12 -33 74 -29 40 -8 2
5 -40 -28 -2 24 58 -1 -55
38 45 -127 -61 15 -114 22 11
-1 2 -127 0 -14 33 -17 -127
33 -42 -127 23 -27 -26 42 84
38 27 127 65 2 34 21 62
85 31 -19 36 -29 -39 93 9
19 76 32 -46 -14 -10 -12 62
35 48 -35 -24 -64 4 -19 -127
-15 26 -87 11 -36 -8 82 111
-21 -53 58 1 36 30 12 -67
5 -11 -74 64 26 36 -76 35
54 -35 70 6 25 -13 -19 4
6 31 -127 -41 4 6 4 52
-1 -91 87 86 75 -3 24 -10
21 19 -1 0 -70 127 42 7
50 -127 -120 65 -33 94 -18 -68
-12 -4 -51 22 -45 -47 -127 7
-21 -16 27 18 21 -38 59 68
-45 14 -117 33 -5 48 -37 88
11 21 71 16 -28 -98 -79 -31
-6 -71 90 -96 -127 10 -70 -12
-1 -127 -23 -127 -79 5 62 45
-64 53 111 -65 -21 -118 127 -6
127 4 81 36 53 -62 32 127
-36 -122 -13 -12 -111 63 -24 48
-54 127 -34 6 26 -39 23 -127
-7 10 8 -5 11 -127 120 -18
-76 -117 86 -1 127 77 43 -65
00000000: 54e2 0d5e 17e8 122f c104 db37 d4fb d743
00000010: d105 7fd6 1081 00b9 1b0c df4a e328 f802
00000020: 05d8 e4fe 183a ffc9 262d 81c3 0f8e 160b
00000030: ff02 8100 f221 ef81 21d6 8117 e5e6 2a54
00000040: 261b 7f41 0222 153e 551f ed24 e3d9 5d09
00000050: 134c 20d2 f2f6 f43e 2330 dde8 c004 ed81
00000060: f11a a90b dcf8 526f ebcb 3a01 241e 0cbd
00000070: 05f5 b640 1a24 b423 36dd 4606 19f3 ed04
00000080: 061f 81d7 0406 0434 ffa5 5756 4bfd 18f6
00000090: 1513 ff00 ba7f 2a07 3281 8841 df5e eebc
000000a0: f4fc cd16 d3d1 8107 ebf0 1b12 15da 3b44
000000b0: d30e 8b21 fb30 db58 0b15 4710 e49e b1e1
000000c0: fab9 5aa0 810a baf4 ff81 e981 b105 3e2d
000000d0: c035 6fbf eb8a 7ffa 7f04 5124 35c2 207f
000000e0: dc86 f3f4 913f e830 ca7f de06 1ad9 1781
000000f0: f90a 08fb 0b81 78ee b48b 56ff 7f4d 2bbf

model/linear_bottleneck_block_10/batch_normalization_33/FusedBatchNormV3;model/linear_bottleneck_block_10/depthwise_conv2d_21/depthwise;model/linear_bottleneck_block_10/depthwise_conv2d_21/BiasAdd/ReadVariableOp;model/linear_bottleneck_block_10/depthwise_conv2d_21/BiasAdd;model/linear_bottleneck_block_11/depthwise_conv2d_22/depthwise i1 [1, 3, 3, 168]
29 -59 -2 -14 -64 127 -2 -29
33 88 20 13 -66 -68 -52 -9
-1 -84 -27 30 127 -125 46 127
-29 -17 -127 -92 -61 -44 29 -63
-67 0 -9 -46 -58 -21 -39 -19
-8 39 127 -16 -67 4 -32 -19
-40 -12 127 -20 -51 92 24 -51
-7 -12 -31 -53 79 127 -12 66
-76 -32 -45 18 -68 -49 -39 -14
45 -78 127 -19 -23 120 -70 -34
-49 46 -31 -26 127 42 -48 -60
-100 127 -17 -73 94 52 -20 11
4 -20 -11 -43 -62 6 127 22
120 127 -92 -124 6 -21 -82 -50
-112 0 28 -21 -5 25 -1 -15
68 -32 51 47 13 -100 43 -88
-57 0 11 -28 18 -80 34 -66
-64 8 -54 127 -53 -63 -22 -28
-106 -17 -102 87 -30 -4 -24 -1
127 -23 -47 2 29 48 -12 40
-43 -16 12 57 8 -92 -94 93
49 -21 -18 -32 -55 19 2 -21
127 3 116 -19 -76 122 127 97
-91 -120 -25 0 37 -118 -26 87
-2 -29 123 127 78 -58 -3 -34
-46 -38 127 -22 127 0 15 28
-70 71 20 -18 -127 -63 51 -1
-19 -13 -19 -24 51 39 40 9
-15 -42 62 29 52 30 15 -39
17 -95 -63 127 -127 -19 -26 5
-72 -103 -33 -8 -53 -19 -121 -2
22 -2 51 -35 -101 127 67 9
00000000: 1dc5 fef2 c07f fee3 2158 140d bebc ccf7
00000010: ffac e51e 7f83 2e7f e3ef 81a4 c3d4 1dc1
00000020: bd00 f7d2 c6eb d9ed f827 7ff0 bd04 e0ed
00000030: d8f4 7fec cd5c 18cd f9f4 e1cb 4f7f f442
00000040: b4e0 d312 bccf d9f2 2db2 7fed e978 bade
00000050: cf2e e1e6 7f2a d0c4 9c7f efb7 5e34 ec0b
00000060: 04ec f5d5 c206 7f16 787f a484 06eb aece
00000070: 9000 1ceb fb19 fff1 44e0 332f 0d9c 2ba8
00000080: c700 0be4 12b0 22be c008 ca7f cbc1 eae4
00000090: 96ef 9a57 e2fc e8ff 7fe9 d102 1d30 f428
000000a0: d5f0 0c39 08a4 a25d 31eb eee0 c913 02eb
000000b0: 7f03 74ed b47a 7f61 a588 e700 258a e657
000000c0: fee3 7b7f 4ec6 fdde d2da 7fea 7f00 0f1c
000000d0: ba47 14ee 81c1 33ff edf3 ede8 3327 2809
000000e0: f1d6 3e1d 341e 0fd9 11a1 c17f 81ed e605
000000f0: b899 dff8 cbed 87fe 16fe 33dd 9b7f 4309

model/linear_bottleneck_block_10/conv2d_11/Conv2D i1 [168, 1, 1, 168]
30 -23 -31 9 12 25 24 -54
-15 13 -29 23 37 23 71 26
26 60 0 -57 48 20 -5 59
-12 -19 30 27 20 -31 53 42
-1 9 36 13 36 -13 -29 43
21 -32 32 -92 -23 52 87 -57
-17 -29 -24 75 37 -7 11 -93
-44 -48 58 -71 -30 45 48 12
-66 -38 -10 -4 16 23 127 35
9 -65 -17 -80 52 -27 -23 -4
14 11 -19 -19 19 -8 22 -19
38 -27 -11 -46 4 50 -51 40
-101 37 47 3 -24 -38 -15 1
-29 6 -57 47 -13 -49 -14 -70
39 6 -21 -2 -10 -47 105 -31
-33 52 61 40 15 9 -1 11
-4 22 -64 -36 -51 16 -58 -49
-5 47 9 41 9 23 43 10
45 -45 29 -39 -14 -2 -13 -12
18 -3 -9 -31 -1 22 -5 25
43 18 81 13 58 -19 -78 32
-18 -8 12 29 17 -42 29 10
-10 19 -16 -17 6 44 21 35
3 -7 -10 60 30 -63 -11 60
-38 -30 -25 -10 16 12 -36 -11
10 61 -2 88 -11 -28 -15 36
-91 9 -5 14 -22 27 -90 -65
-16 25 22 -11 -47 -55 -26 28
-32 1 -3 66 -12 -9 3 10
-27 -7 12 21 -1 -2 -51 22
32 -11 -9 -17 5 -19 16 -30
-11 31 18 16 -57 -4 -42 -1
00000000: 1ee9 e109 0c19 18ca f10d e317 2517 471a
00000010: 1a3c 00c7 3014 fb3b f4ed 1e1b 14e1 352a
00000020: ff09 240d 24f3 e32b 15e0 20a4 e934 57c7
00000030: efe3 e84b 25f9 0ba3 d4d0 3ab9 e22d 300c
00000040: beda f6fc 1017 7f23 09bf efb0 34e5 e9fc
00000050: 0e0b eded 13f8 16ed 26e5 f5d2 0432 cd28
00000060: 9b25 2f03 e8da f101 e306 c72f f3cf f2ba
00000070: 2706 ebfe f6d1 69e1 df34 3d28 0f09 ff0b
00000080: fc16 c0dc cd10 c6cf fb2f 0929 0917 2b0a
00000090: 2dd3 1dd9 f2fe f3f4 12fd f7e1 ff16 fb19
000000a0: 2b12 510d 3aed b220 eef8 0c1d 11d6 1d0a
000000b0: f613 f0ef 062c 1523 03f9 f63c 1ec1 f53c
000000c0: dae2 e7f6 100c dcf5 0a3d fe58 f5e4 f124
000000d0: a509 fb0e ea1b a6bf f019 16f5 d1c9 e61c
000000e0: e001 fd42 f4f7 030a e5f9 0c15 fffe cd16
000000f0: 20f5 f7ef 05ed 10e2 f51f 1210 c7fc d6ff

model/linear_bottleneck_block_10/batch_normalization_31/FusedBatchNormV3;model/linear_bottleneck_block_10/depthwise_conv2d_20/depthwise;model/linear_bottleneck_block_10/depthwise_conv2d_20/BiasAdd/ReadVariableOp;model/linear_bottleneck_block_10/depthwise_conv2d_20/BiasAdd;model/linear_bottleneck_block_11/depthwise_conv2d_22/depthwise1 i1 [1, 3, 3, 168]
74 26 -84 79 2 37 -24 -1
83 -43 25 76 9 -5 -2 84
-53 -127 8 2 1 -31 63 5
-104 106 -64 84 15 18 127 -46
26 127 27 -20 71 49 9 -127
23 9 -2 -23 23 32 -79 73
-15 26 9 -45 -28 36 -123 -25
-108 42 63 -127 -56 -6 -2 39
127 54 127 3 -69 -54 -26 -55
-127 83 87 -77 38 -26 -4 -65
13 127 -60 -24 96 -3 17 127
14 44 -56 -6 15 -52 -3 37
-45 90 -89 -63 -40 -6 127 -51
8 -56 -127 62 45 -76 -69 7
-35 -110 24 -47 85 -46 127 -36
120 -13 -95 127 25 -33 6 -97
80 -23 91 56 2 15 -16 -11
-14 49 95 -81 116 73 -51 -42
28 -69 100 -3 -17 -45 -74 31
41 127 26 -19 -78 -101 -16 -11
-127 -41 32 -18 24 4 -8 -127
13 69 -12 -41 -125 126 51 76
107 127 -24 66 -10 -60 -24 92
-31 -27 16 11 13 18 127 -102
-12 101 -45 -31 -28 -22 64 62
87 -98 127 21 -82 47 -109 -19
71 -22 -14 12 62 -62 63 -127
22 59 58 -10 -30 23 -45 -86
39 127 -81 15 -43 -10 111 59
-37 -57 67 62 -34 -20 -25 -127
-10 15 -35 49 -77 70 33 -120
71 -71 40 127 25 -104 -37 -40
00000000: 4a1a ac4f 0225 e8ff 53d5 194c 09fb fe54
00000010: cb81 0802 01e1 3f05 986a c054 0f12 7fd2
00000020: 1a7f 1bec 4731 0981 1709 fee9 1720 b149
00000030: f11a 09d3 e424 85e7 942a 3f81 c8fa fe27
00000040: 7f36 7f03 bbca e6c9 8153 57b3 26e6 fcbf
00000050: 0d7f c4e8 60fd 117f 0e2c c8fa 0fcc fd25
00000060: d35a a7c1 d8fa 7fcd 08c8 813e 2db4 bb07
00000070: dd92 18d1 55d2 7fdc 78f3 a17f 19df 069f
00000080: 50e9 5b38 020f f0f5 f231 5faf 7449 cdd6
00000090: 1cbb 64fd efd3 b61f 297f 1aed b29b f0f5
000000a0: 81d7 20ee 1804 f881 0d45 f4d7 837e 334c
000000b0: 6b7f e842 f6c4 e85c e1e5 100b 0d12 7f9a
000000c0: f465 d3e1 e4ea 403e 579e 7f15 ae2f 93ed
000000d0: 47ea f20c 3ec2 3f81 163b 3af6 e217 d3aa
000000e0: 277f af0f d5f6 6f3b dbc7 433e deec e781
000000f0: f60f dd31 b346 2188 47b9 287f 1998 dbd8

model/linear_bottleneck_block_9/batch_normalization_30/FusedBatchNormV3;model/linear_bottleneck_block_9/depthwise_conv2d_19/depthwise;model/linear_bottleneck_block_9/depthwise_conv2d_19/BiasAdd/ReadVariableOp;model/linear_bottleneck_block_9/depthwise_conv2d_19/BiasAdd;model/linear_bottleneck_block_11/depthwise_conv2d_22/depthwise i1 [1, 3, 3, 168]
-16 -71 16 127 -109 -35 -36 -17
-5 58 -27 74 3 79 -127 -9
24 -3 127 -105 -35 4 93 2
-6 90 -44 -127 101 -1 15 127
-62 2 22 60 -20 -86 44 127
-44 48 -87 98 -26 5 -56 -50
24 127 -17 12 40 0 -48 46
-39 -7 -86 5 -114 51 -34 -74
-16 -86 -44 -85 -127 -28 -14 127
-27 -79 -70 -18 48 -17 -78 -18
-104 91 -57 -21 28 -24 127 2
-96 -2 -44 -30 22 127 -59 48
-51 9 -8 -28 -7 -44 9 28
-71 34 -24 -50 -77 109 36 22
99 -40 40 84 127 40 127 -91
127 -45 -17 -7 90 38 127 -98
-91 -63 -54 -9 127 123 56 65
-22 -33 113 -28 44 -44 127 -26
-61 -20 -62 27 -40 -43 -24 -82
67 -24 42 -34 -39 -33 75 31
-42 -20 127 76 4 27 -4 28
-51 4 127 -106 64 -127 127 73
-10 -21 -37 -18 127 40 96 40
35 5 -67 -108 -6 61 25 93
-16 89 53 -70 -38 -57 7 -89
-76 -49 27 47 40 127 127 18
127 -10 -51 99 2 46 -62 -28
-60 32 -19 -72 -40 1 -30 39
-31 -25 83 127 -124 115 -127 14
14 -35 11 -120 -111 7 -29 72
-11 -127 -81 39 14 -26 60 -125
-64 -49 68 -46 -38 27 -20 -71
00000000: f0b9 107f 93dd dcef fb3a e54a 034f 81f7
00000010: 18fd 7f97 dd04 5d02 fa5a d481 65ff 0f7f
00000020: c202 163c ecaa 2c7f d430 a962 e605 c8ce
00000030: 187f ef0c 2800 d02e d9f9 aa05 8e33 deb6
00000040: f0aa d4ab 81e4 f27f e5b1 baee 30ef b2ee
00000050: 985b c7eb 1ce8 7f02 a0fe d4e2 167f c530
00000060: cd09 f8e4 f9d4 091c b922 e8ce b36d 2416
00000070: 63d8 2854 7f28 7fa5 7fd3 eff9 5a26 7f9e
00000080: a5c1 caf7 7f7b 3841 eadf 71e4 2cd4 7fe6
00000090: c3ec c21b d8d5 e8ae 43e8 2ade d9df 4b1f
000000a0: d6ec 7f4c 041b fc1c cd04 7f96 4081 7f49
000000b0: f6eb dbee 7f28 6028 2305 bd94 fa3d 195d
000000c0: f059 35ba dac7 07a7 b4cf 1b2f 287f 7f12
000000d0: 7ff6 cd63 022e c2e4 c420 edb8 d801 e227
000000e0: e1e7 537f 8473 810e 0edd 0b88 9107 e348
000000f0: f581 af27 0ee6 3c83 c0cf 44d2 da1b ecb9

model/linear_bottleneck_block_9/conv2d_10/Conv2D i1 [168, 1, 1, 168]
80 -109 34 -3 -9 -9 -37 126
-50 -59 7 19 -65 5 -42 28
-63 -37 -25 71 -9 -54 -7 2
59 35 87 -24 -56 26 1 -22
34 21 25 77 -19 25 47 18
-79 26 -3 -9 22 6 30 65
3 9 30 58 5 23 34 47
19 -5 -21 44 -1 -54 33 11
7 -68 0 56 8 -48 -43 29
-4 9 14 -22 6 -35 8 -9
38 0 32 21 -40 -4 -49 -7
14 -46 35 93 9 -6 -10 6
62 -26 61 25 -21 52 -32 36
22 42 2 -40 -35 -4 11 -30
-34 63 18 -24 36 -39 -17 -34
53 30 15 -35 10 -11 92 -17
56 10 -10 -21 -18 0 24 42
-8 -27 39 -8 -7 -50 -48 -63
13 -13 -13 12 -17 2 -8 1
8 -67 16 -2 20 39 2 34
127 -20 -62 10 -36 -4 -10 -44
69 -33 -17 -27 19 35 -26 1
31 -63 28 16 -9 60 -38 74
13 30 -27 -16 -34 -18 -13 38
-9 -58 24 18 24 -9 7 3
14 13 14 -5 11 55 9 -10
12 -36 29 -10 -8 -31 31 39
-4 12 -7 17 17 -28 49 5
12 -25 38 127 -15 -1 44 41
29 12 -33 3 -18 26 42 -10
30 16 23 29 -8 -38 6 -1
-12 -21 -8 -37 -15 -31 -18 -36
00000000: 5093 22fd f7f7 db7e cec5 0713 bf05 d61c
00000010: c1db e747 f7ca f902 3b23 57e8 c81a 01ea
00000020: 2215 194d ed19 2f12 b11a fdf7 1606 1e41
00000030: 0309 1e3a 0517 222f 13fb eb2c ffca 210b
00000040: 07bc 0038 08d0 d51d fc09 0eea 06dd 08f7
00000050: 2600 2015 d8fc cff9 0ed2 235d 09fa f606
00000060: 3ee6 3d19 eb34 e024 162a 02d8 ddfc 0be2
00000070: de3f 12e8 24d9 efde 351e 0fdd 0af5 5cef
00000080: 380a f6eb ee00 182a f8e5 27f8 f9ce d0c1
00000090: 0df3 f30c ef02 f801 08bd 10fe 1427 0222
000000a0: 7fec c20a dcfc f6d4 45df efe5 1323 e601
000000b0: 1fc1 1c10 f73c da4a 0d1e e5f0 deee f326
000000c0: f7c6 1812 18f7 0703 0e0d 0efb 0b37 09f6
000000d0: 0cdc 1df6 f8e1 1f27 fc0c f911 11e4 3105
000000e0: 0ce7 267f f1ff 2c29 1d0c df03 ee1a 2af6
000000f0: 1e10 171d f8da 06ff f4eb f8db f1e1 eedc

model/linear_bottleneck_block_9/batch_normalization_28/FusedBatchNormV3;model/linear_bottleneck_block_9/depthwise_conv2d_18/depthwise;model/linear_bottleneck_block_9/depthwise_conv2d_18/BiasAdd/ReadVariableOp;model/linear_bottleneck_block_9/depthwise_conv2d_18/BiasAdd;model/linear_bottleneck_block_11/depthwise_conv2d_22/depthwise1 i1 [1, 3, 3, 168]
20 4 -127 -19 27 -85 100 -1
-11 123 -18 127 73 -55 71 25
79 82 -5 30 -127 23 -14 -50
-34 7 94 27 -38 -45 -61 -46
-20 60 68 4 80 127 30 -19
109 -119 24 3 41 -17 -37 -102
7 -64 -9 9 14 18 -29 -59
-97 -68 40 -13 -40 24 35 26
43 59 -14 49 7 -29 127 29
111 -38 37 43 -25 68 -53 11
1 47 -4 10 19 -51 46 -28
10 -1 56 4 -127 -72 -98 -53
32 52 -127 -37 17 -26 -16 -10
-127 -14 -67 -12 34 19 62 18
64 -127 -127 -6 -29 41 -127 -91
0 71 127 -4 22 -60 -20 127
54 -40 -10 30 -83 66 -71 -66
47 -31 -15 -103 -14 -42 77 42
-10 -70 69 -50 -51 -18 -2 -48
-3 -2 -115 -64 23 27 -51 70
-8 -5 32 -4 112 25 91 99
-109 -114 -63 41 -98 -52 -101 -66
3 32 14 -92 -29 -127 -7 35
127 -54 4 68 -51 50 29 -19
22 -36 -56 72 107 24 -22 -45
-101 48 127 -19 -2 -121 -73 5
-32 12 91 -127 23 15 -4 -71
19 -74 78 24 36 -20 49 0
-88 -99 26 17 7 85 -127 127
93 45 -15 -9 31 3 -16 24
-105 31 -127 -37 -28 5 127 -88
20 -78 28 -33 36 -114 96 32
00000000: 1404 81ed 1bab 64ff f57b ee7f 49c9 4719
00000010: 4f52 fb1e 8117 f2ce de07 5e1b dad3 c3d2
00000020: ec3c 4404 507f 1eed 6d89 1803 29ef db9a
00000030: 07c0 f709 0e12 e3c5 9fbc 28f3 d818 231a
00000040: 2b3b f231 07e3 7f1d 6fda 252b e744 cb0b
00000050: 012f fc0a 13cd 2ee4 0aff 3804 81b8 9ecb
00000060: 2034 81db 11e6 f0f6 81f2 bdf4 2213 3e12
00000070: 4081 81fa e329 81a5 0047 7ffc 16c4 ec7f
00000080: 36d8 f61e ad42 b9be 2fe1 f199 f2d6 4d2a
00000090: f6ba 45ce cdee fed0 fdfe 8dc0 171b cd46
000000a0: f8fb 20fc 7019 5b63 938e c129 9ecc 9bbe
000000b0: 0320 0ea4 e381 f923 7fca 0444 cd32 1ded
000000c0: 16dc c848 6b18 ead3 9b30 7fed fe87 b705
000000d0: e00c 5b81 170f fcb9 13b6 4e18 24ec 3100
000000e0: a89d 1a11 0755 817f 5d2d f1f7 1f03 f018
000000f0: 971f 81db e405 7fa8 14b2 1cdf 248e 6020

model/linear_bottleneck_block_8/batch_normalization_27/FusedBatchNormV3;model/linear_bottleneck_block_8/depthwise_conv2d_17/depthwise;model/linear_bottleneck_block_8/depthwise_conv2d_17/BiasAdd/ReadVariableOp;model/linear_bottleneck_block_8/depthwise_conv2d_17/BiasAdd;model/linear_bottleneck_block_11/depthwise_conv2d_22/depthwise i1 [1, 3, 3, 168]
103 30 22 -17 -16 -23 1 -16
3 -52 32 25 77 -26 127 32
-35 6 62 -101 -38 -23 127 4
-49 -42 -16 -90 17 114 -47 14
0 52 -86 70 127 -50 -67 20
-14 -34 22 -72 -127 65 -63 -68
25 52 -20 -54 -99 -7 59 13
-21 -74 7 -50 127 -18 -13 -30
127 -51 -10 -75 10 -73 24 -29
114 56 85 -127 -25 52 -23 -37
-9 -127 -4 -60 -25 -53 48 -33
11 -40 2 6 5 -36 28 17
-75 -31 -42 -35 -91 -5 -48 -39
-10 -61 -71 124 32 127 -17 9
-9 -3 -26 -17 -41 -114 -23 -67
127 62 121 -41 -21 78 -71 -52
-27 7 -36 -62 127 -17 -31 -23
127 6 -58 9 127 -11 -78 -75
-67 117 0 -13 -101 104 127 -70
127 1 -24 35 91 127 -27 16
-25 -80 127 -49 -21 -12 92 37
-9 -127 46 127 -11 127 13 -62
-68 -127 -16 -73 -43 -86 -85 127
-49 -42 62 -99 -23 21 -39 -123
-24 -53 -52 -64 127 127 -127 -13
8 127 11 -13 -76 -44 127 44
42 -80 -68 108 -100 127 -53 -20
-96 -97 -10 9 -99 82 73 96
-127 17 -36 19 -44 79 -26 -41
-15 -14 -56 -49 28 -61 23 48
-78 127 -127 -14 90 72 -23 31
-36 -123 -29 9 -25 -47 -15 -62
00000000: 671e 16ef f0e9 01f0 03cc 2019 4de6 7f20
00000010: dd06 3e9b dae9 7f04 cfd6 f0a6 1172 d10e
00000020: 0034 aa46 7fce bd14 f2de 16b8 8141 c1bc
00000030: 1934 ecca 9df9 3b0d ebb6 07ce 7fee f3e2
00000040: 7fcd f6b5 0ab7 18e3 7238 5581 e734 e9db
00000050: f781 fcc4 e7cb 30df 0bd8 0206 05dc 1c11
00000060: b5e1 d6dd a5fb d0d9 f6c3 b97c 207f ef09
00000070: f7fd e6ef d78e e9bd 7f3e 79d7 eb4e b9cc
00000080: e507 dcc2 7fef e1e9 7f06 c609 7ff5 b2b5
00000090: bd75 00f3 9b68 7fba 7f01 e823 5b7f e510
000000a0: e7b0 7fcf ebf4 5c25 f781 2e7f f57f 0dc2
000000b0: bc81 f0b7 d5aa ab7f cfd6 3e9d e915 d985
000000c0: e8cb ccc0 7f7f 81f3 087f 0bf3 b4d4 7f2c
000000d0: 2ab0 bc6c 9c7f cbec a09f f609 9d52 4960
000000e0: 8111 dc13 d44f e6d7 f1f2 c8cf 1cc3 1730
000000f0: b27f 81f2 5a48 e91f dc85 e309 e7d1 f1c2

model/linear_bottleneck_block_8/conv2d_9/Conv2D i1 [168, 1, 1, 96]
-53 -5 49 48 107 -23 -51 -11
37 55 -31 -13 -127 16 55 -12
21 18 -48 46 73 80 -35 -55
9 13 -21 -34 113 44 -13 63
1 -67 -11 20 -2 67 -84 125
80 -6 -80 86 -17 39 94 28
-10 27 -2 42 -81 13 53 101
-75 18 57 13 -69 75 -3 49
76 -28 53 36 24 -9 -55 33
48 16 107 -114 20 60 -103 -43
4 -28 12 43 14 5 17 75
-8 -37 -90 -37 52 10 37 2
-32 33 46 -33 67 -59 -19 -16
28 23 10 -87 -50 -1 -68 -39
-39 29 -16 2 31 -45 -41 -35
-29 -88 -32 27 -38 34 -39 5
28 49 -127 28 9 -33 35 -11
63 25 -29 30 -5 68 -58 47
-31 -12 20 8 -3 -30 1 59
14 15 45 26 -62 -28 -19 5
-45 -57 -109 -69 47 4 19 -50
-26 31 0 -16 17 11 19 -20
-63 -28 -33 -69 -31 -16 6 96
-122 -65 -53 26 -14 -4 57 18
42 36 -27 -23 -76 11 1 8
39 99 -71 -4 -4 39 -13 -20
-6 -24 22 -125 95 -4 11 33
-50 -11 71 -127 -84 37 -62 44
76 -38 100 -28 23 60 29 -29
-21 56 -125 1 38 32 21 -22
-50 -16 55 18 1 37 -28 -21
-2 49 52 47 -69 8 -74 -78
00000000: cbfb 3130 6be9 cdf5 2537 e1f3 8110 37f4
00000010: 1512 d02e 4950 ddc9 090d ebde 712c f33f
00000020: 01bd f514 fe43 ac7d 50fa b056 ef27 5e1c
00000030: f61b fe2a af0d 3565 b512 390d bb4b fd31
00000040: 4ce4 3524 18f7 c921 3010 6b8e 143c 99d5
00000050: 04e4 0c2b 0e05 114b f8db a6db 340a 2502
00000060: e021 2edf 43c5 edf0 1c17 0aa9 ceff bcd9
00000070: d91d f002 1fd3 d7dd e3a8 e01b da22 d905
00000080: 1c31 811c 09df 23f5 3f19 e31e fb44 c62f
00000090: e1f4 1408 fde2 013b 0e0f 2d1a c2e4 ed05
000000a0: d3c7 93bb 2f04 13ce e61f 00f0 110b 13ec
000000b0: c1e4 dfbb e1f0 0660 86bf cb1a f2fc 3912
000000c0: 2a24 e5e9 b40b 0108 2763 b9fc fc27 f3ec
000000d0: fae8 1683 5ffc 0b21 cef5 4781 ac25 c22c
000000e0: 4cda 64e4 173c 1de3 eb38 8301 2620 15ea
000000f0: cef0 3712 0125 e4eb fe31 342f bb08 b6b2

model/linear_bottleneck_block_8/batch_normalization_25/FusedBatchNormV3;model/linear_bottleneck_block_8/depthwise_conv2d_16/depthwise;model/linear_bottleneck_block_8/depthwise_conv2d_16/BiasAdd/ReadVariableOp;model/linear_bottleneck_block_8/depthwise_conv2d_16/BiasAdd1 i1 [1, 3, 3, 96]
127 108 -92 -67 -25 -10 -58 96
126 53 61 -17 -127 127 120 -111
-117 -48 -85 77 -95 -9 -107 -58
-5 -71 52 -75 -31 -5 127 -95
58 -9 -77 -40 -49 -127 -119 127
56 -127 72 -38 -45 -71 -127 -44
5 127 24 -112 127 9 44 -8
14 -101 126 -40 -20 6 108 -125
-127 -12 -102 127 90 -25 38 -35
-64 127 127 -116 -14 -108 -127 127
4 -31 -5 127 127 34 -97 -98
-63 68 -88 -70 59 -127 94 6
27 -11 -7 -98 33 -67 63 127
-16 4 -26 -127 22 49 50 -79
-127 31 -18 38 -127 28 -109 -53
26 64 16 -127 4 -114 54 -85
41 5 -122 41 -81 -107 27 -2
93 22 -76 -78 -44 -92 -26 110
127 85 127 -127 -46 65 -4 39
3 -19 97 35 79 62 127 18
-11 -63 -27 89 75 16 66 -19
53 41 -1 -16 21 -127 17 3
-127 -11 -27 -118 89 127 -127 -127
4 90 -117 -73 -121 12 64 -62
-15 -54 122 -127 127 -20 87 25
6 -5 40 7 54 1 117 -89
-3 -19 28 127 -1 -12 -15 -32
-49 -3 19 -62 -27 -19 31 -102
123 -127 20 -30 14 -24 18 80
62 -57 90 0 39 -116 -18 -22
31 100 22 -29 -56 -127 -8 -40
4 13 62 -5 -48 16 -37 -5
00000000: 7f6c a4bd e7f6 c660 7e35 3def 817f 7891
00000010: 8bd0 ab4d a1f7 95c6 fbb9 34b5 e1fb 7fa1
00000020: 3af7 b3d8 cf81 897f 3881 48da d3b9 81d4
00000030: 057f 1890 7f09 2cf8 0e9b 7ed8 ec06 6c83
00000040: 81f4 9a7f 5ae7 26dd c07f 7f8c f294 817f
00000050: 04e1 fb7f 7f22 9f9e c144 a8ba 3b81 5e06
00000060: 1bf5 f99e 21bd 3f7f f004 e681 1631 32b1
00000070: 811f ee26 811c 93cb 1a40 1081 048e 36ab
00000080: 2905 8629 af95 1bfe 5d16 b4b2 d4a4 e66e
00000090: 7f55 7f81 d241 fc27 03ed 6123 4f3e 7f12
000000a0: f5c1 e559 4b10 42ed 3529 fff0 1581 1103
000000b0: 81f5 e58a 597f 8181 045a 8bb7 870c 40c2
000000c0: f1ca 7a81 7fec 5719 06fb 2807 3601 75a7
000000d0: fded 1c7f fff4 f1e0 cffd 13c2 e5ed 1f9a
000000e0: 7b81 14e2 0ee8 1250 3ec7 5a00 278c eeea
000000f0: 1f64 16e3 c881 f8d8 040d 3efb d010 dbfb

model/linear_bottleneck_block_7/batch_normalization_24/FusedBatchNormV3;model/linear_bottleneck_block_7/depthwise_conv2d_15/depthwise;model/linear_bottleneck_block_7/depthwise_conv2d_15/BiasAdd/ReadVariableOp;model/linear_bottleneck_block_7/depthwise_conv2d_15/BiasAdd;model/linear_bottleneck_block_8/depthwise_conv2d_16/depthwise i1 [1, 3, 3, 96]
-34 -37 -18 44 -70 -54 -13 -51
17 31 49 29 -51 -54 4 16
-33 -2 4 61 -27 82 55 -58
99 -43 -31 -60 -72 -1 84 -3
3 -14 -22 -31 -7 0 127 29
19 -25 47 -40 127 2 1 79
109 23 -54 -102 -119 -35 127 125
-29 -67 -109 -13 -13 127 -15 3
-72 24 -44 -99 17 -127 -14 -15
96 -30 -7 -22 57 21 -13 -57
99 -22 -45 -47 127 47 27 -15
127 31 127 -86 127 -20 92 78
27 42 58 59 13 77 -85 -75
59 127 127 127 127 -29 -10 84
59 -71 -77 35 -44 127 113 -7
127 -50 -40 -18 -51 22 52 -37
44 101 34 -34 -65 127 -6 -6
116 -18 31 -62 88 -63 -30 52
127 -26 63 -56 98 -127 -35 93
-15 12 -31 -83 127 106 -26 -62
40 65 -61 -72 -30 -53 31 -87
-63 -72 127 -44 -62 -53 48 -51
-8 -40 41 -64 68 127 -33 8
15 5 97 -2 -14 -2 -67 23
78 20 -37 127 90 21 -85 -15
15 -58 52 -118 31 -40 16 8
32 -15 -100 -27 -7 93 -12 -127
-80 116 15 -26 13 -2 127 15
-8 51 -21 114 -30 102 16 -53
31 23 115 -38 11 -11 127 -123
-27 2 -94 -63 127 11 -7 44
-45 -127 -29 -51 95 37 -26 53
00000000: dedb ee2c baca f3cd 111f 311d cdca 0410
00000010: dffe 043d e552 37c6 63d5 e1c4 b8ff 54fd
00000020: 03f2 eae1 f900 7f1d 13e7 2fd8 7f02 014f
00000030: 6d17 ca9a 89dd 7f7d e3bd 93f3 f37f f103
00000040: b818 d49d 1181 f2f1 60e2 f9ea 3915 f3c7
00000050: 63ea d3d1 7f2f 1bf1 7f1f 7faa 7fec 5c4e
00000060: 1b2a 3a3b 0d4d abb5 3b7f 7f7f 7fe3 f654
00000070: 3bb9 b323 d47f 71f9 7fce d8ee cd16 34db
00000080: 2c65 22de bf7f fafa 74ee 1fc2 58c1 e234
00000090: 7fe6 3fc8 6281 dd5d f10c e1ad 7f6a e6c2
000000a0: 2841 c3b8 e2cb 1fa9 c1b8 7fd4 c2cb 30cd
000000b0: f8d8 29c0 447f df08 0f05 61fe f2fe bd17
000000c0: 4e14 db7f 5a15 abf1 0fc6 348a 1fd8 1008
000000d0: 20f1 9ce5 f95d f481 b074 0fe6 0dfe 7f0f
000000e0: f833 eb72 e266 10cb 1f17 73da 0bf5 7f85
000000f0: e502 a2c1 7f0b f92c d381 e3cd 5f25 e635

model/linear_bottleneck_block_7/conv2d_8/Conv2D i1 [96, 1, 1, 96]
52 21 -40 -3 -23 13 -96 -7
-48 81 23 -24 5 33 -69 -7
39 4 -30 -6 -38 19 9 -48
53 -58 32 25 -21 -10 1 -13
22 24 42 -37 -70 21 32 -18
8 -69 -29 83 15 12 86 91
-7 20 19 50 30 -4 20 -16
-32 20 68 -33 -2 -68 -7 -45
-19 34 -37 24 -44 -38 20 39
14 7 -2 49 41 -43 -66 -34
-27 15 24 -1 -45 3 0 9
-127 0 23 54 -9 7 -11 18
59 -11 7 47 -99 -64 26 -89
98 116 -73 0 -59 51 58 -20
90 32 42 -37 -74 63 11 -23
-19 31 88 92 68 22 -44 11
-71 -92 28 58 4 -4 37 -47
13 6 33 5 45 39 6 -25
-92 -125 -46 -65 -6 5 -29 38
-1 97 77 -19 -54 -55 42 -2
-20 12 -64 -127 26 -69 78 -36
-13 23 26 -23 -68 103 -38 -25
68 -13 42 98 -37 -1 -35 27
75 -94 -82 79 -2 0 24 10
22 11 -25 -11 -13 -33 15 34
-4 47 19 -44 -2 1 -6 -29
-21 4 64 45 -15 14 -65 17
-9 30 -22 -3 -10 -5 30 -45
35 20 -11 -28 32 -22 -13 -37
30 23 6 21 -33 6 -29 -26
24 64 -6 -46 -1 -10 14 -6
8 26 -2 -38 -6 21 -22 -55
00000000: 3415 d8fd e90d a0f9 d051 17e8 0521 bbf9
00000010: 2704 e2fa da13 09d0 35c6 2019 ebf6 01f3
00000020: 1618 2adb ba15 20ee 08bb e353 0f0c 565b
00000030: f914 1332 1efc 14f0 e014 44df febc f9d3
00000040: ed22 db18 d4da 1427 0e07 fe31 29d5 bede
00000050: e50f 18ff d303 0009 8100 1736 f707 f512
00000060: 3bf5 072f 9dc0 1aa7 6274 b700 c533 3aec
00000070: 5a20 2adb b63f 0be9 ed1f 585c 4416 d40b
00000080: b9a4 1c3a 04fc 25d1 0d06 2105 2d27 06e7
00000090: a483 d2bf fa05 e326 ff61 4ded cac9 2afe
000000a0: ec0c c081 1abb 4edc f317 1ae9 bc67 dae7
000000b0: 44f3 2a62 dbff dd1b 4ba2 ae4f fe00 180a
000000c0: 160b e7f5 f3df 0f22 fc2f 13d4 fe01 fae3
000000d0: eb04 402d f10e bf11 f71e eafd f6fb 1ed3
000000e0: 2314 f5e4 20ea f3db 1e17 0615 df06 e3e6
000000f0: 1840 fad2 fff6 0efa 081a feda fa15 eac9

model/linear_bottleneck_block_7/batch_normalization_22/FusedBatchNormV3;model/linear_bottleneck_block_7/depthwise_conv2d_14/depthwise;model/linear_bottleneck_block_7/depthwise_conv2d_14/BiasAdd/ReadVariableOp;model/linear_bottleneck_block_7/depthwise_conv2d_14/BiasAdd;model/linear_bottleneck_block_8/depthwise_conv2d_16/depthwise1 i1 [1, 3, 3, 96]
-13 36 -55 3 -41 -127 35 12
35 -4 -114 85 127 -60 -2 127
-45 5 -23 -109 26 -74 44 126
-31 -40 -37 -61 -78 72 127 31
-127 13 -127 -108 116 -76 -126 -117
42 -127 36 -6 -85 -37 64 7
82 17 -34 -34 87 85 -113 127
63 49 83 53 -33 53 42 37
-40 55 29 -4 -1 55 -16 -15
106 -86 -125 -118 0 57 -61 7
8 -127 -127 -28 29 -127 -127 111
5 -35 25 60 -24 -86 54 -31
39 45 114 80 -108 -49 -36 72
-79 125 -50 -78 110 103 -18 67
-57 -127 -38 127 29 -51 -127 92
-13 -6 -103 -127 -98 69 67 18
-48 -95 -125 -44 76 -47 42 -44
-25 -11 -72 8 -127 62 32 53
-95 127 -2 18 86 32 43 103
-66 72 -34 -18 76 43 23 -26
43 -10 51 -127 35 -11 -78 9
-21 42 31 -24 -7 35 -127 44
-67 -106 -76 127 69 8 -57 -30
79 -82 -1 84 13 16 41 49
-30 70 -107 -23 -42 -69 61 -5
-28 126 95 0 11 -15 127 91
45 -124 -39 -71 42 -63 86 9
10 97 -44 20 5 55 24 46
39 -55 -33 -64 30 -127 127 -55
-8 -64 -23 42 -85 88 127 35
-127 25 -85 2 48 7 -44 17
-81 116 -10 15 -17 127 28 36
00000000: f324 c903 d781 230c 23fc 8e55 7fc4 fe7f
00000010: d305 e993 1ab6 2c7e e1d8 dbc3 b248 7f1f
00000020: 810d 8194 74b4 828b 2a81 24fa abdb 4007
00000030: 5211 dede 5755 8f7f 3f31 5335 df35 2a25
00000040: d837 1dfc ff37 f0f1 6aaa 838a 0039 c307
00000050: 0881 81e4 1d81 816f 05dd 193c e8aa 36e1
00000060: 272d 7250 94cf dc48 b17d ceb2 6e67 ee43
00000070: c781 da7f 1dcd 815c f3fa 9981 9e45 4312
00000080: d0a1 83d4 4cd1 2ad4 e7f5 b808 813e 2035
00000090: a17f fe12 5620 2b67 be48 deee 4c2b 17e6
000000a0: 2bf6 3381 23f5 b209 eb2a 1fe8 f923 812c
000000b0: bd96 b47f 4508 c7e2 4fae ff54 0d10 2931
000000c0: e246 95e9 d6bb 3dfb e47e 5f00 0bf1 7f5b
000000d0: 2d84 d9b9 2ac1 5609 0a61 d414 0537 182e
000000e0: 27c9 dfc0 1e81 7fc9 f8c0 e92a ab58 7f23
000000f0: 8119 ab02 3007 d411 af74 f60f ef7f 1c24

model/linear_bottleneck_block_6/batch_normalization_21/FusedBatchNormV3;model/linear_bottleneck_block_6/depthwise_conv2d_13/depthwise;model/linear_bottleneck_block_6/depthwise_conv2d_13/BiasAdd/ReadVariableOp;model/linear_bottleneck_block_6/depthwise_conv2d_13/BiasAdd;model/linear_bottleneck_block_8/depthwise_conv2d_16/depthwise i1 [1, 3, 3, 96]
49 90 -28 -66 2 -111 29 -46
-85 -24 69 119 -26 32 6 -78
47 -13 127 63 119 61 127 -110
39 -43 -13 -19 -8 19 21 -8
29 -97 -80 -44 -18 38 127 -7
11 -77 -61 -69 -24 120 9 -79
-75 44 57 -107 -89 100 127 -66
-55 76 -30 -13 -10 -36 -34 -25
-8 -61 27 0 26 117 53 127
36 61 -51 -127 91 55 -65 127
-25 -59 -43 -90 79 -93 127 -98
32 -43 -16 40 -12 -38 -64 127
28 -17 88 -3 -29 -41 52 78
-127 20 127 -54 23 127 9 4
61 -17 86 -66 126 -9 -97 -127
-31 56 65 -25 -54 22 127 -15
-62 22 -98 124 55 127 54 16
55 121 -36 -75 -16 127 100 102
-44 56 -41 -9 -4 96 79 -64
-63 -127 -29 27 -127 -8 -49 51
-31 -68 102 -19 -17 24 40 123
49 63 -4 -43 94 127 65 15
4 -127 -103 -18 60 -61 55 104
-87 -102 -51 127 -22 -50 38 74
3 89 -48 112 -49 -127 -2 110
-125 -13 70 110 -56 7 4 -122
63 -16 -82 -19 -48 -2 -38 -91
88 120 34 26 -25 16 77 -68
-43 -13 27 61 -32 56 -63 -78
-31 100 -35 -41 -38 -44 19 127
19 24 57 -106 94 -21 -26 55
14 -123 -22 6 -76 -26 17 127
00000000: 315a e4be 0291 1dd2 abe8 4577 e620 06b2
00000010: 2ff3 7f3f 773d 7f92 27d5 f3ed f813 15f8
00000020: 1d9f b0d4 ee26 7ff9 0bb3 c3bb e878 09b1
00000030: b52c 3995 a764 7fbe c94c e2f3 f6dc dee7
00000040: f8c3 1b00 1a75 357f 243d cd81 5b37 bf7f
00000050: e7c5 d5a6 4fa3 7f9e 20d5 f028 f4da c07f
00000060: 1cef 58fd e3d7 344e 8114 7fca 177f 0904
00000070: 3def 56be 7ef7 9f81 e138 41e7 ca16 7ff1
00000080: c216 9e7c 377f 3610 3779 dcb5 f07f 6466
00000090: d438 d7f7 fc60 4fc0 c181 e31b 81f8 cf33
000000a0: e1bc 66ed ef18 287b 313f fcd5 5e7f 410f
000000b0: 0481 99ee 3cc3 3768 a99a cd7f eace 264a
000000c0: 0359 d070 cf81 fe6e 83f3 466e c807 0486
000000d0: 3ff0 aeed d0fe daa5 5878 221a e710 4dbc
000000e0: d5f3 1b3d e038 c1b2 e164 ddd7 dad4 137f
000000f0: 1318 3996 5eeb e637 0e85 ea06 b4e6 117f

model/linear_bottleneck_block_6/conv2d_7/Conv2D i1 [96, 1, 1, 96]
-10 -22 -13 11 4 0 -127 -2
-29 -24 54 5 -7 36 0 -18
-2 12 11 -16 -30 35 -32 -16
22 42 23 51 -7 9 -15 -13
31 21 6 20 -34 -19 -58 7
32 -49 -60 -47 16 -29 -73 -3
-3 -35 42 -15 4 50 -81 7
-25 -22 -3 -12 -31 26 -13 -7
19 20 24 9 52 -5 -4 -23
-5 -49 4 21 -5 32 4 24
-42 20 72 -25 1 -13 -8 40
5 10 -39 32 -60 88 -11 20
-57 5 -66 -12 67 -3 -10 -5
-34 11 -36 -51 -8 -36 -11 -38
47 -8 -44 -127 -29 -5 17 76
2 -46 -2 84 48 2 74 -38
6 62 -31 2 -21 -45 45 -6
-41 45 13 6 57 46 -69 66
22 62 118 -48 22 -8 -28 51
-5 -19 5 39 -59 2 -60 75
-4 10 -69 17 50 -34 -6 -86
20 -22 33 -38 67 9 -63 -6
-125 29 15 1 -15 23 -92 -31
-4 -38 -18 -55 120 -6 -16 -37
127 -50 -81 -49 27 46 -1 -79
-39 9 21 -79 -23 -81 64 106
-3 -12 -12 -68 -25 125 -50 44
60 26 -78 43 12 -49 27 -38
-64 45 2 24 -4 46 3 52
-6 -7 -36 52 -28 -4 60 66
-46 -15 -8 -115 49 -76 51 33
-22 -28 -27 36 -5 29 21 -38
00000000: f6ea f30b 0400 81fe e3e8 3605 f924 00ee
00000010: fe0c 0bf0 e223 e0f0 162a 1733 f909 f1f3
00000020: 1f15 0614 deed c607 20cf c4d1 10e3 b7fd
00000030: fddd 2af1 0432 af07 e7ea fdf4 e11a f3f9
00000040: 1314 1809 34fb fce9 fbcf 0415 fb20 0418
00000050: d614 48e7 01f3 f828 050a d920 c458 f514
00000060: c705 bef4 43fd f6fb de0b dccd f8dc f5da
00000070: 2ff8 d481 e3fb 114c 02d2 fe54 3002 4ada
00000080: 063e e102 ebd3 2dfa d72d 0d06 392e bb42
00000090: 163e 76d0 16f8 e433 fbed 0527 c502 c44b
000000a0: fc0a bb11 32de faaa 14ea 21da 4309 c1fa
000000b0: 831d 0f01 f117 a4e1 fcda eec9 78fa f0db
000000c0: 7fce afcf 1b2e ffb1 d909 15b1 e9af 406a
000000d0: fdf4 f4bc e77d ce2c 3c1a b22b 0ccf 1bda
000000e0: c02d 0218 fc2e 0334 faf9 dc34 e4fc 3c42
000000f0: d2f1 f88d 31b4 3321 eae4 e524 fb1d 15da

model/linear_bottleneck_block_6/batch_normalization_19/FusedBatchNormV3;model/linear_bottleneck_block_6/depthwise_conv2d_12/depthwise;model/linear_bottleneck_block_6/depthwise_conv2d_12/BiasAdd/ReadVariableOp;model/linear_bottleneck_block_6/depthwise_conv2d_12/BiasAdd;model/linear_bottleneck_block_8/depthwise_conv2d_16/depthwise1 i1 [1, 3, 3, 96]
82 -127 25 43 69 -65 -47 -21
41 20 -32 19 -66 60 12 127
72 85 64 96 21 49 -127 14
-40 127 -87 -74 44 -34 -127 -25
1 -47 -53 127 32 12 13 80
99 -118 55 86 84 121 -85 -22
-51 61 -17 -60 127 37 -49 111
-44 16 -15 -78 68 -52 75 36
-50 -87 -71 -109 -61 -74 16 -31
51 -18 -12 26 127 -37 99 -54
-35 12 127 2 -12 -127 -127 25
-71 31 15 6 -95 -49 -127 -27
127 -62 -81 127 -3 -118 -86 49
33 -51 -62 3 -127 -38 -1 68
35 -101 -67 127 -43 -67 -82 -65
-55 -20 21 43 44 21 0 -12
-40 -43 -127 -42 -4 68 26 127
-115 -12 8 0 35 18 -77 -40
-68 16 -2 27 65 42 -48 113
22 127 -5 -59 -15 112 -57 48
-68 -127 -40 -30 -127 -50 38 -113
127 -17 58 127 66 -127 41 -99
84 74 71 -48 -85 -48 -73 1
-23 -55 -7 51 -43 -22 23 -127
73 -37 -82 54 -90 62 34 -56
-30 -13 -28 50 -55 -120 -102 69
-45 -68 -60 -9 -38 -16 -29 -127
-24 125 -85 11 24 26 34 -65
-93 -105 -4 -16 -83 127 72 44
-8 10 28 -8 61 103 -101 6
-78 127 3 84 29 127 27 25
127 82 38 -65 -56 -59 -23 127
00000000: 5281 192b 45bf d1eb 2914 e013 be3c 0c7f
00000010: 4855 4060 1531 810e d87f a9b6 2cde 81e7
00000020: 01d1 cb7f 200c 0d50 638a 3756 5479 abea
00000030: cd3d efc4 7f25 cf6f d410 f1b2 44cc 4b24
00000040: cea9 b993 c3b6 10e1 33ee f41a 7fdb 63ca
00000050: dd0c 7f02 f481 8119 b91f 0f06 a1cf 81e5
00000060: 7fc2 af7f fd8a aa31 21cd c203 81da ff44
00000070: 239b bd7f d5bd aebf c9ec 152b 2c15 00f4
00000080: d8d5 81d6 fc44 1a7f 8df4 0800 2312 b3d8
00000090: bc10 fe1b 412a d071 167f fbc5 f170 c730
000000a0: bc81 d8e2 81ce 268f 7fef 3a7f 4281 299d
000000b0: 544a 47d0 abd0 b701 e9c9 f933 d5ea 1781
000000c0: 49db ae36 a63e 22c8 e2f3 e432 c988 9a45
000000d0: d3bc c4f7 daf0 e381 e87d ab0b 181a 22bf
000000e0: a397 fcf0 ad7f 482c f80a 1cf8 3d67 9b06
000000f0: b27f 0354 1d7f 1b19 7f52 26bf c8c5 e97f

model/linear_bottleneck_block_5/batch_normalization_18/FusedBatchNormV3;model/linear_bottleneck_block_5/depthwise_conv2d_11/depthwise;model/linear_bottleneck_block_5/depthwise_conv2d_11/BiasAdd/ReadVariableOp;model/linear_bottleneck_block_5/depthwise_conv2d_11/BiasAdd;model/linear_bottleneck_block_8/depthwise_conv2d_16/depthwise i1 [1, 3, 3, 96]
-67 -101 38 -69 -14 -62 14 22
-61 -1 87 25 -89 -127 -65 127
29 -66 -72 -47 39 15 -127 -49
-38 -67 37 39 37 -62 44 21
6 -36 -74 55 -51 70 19 -6
-57 90 46 -20 9 42 32 127
37 -13 -19 127 11 -76 25 127
-50 -64 19 -127 127 41 81 -52
21 29 28 -127 127 36 -24 -87
-68 127 76 -17 -18 -127 -51 -32
127 -23 -20 14 -16 -37 -57 7
-16 127 127 -32 127 127 -38 4
33 116 72 79 103 -55 -117 -3
-83 127 -73 -30 -47 -62 -90 22
-49 -28 -26 -19 40 23 -45 -19
54 -48 -60 123 15 2 -92 -22
40 81 33 56 -127 37 -24 -18
-78 127 -65 43 6 127 -8 68
-22 119 28 -29 -58 -72 -33 1
-127 -16 44 -61 -5 15 48 -74
68 -12 127 -17 67 -20 127 -16
7 109 -94 114 30 -61 36 -33
19 127 -28 127 7 -79 127 -5
-6 -12 11 -37 52 55 -127 -127
3 67 127 -30 42 36 -9 -47
-69 34 50 32 34 72 -27 8
-8 -4 -34 -86 50 -17 -43 -99
88 -19 -48 -127 77 100 109 -14
59 -15 -21 15 -55 55 -28 14
127 60 -38 61 -38 2 36 67
127 -78 -29 9 -31 -74 35 67
-118 -57 109 -23 -91 52 106 92
00000000: bd9b 26bb f2c2 0e16 c3ff 5719 a781 bf7f
00000010: 1dbe b8d1 270f 81cf dabd 2527 25c2 2c15
00000020: 06dc b637 cd46 13fa c75a 2eec 092a 207f
00000030: 25f3 ed7f 0bb4 197f cec0 1381 7f29 51cc
00000040: 151d 1c81 7f24 e8a9 bc7f 4cef ee81 cde0
00000050: 7fe9 ec0e f0db c707 f07f 7fe0 7f7f da04
00000060: 2174 484f 67c9 8bfd ad7f b7e2 d1c2 a616
00000070: cfe4 e6ed 2817 d3ed 36d0 c47b 0f02 a4ea
00000080: 2851 2138 8125 e8ee b27f bf2b 067f f844
00000090: ea77 1ce3 c6b8 df01 81f0 2cc3 fb0f 30b6
000000a0: 44f4 7fef 43ec 7ff0 076d a272 1ec3 24df
000000b0: 137f e47f 07b1 7ffb faf4 0bdb 3437 8181
000000c0: 0343 7fe2 2a24 f7d1 bb22 3220 2248 e508
000000d0: f8fc deaa 32ef d59d 58ed d081 4d64 6df2
000000e0: 3bf1 eb0f c937 e40e 7f3c da3d da02 2443
000000f0: 7fb2 e309 e1b6 2343 8ac7 6de9 a534 6a5c

model/linear_bottleneck_block_5/conv2d_6/Conv2D i1 [96, 1, 1, 96]
1 -18 -35 34 -2 72 -42 -1
61 62 20 36 7 -16 -37 -39
-2 -28 7 -23 43 29 23 -2
5 7 12 -10 -53 -29 28 38
51 -82 17 26 18 18 -24 -75
-34 18 4 13 21 38 25 -18
-36 -1 2 -8 23 -54 7 44
-102 -29 -21 57 21 -58 8 -1
-21 -34 -48 -4 -49 47 8 8
30 -51 26 72 -127 4 21 -9
-7 -15 -6 6 16 -31 11 -9
7 -26 -9 -12 9 28 -47 -25
-10 -10 -23 33 -52 2 -16 -19
74 -4 19 63 0 44 -32 -40
49 -6 2 -28 -47 29 65 -41
20 -24 55 -11 -21 -7 8 4
14 3 8 -25 -22 -34 24 -57
-25 16 0 -43 -28 9 96 79
22 28 -22 -11 -44 -38 6 -16
-25 -18 7 24 11 -59 -49 -22
-23 14 -56 -50 -27 -47 -1 -11
-4 2 72 81 -127 -35 10 -43
21 9 65 23 10 -50 9 -4
13 -22 45 36 79 69 -21 55
-83 7 -53 -36 18 72 46 127
8 -48 29 -24 38 -24 -65 -8
-6 84 -44 55 15 34 -21 -3
94 12 35 28 -81 -14 -55 -35
34 9 8 8 -42 -76 1 2
-75 -69 8 41 38 85 -115 -49
-88 70 83 -24 49 -94 72 -13
12 -33 56 33 49 -59 21 -19
00000000: 01ee dd22 fe48 d6ff 3d3e 1424 07f0 dbd9
00000010: fee4 07e9 2b1d 17fe 0507 0cf6 cbe3 1c26
00000020: 33ae 111a 1212 e8b5 de12 040d 1526 19ee
00000030: dcff 02f8 17ca 072c 9ae3 eb39 15c6 08ff
00000040: ebde d0fc cf2f 0808 1ecd 1a48 8104 15f7
00000050: f9f1 fa06 10e1 0bf7 07e6 f7f4 091c d1e7
00000060: f6f6 e921 cc02 f0ed 4afc 133f 002c e0d8
00000070: 31fa 02e4 d11d 41d7 14e8 37f5 ebf9 0804
00000080: 0e03 08e7 eade 18c7 e710 00d5 e409 604f
00000090: 161c eaf5 d4da 06f0 e7ee 0718 0bc5 cfea
000000a0: e90e c8ce e5d1 fff5 fc02 4851 81dd 0ad5
000000b0: 1509 4117 0ace 09fc 0dea 2d24 4f45 eb37
000000c0: ad07 cbdc 1248 2e7f 08d0 1de8 26e8 bff8
000000d0: fa54 d437 0f22 ebfd 5e0c 231c aff2 c9dd
000000e0: 2209 0808 d6b4 0102 b5bb 0829 2655 8dcf
000000f0: a846 53e8 31a2 48f3 0cdf 3821 31c5 15ed

model/linear_bottleneck_block_5/batch_normalization_16/FusedBatchNormV3;model/linear_bottleneck_block_5/depthwise_conv2d_10/depthwise;model/linear_bottleneck_block_5/depthwise_conv2d_10/BiasAdd/ReadVariableOp;model/linear_bottleneck_block_5/depthwise_conv2d_10/BiasAdd;model/linear_bottleneck_block_8/depthwise_conv2d_16/depthwise1 i1 [1, 3, 3, 96]
27 14 2 -82 41 -42 -6 -18
28 -2 -41 23 42 -87 127 -83
-3 32 -127 127 86 -112 90 48
-68 -8 97 -66 -1 -44 -88 -1
-50 -69 127 24 84 36 -78 -127
18 -37 75 127 51 18 -8 -84
110 58 89 121 2 -35 109 -8
-21 -64 0 -20 -52 12 60 14
30 20 63 17 113 127 -71 31
-10 96 32 -44 -100 -38 -75 7
-127 39 -62 127 -16 -53 68 50
-99 -13 -27 -127 46 -65 -11 93
105 2 127 -116 -127 127 106 -28
-73 -7 127 76 -16 53 -1 127
-47 23 -5 101 106 0 -27 72
-125 21 -89 41 70 -124 21 37
4 27 6 -21 -51 -7 47 -67
73 -25 111 113 67 16 34 -34
127 120 98 -30 -30 20 77 -18
-11 -2 -34 5 -51 -9 18 59
127 -31 -127 24 -22 -24 65 127
0 101 14 -79 -39 11 -102 -4
-25 3 -34 60 9 -38 127 79
-127 -4 -48 -41 7 -27 17 -44
45 55 -85 41 -44 111 -127 -62
-36 -22 1 -89 52 6 4 125
-23 -60 -96 18 2 47 -72 41
-63 5 21 59 -52 -127 36 -10
-71 20 17 34 -14 -11 63 -40
42 -61 17 12 -112 48 -12 -63
54 -56 14 64 -6 66 26 127
8 57 -127 74 -65 86 38 127
00000000: 1b0e 02ae 29d6 faee 1cfe d717 2aa9 7fad
00000010: fd20 817f 5690 5a30 bcf8 61be ffd4 a8ff
00000020: cebb 7f18 5424 b281 12db 4b7f 3312 f8ac
00000030: 6e3a 5979 02dd 6df8 ebc0 00ec cc0c 3c0e
00000040: 1e14 3f11 717f b91f f660 20d4 9cda b507
00000050: 8127 c27f f0cb 4432 9df3 e581 2ebf f55d
00000060: 6902 7f8c 817f 6ae4 b7f9 7f4c f035 ff7f
00000070: d117 fb65 6a00 e548 8315 a729 4684 1525
00000080: 041b 06eb cdf9 2fbd 49e7 6f71 4310 22de
00000090: 7f78 62e2 e214 4dee f5fe de05 cdf7 123b
000000a0: 7fe1 8118 eae8 417f 0065 0eb1 d90b 9afc
000000b0: e703 de3c 09da 7f4f 81fc d0d7 07e5 11d4
000000c0: 2d37 ab29 d46f 81c2 dcea 01a7 3406 047d
000000d0: e9c4 a012 022f b829 c105 153b cc81 24f6
000000e0: b914 1122 f2f5 3fd8 2ac3 110c 9030 f4c1
000000f0: 36c8 0e40 fa42 1a7f 0839 814a bf56 267f

model/linear_bottleneck_block_4/batch_normalization_15/FusedBatchNormV3;model/linear_bottleneck_block_4/depthwise_conv2d_9/depthwise;model/linear_bottleneck_block_4/depthwise_conv2d_9/BiasAdd/ReadVariableOp;model/linear_bottleneck_block_4/depthwise_conv2d_9/BiasAdd;model/linear_bottleneck_block_8/depthwise_conv2d_16/depthwise i1 [1, 3, 3, 96]
40 126 -28 127 -47 -38 -43 -127
-10 -92 -102 9 -40 -35 -50 3
3 -99 -7 -76 -14 -26 -3 -39
82 -33 10 -81 -21 -58 127 26
-38 103 18 -60 -83 127 -23 34
7 -97 71 -127 -30 -48 17 49
8 -126 -24 127 -33 -16 127 -48
-1 76 -77 127 -46 77 9 106
-58 127 -99 -77 -127 -9 -72 -37
-43 97 46 6 -19 19 -97 -119
-15 -107 -86 -46 74 -17 -67 13
-124 35 25 -18 61 33 70 -56
-49 122 -80 10 -72 0 7 97
96 -119 48 -55 127 -89 -121 18
-89 -93 -87 118 28 -72 -116 64
-117 -38 26 -70 -57 7 -51 22
-39 -48 -62 -47 -22 60 12 -65
23 127 -39 -36 127 -60 127 107
-26 113 -58 -81 16 -82 34 -6
127 -72 -89 -18 -55 11 16 1
-56 125 82 127 -104 -93 -68 -39
-62 31 127 -25 -18 -46 -40 98
-10 -120 66 26 -20 127 -127 -127
-4 32 127 -3 35 38 52 51
1 76 -104 -6 84 40 26 84
-110 -1 81 34 14 -37 -69 5
40 -101 11 25 -13 11 -122 -23
-25 127 29 82 46 19 -61 -52
12 99 -47 -48 -96 86 71 -42
-127 -30 -1 59 16 -41 66 -22
-32 -30 -3 -56 -53 41 64 -53
-16 66 -29 -44 10 -38 55 127
00000000: 287e e47f d1da d581 f6a4 9a09 d8dd ce03
00000010: 039d f9b4 f2e6 fdd9 52df 0aaf ebc6 7f1a
00000020: da67 12c4 ad7f e922 079f 4781 e2d0 1131
00000030: 0882 e87f dff0 7fd0 ff4c b37f d24d 096a
00000040: c67f 9db3 81f7 b8db d561 2e06 ed13 9f89
00000050: f195 aad2 4aef bd0d 8423 19ee 3d21 46c8
00000060: cf7a b00a b800 0761 6089 30c9 7fa7 8712
00000070: a7a3 a976 1cb8 8c40 8bda 1aba c707 cd16
00000080: d9d0 c2d1 ea3c 0cbf 177f d9dc 7fc4 7f6b
00000090: e671 c6af 10ae 22fa 7fb8 a7ee c90b 1001
000000a0: c87d 527f 98a3 bcd9 c21f 7fe7 eed2 d862
000000b0: f688 421a ec7f 8181 fc20 7ffd 2326 3433
000000c0: 014c 98fa 5428 1a54 92ff 5122 0edb bb05
000000d0: 289b 0b19 f30b 86e9 e77f 1d52 2e13 c3cc
000000e0: 0c63 d1d0 a056 47d6 81e2 ff3b 10d7 42ea
000000f0: e0e2 fdc8 cb29 40cb f042 e3d4 0ada 377f

model/linear_bottleneck_block_4/conv2d_5/Conv2D i1 [96, 1, 1, 24]
26 -96 12 35 -27 -31 2 -35
105 127 31 -7 -18 12 -94 -54
50 22 -113 -100 -38 76 61 19
-25 -5 35 -22 15 -30 -21 81
-28 15 3 5 -31 -127 45 3
-15 -21 -11 1 -4 5 52 2
-27 32 18 35 -23 84 67 -49
-25 21 -48 26 127 -16 -92 71
-32 7 -40 -9 -59 27 -24 16
83 13 -26 -73 84 31 -32 127
7 17 64 10 48 -5 108 64
22 123 -35 83 2 -106 72 -70
41 -29 -79 5 -70 -51 -52 37
18 127 18 -18 31 20 0 1
-99 -32 89 -23 87 119 37 29
-4 36 -19 36 -127 2 -32 -24
-36 -118 6 9 -15 32 38 -64
-56 -35 -65 -15 -19 7 -93 16
20 13 31 2 -33 -68 -4 42
6 -5 -1 -84 -74 17 127 26
-74 9 66 84 31 -61 20 -41
-5 23 34 61 -32 18 18 -18
-38 -19 -12 19 127 -72 -12 57
19 -27 -20 -5 -18 6 56 -41
-40 83 -52 23 17 41 56 -89
-117 -21 85 -93 -74 73 111 73
-33 99 34 -127 -11 26 7 31
-39 7 -48 13 -77 -13 3 -61
29 121 99 -102 -42 -30 -44 67
-42 51 -104 -20 -50 63 -69 127
0 -10 85 34 127 100 -63 33
33 20 58 43 86 -7 -31 72
00000000: 1aa0 0c23 e5e1 02dd 697f 1ff9 ee0c a2ca
00000010: 3216 8f9c da4c 3d13 e7fb 23ea 0fe2 eb51
00000020: e40f 0305 e181 2d03 f1eb f501 fc05 3402
00000030: e520 1223 e954 43cf e715 d01a 7ff0 a447
00000040: e007 d8f7 c51b e810 530d e6b7 541f e07f
00000050: 0711 400a 30fb 6c40 167b dd53 0296 48ba
00000060: 29e3 b105 bacd cc25 127f 12ee 1f14 0001
00000070: 9de0 59e9 5777 251d fc24 ed24 8102 e0e8
00000080: dc8a 0609 f120 26c0 c8dd bff1 ed07 a310
00000090: 140d 1f02 dfbc fc2a 06fb ffac b611 7f1a
000000a0: b609 4254 1fc3 14d7 fb17 223d e012 12ee
000000b0: daed f413 7fb8 f439 13e5 ecfb ee06 38d7
000000c0: d853 cc17 1129 38a7 8beb 55a3 b649 6f49
000000d0: df63 2281 f51a 071f d907 d00d b3f3 03c3
000000e0: 1d79 639a d6e2 d443 d633 98ec ce3f bb7f
000000f0: 00f6 5522 7f64 c121 2114 3a2b 56f9 e148

model/linear_bottleneck_block_4/batch_normalization_13/FusedBatchNormV3;model/linear_bottleneck_block_4/depthwise_conv2d_8/depthwise;model/linear_bottleneck_block_4/depthwise_conv2d_8/BiasAdd/ReadVariableOp;model/linear_bottleneck_block_4/depthwise_conv2d_8/BiasAdd1 i1 [1, 3, 3, 24]
15 52 53 -31 62 52 -9 116
-98 -127 81 55 -9 -3 48 33
35 -127 127 -123 72 122 -25 -75
-1 47 80 -6 53 -2 -74 88
-27 -79 23 26 127 -75 7 102
82 -78 54 -37 127 22 -97 28
43 -12 -14 121 4 111 -5 57
127 87 -10 51 71 -53 -25 79
89 5 12 -85 35 -127 17 31
-11 127 127 14 36 8 50 24
-32 -104 127 127 34 -118 -112 36
107 -90 102 -127 72 105 -2 -17
64 94 32 23 127 127 101 127
-1 -16 66 83 83 -127 -94 127
113 -107 112 -54 1 34 -127 127
127 54 57 127 36 79 105 98
36 55 28 5 31 -8 -58 48
127 2 -77 -89 48 -85 -58 106
-43 82 47 36 53 83 76 103
-90 -43 -17 63 -33 -107 -127 -19
95 -5 -1 -34 75 28 -54 -3
61 73 112 24 21 117 127 95
44 -59 14 25 -28 -113 -75 27
15 -46 12 -50 -54 17 22 49
49 -11 -24 52 -22 12 38 25
71 67 -17 7 5 23 -20 8
76 26 0 -48 -9 -25 -32 19
00000000: 0f34 35e1 3e34 f774 9e81 5137 f7fd 3021
00000010: 2381 7f85 487a e7b5 ff2f 50fa 35fe b658
00000020: e5b1 171a 7fb5 0766 52b2 36db 7f16 9f1c
00000030: 2bf4 f279 046f fb39 7f57 f633 47cb e74f
00000040: 5905 0cab 2381 111f f57f 7f0e 2408 3218
00000050: e098 7f7f 228a 9024 6ba6 6681 4869 feef
00000060: 405e 2017 7f7f 657f fff0 4253 5381 a27f
00000070: 7195 70ca 0122 817f 7f36 397f 244f 6962
00000080: 2437 1c05 1ff8 c630 7f02 b3a7 30ab c66a
00000090: d552 2f24 3553 4c67 a6d5 ef3f df95 81ed
000000a0: 5ffb ffde 4b1c cafd 3d49 7018 1575 7f5f
000000b0: 2cc5 0e19 e48f b51b 0fd2 0cce ca11 1631
000000c0: 31f5 e834 ea0c 2619 4743 ef07 0517 ec08
000000d0: 4c1a 00d0 f7e7 e013
