etinynet_int8.tflite (tflite, 490832 bytes, 41 tensors)

model_4/dense_4/MatMul i1 [200, 384] scale=0.0077519435 zero_point=0
00000000: 0122 f6d5 1bec 2c24 031e ce1f d401 0a27
00000010: 0eda 0dd0 dac6 45f3 053a be24 20bb fe0b
00000020: e409 00f7 180e ec10 eafd 0403 2cd0 d0e2
00000030: d7fc 24cc 08d6 2427 1a39 1c16 3711 c918
00000040: 21c5 c8d4 f812 bbcd 1fd8 d0e5 c2c4 11e7
00000050: e3cb 1418 17dd 25ec ea2d d806 052d 341b
00000060: ecf6 1304 c8cf 002f f023 e8e4 d006 06eb
00000070: c034 daf5 f8ce c306 dbc2 fa35 eadc e5f5
00000080: ceeb 11fd e10b 32fa d918 1ff3 d9d2 e8f8
00000090: 2cfc 0bf1 10cc be37 d629 e30f c7e7 fdd0
000000a0: ee32 062a 2d1d 3bfe 181e 08fd bae0 2ad7
000000b0: f5d8 cf07 d4dd 25e5 1919 eafe 1dea 1c2c
000000c0: c80f e6cb 1ac2 c319 c8cd 242a fdc9 05ef
000000d0: 1e23 cb2a 21f4 e8fd ea24 31d7 e9f7 ff35
000000e0: eb15 eed5 3dea d20b e021 f2e1 d6b8 05f5
000000f0: 24f2 0223 2d34 27df 140a ee10 2941 35ca
0.0077519435 0.26356608 -0.07751943 -0.33333358 0.20930247 -0.15503886 0.34108552 0.27906996
0.02325583 0.23255831 -0.38759717 0.24031025 -0.34108552 0.0077519435 0.07751943 0.3023258
0.10852721 -0.29457384 0.100775264 -0.3720933 -0.29457384 -0.44961274 0.5348841 -0.100775264
0.038759716 0.44961274 -0.51162827 0.27906996 0.2480622 -0.5348841 -0.015503887 0.08527138
-0.21705443 0.06976749 0.0 -0.06976749 0.18604665 0.10852721 -0.15503886 0.1240311
-0.17054276 -0.02325583 0.031007774 0.02325583 0.34108552 -0.3720933 -0.3720933 -0.23255831
-0.3178297 -0.031007774 0.27906996 -0.40310106 0.06201555 -0.32558164 0.27906996 0.3023258
0.20155053 0.4418608 0.21705443 0.17054276 0.42635688 0.13178304 -0.42635688 0.18604665
0.25581414 -0.45736468 -0.43410885 -0.34108552 -0.06201555 0.13953498 -0.5348841 -0.39534912
0.24031025 -0.31007773 -0.3720933 -0.20930247 -0.4806205 -0.46511662 0.13178304 -0.19379859
-0.22480637 -0.410853 0.15503886 0.18604665 0.1782947 -0.27131802 0.2868219 -0.15503886
-0.17054276 0.34883747 -0.31007773 0.04651166 0.038759716 0.34883747 0.40310106 0.20930247
-0.15503886 -0.07751943 0.14728692 0.031007774 -0.43410885 -0.37984523 0.0 0.36434135
-0.1240311 0.27131802 -0.18604665 -0.21705443 -0.3720933 0.04651166 0.04651166 -0.16279082
-0.4961244 0.40310106 -0.29457384 -0.08527138 -0.06201555 -0.38759717 -0.47286856 0.04651166
-0.2868219 -0.4806205 -0.04651166 0.410853 -0.17054276 -0.27906996 -0.20930247 -0.08527138
-0.38759717 -0.16279082 0.13178304 -0.02325583 -0.24031025 0.08527138 0.38759717 -0.04651166
-0.3023258 0.18604665 0.24031025 -0.100775264 -0.3023258 -0.3565894 -0.18604665 -0.06201555
0.34108552 -0.031007774 0.08527138 -0.116279155 0.1240311 -0.40310106 -0.51162827 0.42635688
-0.32558164 0.3178297 -0.22480637 0.116279155 -0.4418608 -0.19379859 -0.02325583 -0.3720933
-0.13953498 0.38759717 0.04651166 0.32558164 0.34883747 0.22480637 0.45736468 -0.015503887
0.18604665 0.23255831 0.06201555 -0.02325583 -0.54263604 -0.2480622 0.32558164 -0.3178297
-0.08527138 -0.31007773 -0.37984523 0.054263607 -0.34108552 -0.27131802 0.2868219 -0.20930247
0.19379859 0.19379859 -0.17054276 -0.015503887 0.22480637 -0.17054276 0.21705443 0.34108552
-0.43410885 0.116279155 -0.20155053 -0.410853 0.20155053 -0.4806205 -0.47286856 0.19379859
-0.43410885 -0.39534912 0.27906996 0.32558164 -0.02325583 -0.42635688 0.038759716 -0.13178304
0.23255831 0.27131802 -0.410853 0.32558164 0.25581414 -0.09302332 -0.18604665 -0.02325583
-0.17054276 0.27906996 0.37984523 -0.3178297 -0.1782947 -0.06976749 -0.0077519435 0.410853
-0.16279082 0.16279082 -0.13953498 -0.33333358 0.47286856 -0.17054276 -0.3565894 0.08527138
-0.2480622 0.25581414 -0.10852721 -0.24031025 -0.32558164 -0.5581399 0.038759716 -0.08527138
0.27906996 -0.10852721 0.015503887 0.27131802 0.34883747 0.40310106 0.3023258 -0.25581414
0.15503886 0.07751943 -0.13953498 0.1240311 0.3178297 0.5038763 0.410853 -0.41860494

model_4/linear_bottleneck_block_64/batch_normalization_199/FusedBatchNormV3;model_4/linear_bottleneck_block_64/depthwise_conv2d_129/depthwise;model_4/linear_bottleneck_block_64/depthwise_conv2d_129/BiasAdd/ReadVariableOp;model_4/linear_bottleneck_block_64/depthwise_conv2d_129/BiasAdd i1 [1, 3, 3, 384]
00000000: ebc2 812e a510 7fc1 d40a f6d5 ebf6 0517
00000010: d752 c0ef 7fc6 eed7 e6bb 65ff ed9d 4b00
00000020: b8d7 43f0 6390 ab8a f4c8 9ebf 811e 86d4
00000030: 8181 c84d e53e 95a3 9b7f dfe8 da21 67ff
00000040: cd1f 81eb eba3 13e7 f469 16ba 7ff8 8ac3
00000050: ee7a 08e9 c3ec c081 00f8 e0d7 edaa c4d5
00000060: f1e2 e381 f8c1 e8bb 1a35 ecf4 f482 fbda
00000070: eff0 cccf f9e5 b4d8 dc50 40ce b5e1 0697
00000080: fe7b e5ad f3eb a8ff edf2 ae93 d781 b24e
00000090: d4eb aecd dae2 a2d4 e3b8 f081 eee3 816a
000000a0: 7fe6 f00d f8a6 dff3 c2ef e5d9 a5b8 e5e2
000000b0: b981 a0fe b981 9fda e574 811e ea72 0ef2
000000c0: f7cd e1fa 2b6e d3fd eea9 e4f4 f5fd aadb
000000d0: cd0a c9e4 cae5 91f6 d6ea 8409 1977 92d9
000000e0: 7f26 cfcc 81f0 385f 7fee bbc2 b0cf b8d6
000000f0: 537f 81d3 d07f d4cc bbfd 028d 0781 f3ea
-21 -62 -127 46 -91 16 127 -63
-44 10 -10 -43 -21 -10 5 23
-41 82 -64 -17 127 -58 -18 -41
-26 -69 101 -1 -19 -99 75 0
-72 -41 67 -16 99 -112 -85 -118
-12 -56 -98 -65 -127 30 -122 -44
-127 -127 -56 77 -27 62 -107 -93
-101 127 -33 -24 -38 33 103 -1
-51 31 -127 -21 -21 -93 19 -25
-12 105 22 -70 127 -8 -118 -61
-18 122 8 -23 -61 -20 -64 -127
0 -8 -32 -41 -19 -86 -60 -43
-15 -30 -29 -127 -8 -63 -24 -69
26 53 -20 -12 -12 -126 -5 -38
-17 -16 -52 -49 -7 -27 -76 -40
-36 80 64 -50 -75 -31 6 -105
-2 123 -27 -83 -13 -21 -88 -1
-19 -14 -82 -109 -41 -127 -78 78
-44 -21 -82 -51 -38 -30 -94 -44
-29 -72 -16 -127 -18 -29 -127 106
127 -26 -16 13 -8 -90 -33 -13
-62 -17 -27 -39 -91 -72 -27 -30
-71 -127 -96 -2 -71 -127 -97 -38
-27 116 -127 30 -22 114 14 -14
-9 -51 -31 -6 43 110 -45 -3
-18 -87 -28 -12 -11 -3 -86 -37
-51 10 -55 -28 -54 -27 -111 -10
-42 -22 -124 9 25 119 -110 -39
127 38 -49 -52 -127 -16 56 95
127 -18 -69 -62 -80 -49 -72 -42
83 127 -127 -45 -48 127 -44 -52
-69 -3 2 -115 7 -127 -13 -22

model_4/linear_bottleneck_block_64/conv2d_69/Conv2D i1 [384, 1, 1, 192]
00000000: abdb 0736 0e32 5bd9 340a d725 ef16 feb4
00000010: fcda bd06 fa4a 2614 0acd fb06 c1d9 33a2
00000020: 1ed2 28de cdad affd d602 f909 e317 0dfb
00000030: fafd f6f4 ed25 ee09 ddca 051d f2e0 a602
00000040: e50f d3da 11fb 07c6 fcbd 1bfe c4cd d910
00000050: 1904 0fd4 c3d4 26e4 df15 15fb 221c 26e3
00000060: 09e2 130a e5cb 2c05 18e5 4c15 340d 12e9
00000070: e21d 02e0 1bb3 24ef cc39 cc13 0da5 061e
00000080: 16c0 f62a 0c4e 16cc ce02 1fe4 8107 8107
00000090: 1ffa d71f f61b c22c c010 f2fc 4120 99e2
000000a0: d4f8 1e1e ff06 b1fc d1f8 fda5 c92c f0eb
000000b0: 51e0 1dff e8f7 0508 090b 230f 0de4 1fee
000000c0: 081a 2217 22ed 1ffb f7ca f2e1 b04b 04a3
000000d0: 0a07 0136 ac3e 0309 f40f 4031 12cb 2f2d
000000e0: 1273 1246 ffba f515 f510 720e 1fd2 d226
000000f0: 28d1 b2e2 360a a8bb 2aef 1605 14c8 16f6
-85 -37 7 54 14 50 91 -39
52 10 -41 37 -17 22 -2 -76
-4 -38 -67 6 -6 74 38 20
10 -51 -5 6 -63 -39 51 -94
30 -46 40 -34 -51 -83 -81 -3
-42 2 -7 9 -29 23 13 -5
-6 -3 -10 -12 -19 37 -18 9
-35 -54 5 29 -14 -32 -90 2
-27 15 -45 -38 17 -5 7 -58
-4 -67 27 -2 -60 -51 -39 16
25 4 15 -44 -61 -44 38 -28
-33 21 21 -5 34 28 38 -29
9 -30 19 10 -27 -53 44 5
24 -27 76 21 52 13 18 -23
-30 29 2 -32 27 -77 36 -17
-52 57 -52 19 13 -91 6 30
22 -64 -10 42 12 78 22 -52
-50 2 31 -28 -127 7 -127 7
31 -6 -41 31 -10 27 -62 44
-64 16 -14 -4 65 32 -103 -30
-44 -8 30 30 -1 6 -79 -4
-47 -8 -3 -91 -55 44 -16 -21
81 -32 29 -1 -24 -9 5 8
9 11 35 15 13 -28 31 -18
8 26 34 23 34 -19 31 -5
-9 -54 -14 -31 -80 75 4 -93
10 7 1 54 -84 62 3 9
-12 15 64 49 18 -53 47 45
18 115 18 70 -1 -70 -11 21
-11 16 114 14 31 -46 -46 38
40 -47 -78 -30 54 10 -88 -69
42 -17 22 5 20 -56 22 -10

model_4/linear_bottleneck_block_64/batch_normalization_197/FusedBatchNormV3;model_4/linear_bottleneck_block_64/depthwise_conv2d_128/depthwise;model_4/linear_bottleneck_block_64/depthwise_conv2d_128/BiasAdd/ReadVariableOp;model_4/linear_bottleneck_block_64/depthwise_conv2d_128/BiasAdd1 i1 [1, 3, 3, 192]
00000000: 1b50 23ed 28be 65b1 201f 83f1 05ec 8112
00000010: ee55 11ef fb02 5285 f930 63fc eeba 6d65
00000020: ff16 3b0b 1e21 cfb5 17bf e947 62ef 4602
00000030: 9ebf 30d4 f8f6 1554 5f7f aafc 47e0 46c4
00000040: d9ea e9bd b2ce fd5d d0f2 a0fd 063d 1a61
00000050: c301 4108 28c2 6723 30f0 e465 bc36 2fe8
00000060: 04c1 3ffb 9be2 c22e 63bf 2125 d12c d0c9
00000070: 3217 b160 4ded 04d6 cee2 007b fad8 123b
00000080: e836 5018 2cbb 3b81 031f ac36 0433 df61
00000090: 81f3 11b1 41bf b27f f804 10c9 fbe6 4ef4
000000a0: 0508 b0ec fc0b c10f 1add b922 61ea 2d0c
000000b0: af8f 0081 bf08 2614 127f 2494 2e0c d7d8
000000c0: 307f ea0b 05f2 6aba 1139 0c10 0125 8204
000000d0: 1625 efdb e9f6 fbaa de7f 37f0 f5b8 537f
000000e0: 0cf4 2ff4 3728 c081 12e5 fd7f 30dc 2410
000000f0: d329 34af 05f4 0233 4147 ffde 04f0 4281
27 80 35 -19 40 -66 101 -79
32 31 -125 -15 5 -20 -127 18
-18 85 17 -17 -5 2 82 -123
-7 48 99 -4 -18 -70 109 101
-1 22 59 11 30 33 -49 -75
23 -65 -23 71 98 -17 70 2
-98 -65 48 -44 -8 -10 21 84
95 127 -86 -4 71 -32 70 -60
-39 -22 -23 -67 -78 -50 -3 93
-48 -14 -96 -3 6 61 26 97
-61 1 65 8 40 -62 103 35
48 -16 -28 101 -68 54 47 -24
4 -63 63 -5 -101 -30 -62 46
99 -65 33 37 -47 44 -48 -55
50 23 -79 96 77 -19 4 -42
-50 -30 0 123 -6 -40 18 59
-24 54 80 24 44 -69 59 -127
3 31 -84 54 4 51 -33 97
-127 -13 17 -79 65 -65 -78 127
-8 4 16 -55 -5 -26 78 -12
5 8 -80 -20 -4 11 -63 15
26 -35 -71 34 97 -22 45 12
-81 -113 0 -127 -65 8 38 20
18 127 36 -108 46 12 -41 -40
48 127 -22 11 5 -14 106 -70
17 57 12 16 1 37 -126 4
22 37 -17 -37 -23 -10 -5 -86
-34 127 55 -16 -11 -72 83 127
12 -12 47 -12 55 40 -64 -127
18 -27 -3 127 48 -36 36 16
-45 41 52 -81 5 -12 2 51
65 71 -1 -34 4 -16 66 -127

model_4/linear_bottleneck_block_63/batch_normalization_196/FusedBatchNormV3;model_4/linear_bottleneck_block_63/depthwise_conv2d_127/depthwise;model_4/linear_bottleneck_block_63/depthwise_conv2d_127/BiasAdd/ReadVariableOp;model_4/linear_bottleneck_block_63/depthwise_conv2d_127/BiasAdd;model_4/linear_bottleneck_block_64/depthwise_conv2d_128/depthwise i1 [1, 3, 3, 192]
00000000: ac8d e3d8 d950 f2b2 d3a0 c1f7 fbcd 99a2
00000010: 7f12 2db6 d028 7efb 2d60 99e3 7f37 ccc3
00000020: 7ff1 8d4f 17d3 96ac 5872 da9e e17f e0d1
00000030: cfe6 13e8 f2ff 131e ee4e 4f98 ecb9 df11
00000040: 8925 0b9c eb58 1ae6 f937 002c 2df1 faf7
00000050: 4ecf 27d3 f1f2 c1a3 72fc d6a1 2cff f0e9
00000060: 26fb 2b27 9231 37be 8d62 00c5 58d5 165c
00000070: 23a9 7f96 46f6 d5bd eccc 5321 f46b b55c
00000080: 6ab6 d31f 2bc4 cab7 da8c f417 9325 fab7
00000090: 87d0 ade4 d321 10b0 e5cc 2067 e73f c7f4
000000a0: 1943 cb27 7bd3 040a d0cc d7e6 e106 8ec4
000000b0: cbff 0f9a d044 dd1d f1ca d7ee 2ed1 1058
000000c0: aed9 ebda aa7f f5b3 2fb9 8e45 bdf9 c3a6
000000d0: 5315 3cc2 ccf0 7fed 7f38 812d 50d3 f227
000000e0: 6a25 317f 7f81 c6ae 7f36 ecb9 ec75 030c
000000f0: cc18 fd15 10fa e0b7 0c7f 7f00 10a9 d80d
-84 -115 -29 -40 -39 80 -14 -78
-45 -96 -63 -9 -5 -51 -103 -94
127 18 45 -74 -48 40 126 -5
45 96 -103 -29 127 55 -52 -61
127 -15 -115 79 23 -45 -106 -84
88 114 -38 -98 -31 127 -32 -47
-49 -26 19 -24 -14 -1 19 30
-18 78 79 -104 -20 -71 -33 17
-119 37 11 -100 -21 88 26 -26
-7 55 0 44 45 -15 -6 -9
78 -49 39 -45 -15 -14 -63 -93
114 -4 -42 -95 44 -1 -16 -23
38 -5 43 39 -110 49 55 -66
-115 98 0 -59 88 -43 22 92
35 -87 127 -106 70 -10 -43 -67
-20 -52 83 33 -12 107 -75 92
106 -74 -45 31 43 -60 -54 -73
-38 -116 -12 23 -109 37 -6 -73
-121 -48 -83 -28 -45 33 16 -80
-27 -52 32 103 -25 63 -57 -12
25 67 -53 39 123 -45 4 10
-48 -52 -41 -26 -31 6 -114 -60
-53 -1 15 -102 -48 68 -35 29
-15 -54 -41 -18 46 -47 16 88
-82 -39 -21 -38 -86 127 -11 -77
47 -71 -114 69 -67 -7 -61 -90
83 21 60 -62 -52 -16 127 -19
127 56 -127 45 80 -45 -14 39
106 37 49 127 127 -127 -58 -82
127 54 -20 -71 -20 117 3 12
-52 24 -3 21 16 -6 -32 -73
12 127 127 0 16 -87 -40 13

model_4/linear_bottleneck_block_63/conv2d_68/Conv2D i1 [192, 1, 1, 168]
00000000: 0dc6 04f4 e6cf d535 08fb f70f c62d 06f8
00000010: baea 15ea 23f4 0c06 e85d 2b28 1feb fd08
00000020: 3906 200e bea6 07f4 c30c dc10 f69a e3cb
00000030: 2d0a d8f5 18dc f036 fbbd fde4 fa14 f3e0
00000040: f215 33fb 1e3c dd38 2a25 e526 ab15 3da8
00000050: ddd5 c44a 1c03 22f3 ba19 e57f f7c4 f8d9
00000060: ce3a f7e5 00dc ad2a 0336 0124 2409 fdde
00000070: e1ce 08f0 e900 09e0 b6ea 22b8 620d 12fc
00000080: d303 2e09 ed01 2001 c1fd 2508 0ae4 f2d9
00000090: 1b14 20db 81e9 4ff2 d90a 19f4 0709 d7f4
000000a0: 0ef0 d4c5 df3b e712 ac95 9cf1 18d0 4836
000000b0: 15ed dcf5 e516 ddef ef1f d031 5fe4 40cb
000000c0: e3fc c8dd 2ce2 e620 2b29 da19 2af0 8aba
000000d0: fad3 d2e5 c2f8 dd12 f671 045c d42a b904
000000e0: eef0 20cb f22d 0c2c dad8 c610 e632 f6ed
000000f0: d203 e52c f743 0d29 eeeb d0c0 49fc ea06
13 -58 4 -12 -26 -49 -43 53
8 -5 -9 15 -58 45 6 -8
-70 -22 21 -22 35 -12 12 6
-24 93 43 40 31 -21 -3 8
57 6 32 14 -66 -90 7 -12
-61 12 -36 16 -10 -102 -29 -53
45 10 -40 -11 24 -36 -16 54
-5 -67 -3 -28 -6 20 -13 -32
-14 21 51 -5 30 60 -35 56
42 37 -27 38 -85 21 61 -88
-35 -43 -60 74 28 3 34 -13
-70 25 -27 127 -9 -60 -8 -39
-50 58 -9 -27 0 -36 -83 42
3 54 1 36 36 9 -3 -34
-31 -50 8 -16 -23 0 9 -32
-74 -22 34 -72 98 13 18 -4
-45 3 46 9 -19 1 32 1
-63 -3 37 8 10 -28 -14 -39
27 20 32 -37 -127 -23 79 -14
-39 10 25 -12 7 9 -41 -12
14 -16 -44 -59 -33 59 -25 18
-84 -107 -100 -15 24 -48 72 54
21 -19 -36 -11 -27 22 -35 -17
-17 31 -48 49 95 -28 64 -53
-29 -4 -56 -35 44 -30 -26 32
43 41 -38 25 42 -16 -118 -70
-6 -45 -46 -27 -62 -8 -35 18
-10 113 4 92 -44 42 -71 4
-18 -16 32 -53 -14 45 12 44
-38 -40 -58 16 -26 50 -10 -19
-46 3 -27 44 -9 67 13 41
-18 -21 -48 -64 73 -4 -22 6

model_4/linear_bottleneck_block_63/batch_normalization_194/FusedBatchNormV3;model_4/linear_bottleneck_block_63/depthwise_conv2d_126/depthwise;model_4/linear_bottleneck_block_63/depthwise_conv2d_126/BiasAdd/ReadVariableOp;model_4/linear_bottleneck_block_63/depthwise_conv2d_126/BiasAdd1 i1 [1, 3, 3, 168]
00000000: fa26 1bbe 41c1 edea 3958 b46b e636 370c
00000010: 1919 492a c78e 0b67 72d2 a7cf 9021 d507
00000020: b5b5 f428 4dd8 4e61 3034 2832 30be 010c
00000030: d713 4fdb c7d9 370e c3c3 2303 4aca d0b2
00000040: d9fb 3d31 32e8 f1ea 13cf 2e54 1dba 5ce2
00000050: 0ce7 2c07 b00e bdbe ae21 6afa 0bd0 db1a
00000060: 040b d021 532c 2342 2acd 1cc4 47f9 0ae2
00000070: c4df 8142 4bf6 c0f2 e1d3 1539 358e 2a08
00000080: 2ecc dd6a 5715 30c2 2c42 ce1f 32ca d507
00000090: 542a bbd5 13c0 0e21 bc51 dcb9 b82c d9f3
000000a0: 4233 5e47 1081 5f29 bf33 1fa4 bbbf 05d6
000000b0: 4d79 a658 967f 6a08 0d42 7f7f cea4 1827
000000c0: 33cd d5f2 d617 c901 af81 21ff 40a1 6377
000000d0: 7f45 3151 52a1 6754 9146 7fc8 d8bd 42e4
000000e0: 2297 3d4d 42be bdcb ea0f 4530 56b3 ded9
000000f0: 5db3 1e4f 2590 53af e3b9 481b 2b36 c5c7
-6 38 27 -66 65 -63 -19 -22
57 88 -76 107 -26 54 55 12
25 25 73 42 -57 -114 11 103
114 -46 -89 -49 -112 33 -43 7
-75 -75 -12 40 77 -40 78 97
48 52 40 50 48 -66 1 12
-41 19 79 -37 -57 -39 55 14
-61 -61 35 3 74 -54 -48 -78
-39 -5 61 49 50 -24 -15 -22
19 -49 46 84 29 -70 92 -30
12 -25 44 7 -80 14 -67 -66
-82 33 106 -6 11 -48 -37 26
4 11 -48 33 83 44 35 66
42 -51 28 -60 71 -7 10 -30
-60 -33 -127 66 75 -10 -64 -14
-31 -45 21 57 53 -114 42 8
46 -52 -35 106 87 21 48 -62
44 66 -50 31 50 -54 -43 7
84 42 -69 -43 19 -64 14 33
-68 81 -36 -71 -72 44 -39 -13
66 51 94 71 16 -127 95 41
-65 51 31 -92 -69 -65 5 -42
77 121 -90 88 -106 127 106 8
13 66 127 127 -50 -92 24 39
51 -51 -43 -14 -42 23 -55 1
-81 -127 33 -1 64 -95 99 119
127 69 49 81 82 -95 103 84
-111 70 127 -56 -40 -67 66 -28
34 -105 61 77 66 -66 -67 -53
-22 15 69 48 86 -77 -34 -39
93 -77 30 79 37 -112 83 -81
-29 -71 72 27 43 54 -59 -57

model_4/linear_bottleneck_block_62/batch_normalization_193/FusedBatchNormV3;model_4/linear_bottleneck_block_62/depthwise_conv2d_125/depthwise;model_4/linear_bottleneck_block_62/depthwise_conv2d_125/BiasAdd/ReadVariableOp;model_4/linear_bottleneck_block_62/depthwise_conv2d_125/BiasAdd;model_4/linear_bottleneck_block_63/depthwise_conv2d_126/depthwise i1 [1, 3, 3, 168]
00000000: fb26 48d4 81ae fb4e f7de 8ea1 e608 1c3d
00000010: d94c fae1 d19e c822 57b8 0e06 c436 9b50
00000020: d7e5 47df bbd9 c5f7 7ff9 e5db 15f1 f83e
00000030: ea30 e1f8 b829 17ff b8ae d7cc f6ed e2d4
00000040: 3cf4 fce1 b8df 34c6 dbc0 d6ee d611 ad31
00000050: ffde daeb 0901 dcb8 e509 9088 20c6 d6c1
00000060: 19bf da20 9a7f dcc3 a017 d726 dd2e e411
00000070: f281 91f5 e303 2adf 19f0 07e1 dfb1 e9e5
00000080: bcf1 f804 fc11 c1cb 05f3 ff1d e7e8 1bbd
00000090: adf4 acfa 46f2 dbef 2de9 3dcc e50d c808
000000a0: 17c5 f3ea b2cc d9f1 ba5b 01be cbc5 fa7f
000000b0: 5b22 8ff4 54ee f97f ec01 bdc8 beff bdc5
000000c0: 31b7 9553 4d7f 4a7f 25ea 78f3 90f1 f5fe
000000d0: 79ad 39e6 0e46 c17f ec30 f433 8e36 fbbb
000000e0: e6c7 c29f 764d ad9a 60b5 3159 81ee 42cd
000000f0: 0bb9 30fc 9611 117f fd3f 005d c6d2 96bc
-5 38 72 -44 -127 -82 -5 78
-9 -34 -114 -95 -26 8 28 61
-39 76 -6 -31 -47 -98 -56 34
87 -72 14 6 -60 54 -101 80
-41 -27 71 -33 -69 -39 -59 -9
127 -7 -27 -37 21 -15 -8 62
-22 48 -31 -8 -72 41 23 -1
-72 -82 -41 -52 -10 -19 -30 -44
60 -12 -4 -31 -72 -33 52 -58
-37 -64 -42 -18 -42 17 -83 49
-1 -34 -38 -21 9 1 -36 -72
-27 9 -112 -120 32 -58 -42 -63
25 -65 -38 32 -102 127 -36 -61
-96 23 -41 38 -35 46 -28 17
-14 -127 -111 -11 -29 3 42 -33
25 -16 7 -31 -33 -79 -23 -27
-68 -15 -8 4 -4 17 -63 -53
5 -13 -1 29 -25 -24 27 -67
-83 -12 -84 -6 70 -14 -37 -17
45 -23 61 -52 -27 13 -56 8
23 -59 -13 -22 -78 -52 -39 -15
-70 91 1 -66 -53 -59 -6 127
91 34 -113 -12 84 -18 -7 127
-20 1 -67 -56 -66 -1 -67 -59
49 -73 -107 83 77 127 74 127
37 -22 120 -13 -112 -15 -11 -2
121 -83 57 -26 14 70 -63 127
-20 48 -12 51 -114 54 -5 -69
-26 -57 -62 -97 118 77 -83 -102
96 -75 49 89 -127 -18 66 -51
11 -71 48 -4 -106 17 17 127
-3 63 0 93 -58 -46 -106 -68

model_4/linear_bottleneck_block_62/conv2d_67/Conv2D i1 [168, 1, 1, 168]
00000000: ddd3 1ddd aee2 0fad 1def 1650 c8d2 9c1c
00000010: e2f0 122f d42b 24fd edd3 e1cc 17f7 d021
00000020: 0834 9fe2 6f5a 3dfb cdca 09d6 38f2 e5d3
00000030: 01f3 a7e2 0839 f631 c2f6 7b1a f04b 155c
00000040: ffa9 e141 dddf 3c50 b013 03f0 17bd f610
00000050: 333a edc6 16e1 db0d 202f 1aff 39ba df03
00000060: ffed 1828 fa22 16e3 1bd6 24df b2da 004d
00000070: 9aec 7f32 0dff e6e0 d100 e3af 42c2 070b
00000080: ec04 d01a b2fb 97e9 f90f 1488 e9f6 ede4
00000090: 3af6 ff2b 5cf8 0883 f9f7 3513 e241 f613
000000a0: b710 2011 bbda 2339 a6f2 04d4 08d3 e5df
000000b0: 22f7 1e20 d316 9711 f699 1eff d8d1 eae4
000000c0: 07eb 05f4 0f08 f4ce ef37 162d 23ed e83b
000000d0: 23bf fe2c ecbd 2b02 1529 0fea 18f6 eb0f
000000e0: c4bd ede3 bfd1 a1f1 09c5 322f fb2b 3e41
000000f0: d326 b96c fad8 0137 22d2 c744 d0d6 0807
-35 -45 29 -35 -82 -30 15 -83
29 -17 22 80 -56 -46 -100 28
-30 -16 18 47 -44 43 36 -3
-19 -45 -31 -52 23 -9 -48 33
8 52 -97 -30 111 90 61 -5
-51 -54 9 -42 56 -14 -27 -45
1 -13 -89 -30 8 57 -10 49
-62 -10 123 26 -16 75 21 92
-1 -87 -31 65 -35 -33 60 80
-80 19 3 -16 23 -67 -10 16
51 58 -19 -58 22 -31 -37 13
32 47 26 -1 57 -70 -33 3
-1 -19 24 40 -6 34 22 -29
27 -42 36 -33 -78 -38 0 77
-102 -20 127 50 13 -1 -26 -32
-47 0 -29 -81 66 -62 7 11
-20 4 -48 26 -78 -5 -105 -23
-7 15 20 -120 -23 -10 -19 -28
58 -10 -1 43 92 -8 8 -125
-7 -9 53 19 -30 65 -10 19
-73 16 32 17 -69 -38 35 57
-90 -14 4 -44 8 -45 -27 -33
34 -9 30 32 -45 22 -105 17
-10 -103 30 -1 -40 -47 -22 -28
7 -21 5 -12 15 8 -12 -50
-17 55 22 45 35 -19 -24 59
35 -65 -2 44 -20 -67 43 2
21 41 15 -22 24 -10 -21 15
-60 -67 -19 -29 -65 -47 -95 -15
9 -59 50 47 -5 43 62 65
-45 38 -71 108 -6 -40 1 55
34 -46 -57 68 -48 -42 8 7

model_4/linear_bottleneck_block_62/batch_normalization_191/FusedBatchNormV3;model_4/linear_bottleneck_block_62/depthwise_conv2d_124/depthwise;model_4/linear_bottleneck_block_62/depthwise_conv2d_124/BiasAdd/ReadVariableOp;model_4/linear_bottleneck_block_62/depthwise_conv2d_124/BiasAdd;model_4/linear_bottleneck_block_63/depthwise_conv2d_126/depthwise1 i1 [1, 3, 3, 168]
00000000: f506 e00e e119 321a 23fc 1add e3f9 0eea
00000010: e2fe 0114 ac08 eaed 2405 3948 f7b9 0e0a
00000020: 04ea 03f7 bf28 15f8 e9e4 fa12 0436 13eb
00000030: d409 d81c f408 18f1 521f 1603 3a36 1d06
00000040: d5e2 fae7 581b f215 f232 0c32 fcf8 16f1
00000050: ede6 fdea 71e3 4ff9 1d14 e1eb ece8 fa24
00000060: e4d8 1802 2a04 110e d71d 23d5 f52c d136
00000070: 08e1 e11f 0c81 1e03 2cea fa19 f5e6 220c
00000080: 75f0 d3e8 030e 1407 0dcf fd38 ee91 081b
00000090: eeea 35cb f817 0421 1313 e3f9 c31f 0ef9
000000a0: f119 d6ea 25fd f5f4 24f4 3814 2eb0 36f9
000000b0: 1d7f b1cf 45ad c406 08f8 2315 0af5 2726
000000c0: 3444 077f 1baf f9e9 1181 0223 6b1e dcee
000000d0: 2ddc e9be 40ae 51e7 d9f4 26c1 05e1 21f3
000000e0: 04ef da2a 001b f31b c10a 90fb f40b efef
000000f0: fa50 cab5 d604 ee1b f0ee cdf4 3405 7f0f
-11 6 -32 14 -31 25 50 26
35 -4 26 -35 -29 -7 14 -22
-30 -2 1 20 -84 8 -22 -19
36 5 57 72 -9 -71 14 10
4 -22 3 -9 -65 40 21 -8
-23 -28 -6 18 4 54 19 -21
-44 9 -40 28 -12 8 24 -15
82 31 22 3 58 54 29 6
-43 -30 -6 -25 88 27 -14 21
-14 50 12 50 -4 -8 22 -15
-19 -26 -3 -22 113 -29 79 -7
29 20 -31 -21 -20 -24 -6 36
-28 -40 24 2 42 4 17 14
-41 29 35 -43 -11 44 -47 54
8 -31 -31 31 12 -127 30 3
44 -22 -6 25 -11 -26 34 12
117 -16 -45 -24 3 14 20 7
13 -49 -3 56 -18 -111 8 27
-18 -22 53 -53 -8 23 4 33
19 19 -29 -7 -61 31 14 -7
-15 25 -42 -22 37 -3 -11 -12
36 -12 56 20 46 -80 54 -7
29 127 -79 -49 69 -83 -60 6
8 -8 35 21 10 -11 39 38
52 68 7 127 27 -81 -7 -23
17 -127 2 35 107 30 -36 -18
45 -36 -23 -66 64 -82 81 -25
-39 -12 38 -63 5 -31 33 -13
4 -17 -38 42 0 27 -13 27
-63 10 -112 -5 -12 11 -17 -17
-6 80 -54 -75 -42 4 -18 27
-16 -18 -51 -12 52 5 127 15

model_4/linear_bottleneck_block_61/batch_normalization_190/FusedBatchNormV3;model_4/linear_bottleneck_block_61/depthwise_conv2d_123/depthwise;model_4/linear_bottleneck_block_61/depthwise_conv2d_123/BiasAdd/ReadVariableOp;model_4/linear_bottleneck_block_61/depthwise_conv2d_123/BiasAdd;model_4/linear_bottleneck_block_63/depthwise_conv2d_126/depthwise i1 [1, 3, 3, 168]
00000000: 20f3 df09 fed5 01f0 0508 bf34 ecd6 f1d0
00000010: e3f2 0425 2b1a e607 e602 c0f6 ff41 0311
00000020: 023b 210b 02f9 23e5 fae9 08df dedd 01ee
00000030: d5f4 c6dc c21d dfec d1e9 0daf 1618 fcf7
00000040: 0cf7 dcef d5f9 d216 cb22 8ef1 d9f4 bb1b
00000050: 262c 26e7 0410 f928 0bbc ef11 1c0f 08ff
00000060: 041a 09f4 50f7 cf0e ecdf fe1a fb09 cbfc
00000070: 1151 f5f0 b00f eff4 0dc8 d6ee f5e9 26f6
00000080: 39fd f8df e70e 421d 1222 2beb 10df e5ce
00000090: 16e1 07f3 ffc9 db08 13fc f4e4 2d04 fd05
000000a0: f529 0fcf 0f03 c6fe c803 8c13 81fb 4b3e
000000b0: 072a 2fa1 97e6 edfe 5518 0a7f 29c3 d246
000000c0: 0a7f f8fd 059c 1de7 102b 097f 1401 2dd3
000000d0: 16d8 efee 810f f97f 8136 bd1e 4cde f17f
000000e0: d308 d6db 26e0 42f8 fdf0 c6d9 b3c1 1d2b
000000f0: f17f fcdb 1318 d5ce 4a34 b5e2 db10 ece1
32 -13 -33 9 -2 -43 1 -16
5 8 -65 52 -20 -42 -15 -48
-29 -14 4 37 43 26 -26 7
-26 2 -64 -10 -1 65 3 17
2 59 33 11 2 -7 35 -27
-6 -23 8 -33 -34 -35 1 -18
-43 -12 -58 -36 -62 29 -33 -20
-47 -23 13 -81 22 24 -4 -9
12 -9 -36 -17 -43 -7 -46 22
-53 34 -114 -15 -39 -12 -69 27
38 44 38 -25 4 16 -7 40
11 -68 -17 17 28 15 8 -1
4 26 9 -12 80 -9 -49 14
-20 -33 -2 26 -5 9 -53 -4
17 81 -11 -16 -80 15 -17 -12
13 -56 -42 -18 -11 -23 38 -10
57 -3 -8 -33 -25 14 66 29
18 34 43 -21 16 -33 -27 -50
22 -31 7 -13 -1 -55 -37 8
19 -4 -12 -28 45 4 -3 5
-11 41 15 -49 15 3 -58 -2
-56 3 -116 19 -127 -5 75 62
7 42 47 -95 -105 -26 -19 -2
85 24 10 127 41 -61 -46 70
10 127 -8 -3 5 -100 29 -25
16 43 9 127 20 1 45 -45
22 -40 -17 -18 -127 15 -7 127
-127 54 -67 30 76 -34 -15 127
-45 8 -42 -37 38 -32 66 -8
-3 -16 -58 -39 -77 -63 29 43
-15 127 -4 -37 19 24 -43 -50
74 52 -75 -30 -37 16 -20 -31

model_4/linear_bottleneck_block_61/conv2d_66/Conv2D i1 [168, 1, 1, 168]
00000000: de28 07ca 03e8 f0ed 020c 08fe d438 0ffc
00000010: 911b ef2e 01e4 c8e8 d8a8 2bf7 36ed 3356
00000020: b9bc 0b96 ce3d fe2a 1d13 bce2 e709 2e25
00000030: 4713 cb02 0bfb 8a01 3045 eb03 3305 03fa
00000040: 0e08 5aaf 4c0c ff18 05df de0c 33fc d108
00000050: 382c f781 0fd5 b8f8 c7ea 1994 08df 0b10
00000060: 3b26 ecdc 0522 000d 4554 d818 fd26 09db
00000070: 40ba 14f1 d824 291e 2dc8 b3c5 dbe5 b240
00000080: 22d5 a7f3 abf7 1106 d6f9 04e8 62e2 49f0
00000090: f301 fc11 1fe3 2de0 b7f3 140a 2d13 c9f1
000000a0: 3299 e853 ded4 11fd fa01 f909 fa0e 03f1
000000b0: f6ed f026 ee02 0622 03f6 eff6 0701 1010
000000c0: 071b e7fe f3fb e406 0511 0700 ec0f eff6
000000d0: 05e1 eff9 ec01 0a01 ec02 1616 f07f fd03
000000e0: 1107 fc08 f5fc f1fe e148 0bfa 0300 0e07
000000f0: 0a06 fbf4 0b05 fb02 08fc 10ff f806 05f6
-34 40 7 -54 3 -24 -16 -19
2 12 8 -2 -44 56 15 -4
-111 27 -17 46 1 -28 -56 -24
-40 -88 43 -9 54 -19 51 86
-71 -68 11 -106 -50 61 -2 42
29 19 -68 -30 -25 9 46 37
71 19 -53 2 11 -5 -118 1
48 69 -21 3 51 5 3 -6
14 8 90 -81 76 12 -1 24
5 -33 -34 12 51 -4 -47 8
56 44 -9 -127 15 -43 -72 -8
-57 -22 25 -108 8 -33 11 16
59 38 -20 -36 5 34 0 13
69 84 -40 24 -3 38 9 -37
64 -70 20 -15 -40 36 41 30
45 -56 -77 -59 -37 -27 -78 64
34 -43 -89 -13 -85 -9 17 6
-42 -7 4 -24 98 -30 73 -16
-13 1 -4 17 31 -29 45 -32
-73 -13 20 10 45 19 -55 -15
50 -103 -24 83 -34 -44 17 -3
-6 1 -7 9 -6 14 3 -15
-10 -19 -16 38 -18 2 6 34
3 -10 -17 -10 7 1 16 16
7 27 -25 -2 -13 -5 -28 6
5 17 7 0 -20 15 -17 -10
5 -31 -17 -7 -20 1 10 1
-20 2 22 22 -16 127 -3 3
17 7 -4 8 -11 -4 -15 -2
-31 72 11 -6 3 0 14 7
10 6 -5 -12 11 5 -5 2
8 -4 16 -1 -8 6 5 -10

model_4/linear_bottleneck_block_61/batch_normalization_188/FusedBatchNormV3;model_4/linear_bottleneck_block_61/depthwise_conv2d_122/depthwise;model_4/linear_bottleneck_block_61/depthwise_conv2d_122/BiasAdd/ReadVariableOp;model_4/linear_bottleneck_block_61/depthwise_conv2d_122/BiasAdd;model_4/linear_bottleneck_block_63/depthwise_conv2d_126/depthwise1 i1 [1, 3, 3, 168]
00000000: fef2 d60f 0c0f d8f6 cbec 43ca f1e3 bd0c
00000010: fff5 f60e d3d9 0910 eeeb e9fb c723 1bf8
00000020: f62a e9e9 1402 f814 0b22 0623 170e eae9
00000030: f412 0616 1a07 f3fb f614 f31d 2500 f022
00000040: 18dd 1a14 fa11 dd17 e421 ed1a dffe 0c1d
00000050: eb01 15fa 1df8 02d7 d6ee 0500 13f3 f5fa
00000060: 67d8 ffc7 f2f0 4edb 10f4 1af1 e2c9 35cc
00000070: d19a 17f2 0911 0bfa 0802 ea11 ea1c 0505
00000080: ee23 111a 0a02 12e6 f632 f3fb 2a02 dbdc
00000090: f207 ebf1 cf05 f937 0c06 1d68 2a29 0eeb
000000a0: e31d fe01 f6e3 6513 b6f8 65cf 1181 f1ef
000000b0: 54ff 168f d63f fffe a425 06da 272b f31d
000000c0: e61b 0a3d d1e8 d60c ebec 24fc 26e4 8119
000000d0: 185f 1bcd 4407 dbd5 d208 f504 44fe f2f4
000000e0: f1e8 1421 74d3 0d30 0308 f8bc f2e4 f8af
000000f0: 66d8 c9fa bef8 f00e dc19 d7f7 afe0 c781
-2 -14 -42 15 12 15 -40 -10
-53 -20 67 -54 -15 -29 -67 12
-1 -11 -10 14 -45 -39 9 16
-18 -21 -23 -5 -57 35 27 -8
-10 42 -23 -23 20 2 -8 20
11 34 6 35 23 14 -22 -23
-12 18 6 22 26 7 -13 -5
-10 20 -13 29 37 0 -16 34
24 -35 26 20 -6 17 -35 23
-28 33 -19 26 -33 -2 12 29
-21 1 21 -6 29 -8 2 -41
-42 -18 5 0 19 -13 -11 -6
103 -40 -1 -57 -14 -16 78 -37
16 -12 26 -15 -30 -55 53 -52
-47 -102 23 -14 9 17 11 -6
8 2 -22 17 -22 28 5 5
-18 35 17 26 10 2 18 -26
-10 50 -13 -5 42 2 -37 -36
-14 7 -21 -15 -49 5 -7 55
12 6 29 104 42 41 14 -21
-29 29 -2 1 -10 -29 101 19
-74 -8 101 -49 17 -127 -15 -17
84 -1 22 -113 -42 63 -1 -2
-92 37 6 -38 39 43 -13 29
-26 27 10 61 -47 -24 -42 12
-21 -20 36 -4 38 -28 -127 25
24 95 27 -51 68 7 -37 -43
-46 8 -11 4 68 -2 -14 -12
-15 -24 20 33 116 -45 13 48
3 8 -8 -68 -14 -28 -8 -81
102 -40 -55 -6 -66 -8 -16 14
-36 25 -41 -9 -81 -32 -57 -127

model_4/linear_bottleneck_block_60/batch_normalization_187/FusedBatchNormV3;model_4/linear_bottleneck_block_60/depthwise_conv2d_121/depthwise;model_4/linear_bottleneck_block_60/depthwise_conv2d_121/BiasAdd/ReadVariableOp;model_4/linear_bottleneck_block_60/depthwise_conv2d_121/BiasAdd;model_4/linear_bottleneck_block_63/depthwise_conv2d_126/depthwise i1 [1, 3, 3, 168]
00000000: e007 0a01 19fe d9e7 fe0d 2b17 2fb2 7f05
00000010: ee07 eaeb e00b de42 d0cc ecfd 8718 f613
00000020: fb06 fe12 e9ed e812 17f6 e608 d8e1 d8e1
00000030: 0100 1712 cb06 26d4 0ff6 f935 e0e9 da5d
00000040: f7ea f3ca fc0a f929 bffa 28fe d50c e1f4
00000050: fe31 ded8 d5cf fee9 050b fd27 53d1 ffa3
00000060: 1a36 0230 f602 cf2a d229 02ed f3cd 0b0a
00000070: 04e9 0edd 810e 0de3 eefc 0846 d2ef 0906
00000080: 153f 3834 0602 391c fb18 50ca fff3 0aff
00000090: 0407 0de7 20fa 1f46 f6e5 0988 0ce4 d204
000000a0: f6ff 03dd 11f8 37da 087f 7f19 2f15 880d
000000b0: 24f2 a0cb f72e 08fd aeff 171b a529 d962
000000c0: bba5 18f9 7fbb ccf1 01be 041c c307 4032
000000d0: b532 14d8 fdff ad1a 7a0f 2cfa 38e8 c787
000000e0: 7ff6 fc81 20e0 f47f e5ea 9a09 f9ce 55cf
000000f0: 81ec 207f 1f15 7fca e07f f81f f8c8 4ffb
-32 7 10 1 25 -2 -39 -25
-2 13 43 23 47 -78 127 5
-18 7 -22 -21 -32 11 -34 66
-48 -52 -20 -3 -121 24 -10 19
-5 6 -2 18 -23 -19 -24 18
23 -10 -26 8 -40 -31 -40 -31
1 0 23 18 -53 6 38 -44
15 -10 -7 53 -32 -23 -38 93
-9 -22 -13 -54 -4 10 -7 41
-65 -6 40 -2 -43 12 -31 -12
-2 49 -34 -40 -43 -49 -2 -23
5 11 -3 39 83 -47 -1 -93
26 54 2 48 -10 2 -49 42
-46 41 2 -19 -13 -51 11 10
4 -23 14 -35 -127 14 13 -29
-18 -4 8 70 -46 -17 9 6
21 63 56 52 6 2 57 28
-5 24 80 -54 -1 -13 10 -1
4 7 13 -25 32 -6 31 70
-10 -27 9 -120 12 -28 -46 4
-10 -1 3 -35 17 -8 55 -38
8 127 127 25 47 21 -120 13
36 -14 -96 -53 -9 46 8 -3
-82 -1 23 27 -91 41 -39 98
-69 -91 24 -7 127 -69 -52 -15
1 -66 4 28 -61 7 64 50
-75 50 20 -40 -3 -1 -83 26
122 15 44 -6 56 -24 -57 -121
127 -10 -4 -127 32 -32 -12 127
-27 -22 -102 9 -7 -50 85 -49
-127 -20 32 127 31 21 127 -54
-32 127 -8 31 -8 -56 79 -5

model_4/linear_bottleneck_block_60/conv2d_65/Conv2D i1 [168, 1, 1, 96]
00000000: d7e9 567f 022a 2258 2bff 1ddb ea1f 6022
00000010: e52c 75ed ebcc c7cc afb1 281d fa09 02e8
00000020: e623 03d0 0a3d faef ebf0 5514 fe1b 15f2
00000030: afde c01f cfeb 0e26 e41e e609 d9f3 48d7
00000040: 1c26 be24 eedb 17e1 d6bd fae6 2220 0334
00000050: ccf2 071a 1f23 1124 0fab 0e32 dca6 0fe6
00000060: 1ced f82b 03f9 23f9 faeb 1a51 e2dd d33f
00000070: 01f0 0ae5 6a0a d6f5 812c f524 fbfd 183f
00000080: 0b10 f8df 0508 1815 c103 0713 1811 1ef8
00000090: f829 3040 14df 43d6 f1fe e41c 084d 590b
000000a0: 04dd 2eef eaf7 48e2 03f6 650f 1429 16ef
000000b0: 42af 13ed c81e cf0e fbed 241b fb0a 2f03
000000c0: 18e0 d1e4 28fd eb16 18e0 225e 19ee e80c
000000d0: 3ff7 030c f8f4 0bec eccd 33fe 1312 dfd5
000000e0: 1de4 fd1d eb1e f40e 17e2 02d0 1e1f e9f1
000000f0: f3de 27ff fcd3 bf0f f60b cff8 16e9 32ff
-41 -23 86 127 2 42 34 88
43 -1 29 -37 -22 31 96 34
-27 44 117 -19 -21 -52 -57 -52
-81 -79 40 29 -6 9 2 -24
-26 35 3 -48 10 61 -6 -17
-21 -16 85 20 -2 27 21 -14
-81 -34 -64 31 -49 -21 14 38
-28 30 -26 9 -39 -13 72 -41
28 38 -66 36 -18 -37 23 -31
-42 -67 -6 -26 34 32 3 52
-52 -14 7 26 31 35 17 36
15 -85 14 50 -36 -90 15 -26
28 -19 -8 43 3 -7 35 -7
-6 -21 26 81 -30 -35 -45 63
1 -16 10 -27 106 10 -42 -11
-127 44 -11 36 -5 -3 24 63
11 16 -8 -33 5 8 24 21
-63 3 7 19 24 17 30 -8
-8 41 48 64 20 -33 67 -42
-15 -2 -28 28 8 77 89 11
4 -35 46 -17 -22 -9 72 -30
3 -10 101 15 20 41 22 -17
66 -81 19 -19 -56 30 -49 14
-5 -19 36 27 -5 10 47 3
24 -32 -47 -28 40 -3 -21 22
24 -32 34 94 25 -18 -24 12
63 -9 3 12 -8 -12 11 -20
-20 -51 51 -2 19 18 -33 -43
29 -28 -3 29 -21 30 -12 14
23 -30 2 -48 30 31 -23 -15
-13 -34 39 -1 -4 -45 -65 15
-10 11 -49 -8 22 -23 50 -1

model_4/linear_bottleneck_block_60/batch_normalization_185/FusedBatchNormV3;model_4/linear_bottleneck_block_60/depthwise_conv2d_120/depthwise;model_4/linear_bottleneck_block_60/depthwise_conv2d_120/BiasAdd/ReadVariableOp;model_4/linear_bottleneck_block_60/depthwise_conv2d_120/BiasAdd1 i1 [1, 3, 3, 96]
00000000: 4f5f 6a7f 38a8 82a7 657f c94f 677f 57a8
00000010: b1e9 677f 75ff 6546 d35f 5323 a3cb 81b7
00000020: 4f44 7891 cea2 647f 7c4c 5a34 4381 99f2
00000030: c2d4 8eb0 4844 b349 27d2 cb59 7fad d17f
00000040: 8170 c67e 9fc0 d928 4fad 76bf 5f60 4ca7
00000050: 4081 5eb7 c39a 7481 5881 0d34 4b68 a6b9
00000060: 3b65 5462 57a4 8181 625e 8f60 7a69 5ca3
00000070: d1ab 517a 7fe0 4449 897f 4063 81ba a281
00000080: 3d6e 7f86 8181 7a59 7055 675a 7fa4 81fd
00000090: 98b1 819d 1c4f a679 5397 b77f 7781 be65
000000a0: 9c7f 9b7f 99b0 815a 4781 7fc4 467f 7fa9
000000b0: 7fab 449f 9a81 7fea 7f95 e935 1043 8181
000000c0: 0cfa edc2 3609 0bfd 0d37 e7ff e7d5 05ee
000000d0: 1bee e9d3 d50f ee12 f41c 39ff dd13 14e2
000000e0: 0f4e 120b c6ea f0e6 2539 f937 3d0b edf2
000000f0: ccde 0ee9 da0f cf53 dbb8 ef14 f8d8 f20f
79 95 106 127 56 -88 -126 -89
101 127 -55 79 103 127 87 -88
-79 -23 103 127 117 -1 101 70
-45 95 83 35 -93 -53 -127 -73
79 68 120 -111 -50 -94 100 127
124 76 90 52 67 -127 -103 -14
-62 -44 -114 -80 72 68 -77 73
39 -46 -53 89 127 -83 -47 127
-127 112 -58 126 -97 -64 -39 40
79 -83 118 -65 95 96 76 -89
64 -127 94 -73 -61 -102 116 -127
88 -127 13 52 75 104 -90 -71
59 101 84 98 87 -92 -127 -127
98 94 -113 96 122 105 92 -93
-47 -85 81 122 127 -32 68 73
-119 127 64 99 -127 -70 -94 -127
61 110 127 -122 -127 -127 122 89
112 85 103 90 127 -92 -127 -3
-104 -79 -127 -99 28 79 -90 121
83 -105 -73 127 119 -127 -66 101
-100 127 -101 127 -103 -80 -127 90
71 -127 127 -60 70 127 127 -87
127 -85 68 -97 -102 -127 127 -22
127 -107 -23 53 16 67 -127 -127
12 -6 -19 -62 54 9 11 -3
13 55 -25 -1 -25 -43 5 -18
27 -18 -23 -45 -43 15 -18 18
-12 28 57 -1 -35 19 20 -30
15 78 18 11 -58 -22 -16 -26
37 57 -7 55 61 11 -19 -14
-52 -34 14 -23 -38 15 -49 83
-37 -72 -17 20 -8 -40 -14 15

model_4/linear_bottleneck_block_59/batch_normalization_184/FusedBatchNormV3;model_4/linear_bottleneck_block_59/depthwise_conv2d_119/depthwise;model_4/linear_bottleneck_block_59/depthwise_conv2d_119/BiasAdd/ReadVariableOp;model_4/linear_bottleneck_block_59/depthwise_conv2d_119/BiasAdd;model_4/linear_bottleneck_block_60/depthwise_conv2d_120/depthwise i1 [1, 3, 3, 96]
00000000: 4449 05d3 45a3 313e 553b 13c9 af42 4b33
00000010: 0c7f 3fd6 4347 cc3a f3cf 16a1 02f0 c0cb
00000020: dccb 6bc3 1ca6 115f 316e 2e2e 5304 e103
00000030: 08fb d596 b5f2 ce3d e3c2 a9fa 6b1e f31d
00000040: f5c3 dbc4 241d 1825 da3d ed63 505a 3535
00000050: e008 a12b 22b0 c6b1 2546 65d1 ce30 12c3
00000060: 3156 3a83 6781 707f 4542 38bf 942b 4e5e
00000070: 4dfa 48c7 647f 974d ff97 6881 09c7 f3b4
00000080: 7fbe 7fca 1481 337f 7f7f 05eb 4014 37f3
00000090: 2a7f e899 81dc d950 817f 7d81 4ad9 8146
000000a0: b1ae 1dfe 5b39 0104 8142 c27f 5b79 2a75
000000b0: c2a7 394e 4eca c71b 0719 505f c44b 30d8
000000c0: 1c63 15d3 c3a3 3314 441c 0af7 9240 3647
000000d0: 32ae 78bd 48f8 c332 eabd c79a 15cb e3e5
000000e0: f706 44ed e9ab 2162 4eb9 36fa b632 14e2
000000f0: 19bc cede fff6 29e2 d5f4 7ff6 7f27 0315
68 73 5 -45 69 -93 49 62
85 59 19 -55 -81 66 75 51
12 127 63 -42 67 71 -52 58
-13 -49 22 -95 2 -16 -64 -53
-36 -53 107 -61 28 -90 17 95
49 110 46 46 83 4 -31 3
8 -5 -43 -106 -75 -14 -50 61
-29 -62 -87 -6 107 30 -13 29
-11 -61 -37 -60 36 29 24 37
-38 61 -19 99 80 90 53 53
-32 8 -95 43 34 -80 -58 -79
37 70 101 -47 -50 48 18 -61
49 86 58 -125 103 -127 112 127
69 66 56 -65 -108 43 78 94
77 -6 72 -57 100 127 -105 77
-1 -105 104 -127 9 -57 -13 -76
127 -66 127 -54 20 -127 51 127
127 127 5 -21 64 20 55 -13
42 127 -24 -103 -127 -36 -39 80
-127 127 125 -127 74 -39 -127 70
-79 -82 29 -2 91 57 1 4
-127 66 -62 127 91 121 42 117
-62 -89 57 78 78 -54 -57 27
7 25 80 95 -60 75 48 -40
28 99 21 -45 -61 -93 51 20
68 28 10 -9 -110 64 54 71
50 -82 120 -67 72 -8 -61 50
-22 -67 -57 -102 21 -53 -29 -27
-9 6 68 -19 -23 -85 33 98
78 -71 54 -6 -74 50 20 -30
25 -68 -50 -34 -1 -10 41 -30
-43 -12 127 -10 127 39 3 21

model_4/linear_bottleneck_block_59/conv2d_64/Conv2D i1 [96, 1, 1, 96]
00000000: 3fdd 0a44 f0ff f433 ecc8 b0e1 ef32 6b19
00000010: 7f17 fb30 e3d6 7125 c01c 26b8 05c3 d508
00000020: 2f46 07eb e7ea d3cf 1046 9514 ea27 e50a
00000030: 111e a8ce 2ee3 d52d 1ee5 2430 20de b60d
00000040: e501 f82b fafe 5037 2c10 06a5 c0e6 d1d0
00000050: 2002 24f2 d566 31f8 100f adbb fffc 54e8
00000060: ffff edf3 1f40 34eb fb55 f2a0 54f9 2ddc
00000070: 0cd0 1aaa e6db 132a 21f0 32ec d2ce eef6
00000080: 36ca 1b81 105f 6ee3 d0f4 330d 08f1 b2e5
00000090: cb3f ecd8 cae6 c5d9 0313 f513 d5c5 d12a
000000a0: 0d2b cdef 0afe 31e3 d833 0b0c f502 efe8
000000b0: 200d 3c22 e71b 133a 0a12 0eff e30c 0dc2
000000c0: 7f20 0518 c6f6 1016 3c47 3c29 eb4e 6f0c
000000d0: 2a00 f115 d713 261c 091a 1d0a 06f2 f8f4
000000e0: f5fd fde9 17ca ecff ea26 d81c eacc c21d
000000f0: 0ef4 1518 e9f1 0528 c0fa 02f2 f11d 0911
63 -35 10 68 -16 -1 -12 51
-20 -56 -80 -31 -17 50 107 25
127 23 -5 48 -29 -42 113 37
-64 28 38 -72 5 -61 -43 8
47 70 7 -21 -25 -22 -45 -49
16 70 -107 20 -22 39 -27 10
17 30 -88 -50 46 -29 -43 45
30 -27 36 48 32 -34 -74 13
-27 1 -8 43 -6 -2 80 55
44 16 6 -91 -64 -26 -47 -48
32 2 36 -14 -43 102 49 -8
16 15 -83 -69 -1 -4 84 -24
-1 -1 -19 -13 31 64 52 -21
-5 85 -14 -96 84 -7 45 -36
12 -48 26 -86 -26 -37 19 42
33 -16 50 -20 -46 -50 -18 -10
54 -54 27 -127 16 95 110 -29
-48 -12 51 13 8 -15 -78 -27
-53 63 -20 -40 -54 -26 -59 -39
3 19 -11 19 -43 -59 -47 42
13 43 -51 -17 10 -2 49 -29
-40 51 11 12 -11 2 -17 -24
32 13 60 34 -25 27 19 58
10 18 14 -1 -29 12 13 -62
127 32 5 24 -58 -10 16 22
60 71 60 41 -21 78 111 12
42 0 -15 21 -41 19 38 28
9 26 29 10 6 -14 -8 -12
-11 -3 -3 -23 23 -54 -20 -1
-22 38 -40 28 -22 -52 -62 29
14 -12 21 24 -23 -15 5 40
-64 -6 2 -14 -15 29 9 17

model_4/linear_bottleneck_block_59/batch_normalization_182/FusedBatchNormV3;model_4/linear_bottleneck_block_59/depthwise_conv2d_118/depthwise;model_4/linear_bottleneck_block_59/depthwise_conv2d_118/BiasAdd/ReadVariableOp;model_4/linear_bottleneck_block_59/depthwise_conv2d_118/BiasAdd;model_4/linear_bottleneck_block_60/depthwise_conv2d_120/depthwise1 i1 [1, 3, 3, 96]
00000000: 0dee 1c12 0010 f7e3 d429 092b e9e2 2f06
00000010: d535 050a f0eb 012b 0be0 01f8 4300 e6ff
00000020: 1ade deee 3eef ed1b 15fa 17ed ed0c cefe
00000030: 2922 ff09 010b d6d3 fb05 11ff 5912 fbd5
00000040: 1df9 0b11 e2f6 fbfb 1000 f40b cbf6 ddcb
00000050: 03fe d825 fb1e 0207 e5f2 b9f1 e7eb 18e8
00000060: 06d5 ddf4 f5d3 010a 49f1 e408 dd29 f3fc
00000070: 36e0 32d4 c04c a306 0f01 fbb0 b54e 4884
00000080: f71f 3c0e 7ff4 c0b4 ba1b fb29 1be7 7311
00000090: 04ee 42ce 6741 81fd 0b76 4e32 7ff7 17eb
000000a0: 4c1e 3508 0812 0715 def4 d804 4837 5806
000000b0: e702 0af3 1ddb fb21 0607 c6fc 0fbd 524b
000000c0: fa03 1d33 f313 d7f1 150b f9f3 fdd9 3702
000000d0: ee04 e507 ebea 1418 e8e8 08eb e0e8 23f3
000000e0: 20ed e718 39e2 24d6 110c fefc e011 4207
000000f0: d623 05f7 2418 1de0 06fe 0404 eb17 15f3
13 -18 28 18 0 16 -9 -29
-44 41 9 43 -23 -30 47 6
-43 53 5 10 -16 -21 1 43
11 -32 1 -8 67 0 -26 -1
26 -34 -34 -18 62 -17 -19 27
21 -6 23 -19 -19 12 -50 -2
41 34 -1 9 1 11 -42 -45
-5 5 17 -1 89 18 -5 -43
29 -7 11 17 -30 -10 -5 -5
16 0 -12 11 -53 -10 -35 -53
3 -2 -40 37 -5 30 2 7
-27 -14 -71 -15 -25 -21 24 -24
6 -43 -35 -12 -11 -45 1 10
73 -15 -28 8 -35 41 -13 -4
54 -32 50 -44 -64 76 -93 6
15 1 -5 -80 -75 78 72 -124
-9 31 60 14 127 -12 -64 -76
-70 27 -5 41 27 -25 115 17
4 -18 66 -50 103 65 -127 -3
11 118 78 50 127 -9 23 -21
76 30 53 8 8 18 7 21
-34 -12 -40 4 72 55 88 6
-25 2 10 -13 29 -37 -5 33
6 7 -58 -4 15 -67 82 75
-6 3 29 51 -13 19 -41 -15
21 11 -7 -13 -3 -39 55 2
-18 4 -27 7 -21 -22 20 24
-24 -24 8 -21 -32 -24 35 -13
32 -19 -25 24 57 -30 36 -42
17 12 -2 -4 -32 17 66 7
-42 35 5 -9 36 24 29 -32
6 -2 4 4 -21 23 21 -13

model_4/linear_bottleneck_block_58/batch_normalization_181/FusedBatchNormV3;model_4/linear_bottleneck_block_58/depthwise_conv2d_117/depthwise;model_4/linear_bottleneck_block_58/depthwise_conv2d_117/BiasAdd/ReadVariableOp;model_4/linear_bottleneck_block_58/depthwise_conv2d_117/BiasAdd;model_4/linear_bottleneck_block_60/depthwise_conv2d_120/depthwise i1 [1, 3, 3, 96]
00000000: e8f4 fd1f 02ff 1a05 c60f 0df5 2f16 160a
00000010: 25c1 d707 1105 091d d1f3 ff20 4809 54e5
00000020: e106 f5f9 d9f0 e535 1ce0 fdd6 02fb 06e7
00000030: 0930 0afd f6d6 03df 10c8 2106 ba01 e2cd
00000040: b2f2 1511 06d7 eff4 19e8 10f2 e5eb f5e5
00000050: 09ce 1e0f edc3 d2dc fc08 0d03 e51a 31f1
00000060: 0dce 7fe5 05de 6e12 d31e 0f58 6f7f 7fca
00000070: 0c81 1d07 e6b3 cc36 bac4 02e8 7fcb 7f09
00000080: cb04 d903 08f5 2d15 7fd0 4be8 08de bb23
00000090: f8b7 010a 22c4 f2d0 a481 7fda 08b4 d445
000000a0: 1909 3fde cf81 fee0 cfaa bef2 6a7f b796
000000b0: f9a3 7f55 ef47 bd1c d134 0129 ef73 ecd9
000000c0: fadb 1711 f0f6 0809 00e1 fee5 fa25 0908
000000d0: e21c 060c bd26 0ef6 fe1f fee8 c910 0af6
000000e0: 050c 0006 ed18 e718 013f 0046 fded 22f2
000000f0: 14dd 02ed f830 010e 0cb8 3b12 e509 ef15
-24 -12 -3 31 2 -1 26 5
-58 15 13 -11 47 22 22 10
37 -63 -41 7 17 5 9 29
-47 -13 -1 32 72 9 84 -27
-31 6 -11 -7 -39 -16 -27 53
28 -32 -3 -42 2 -5 6 -25
9 48 10 -3 -10 -42 3 -33
16 -56 33 6 -70 1 -30 -51
-78 -14 21 17 6 -41 -17 -12
25 -24 16 -14 -27 -21 -11 -27
9 -50 30 15 -19 -61 -46 -36
-4 8 13 3 -27 26 49 -15
13 -50 127 -27 5 -34 110 18
-45 30 15 88 111 127 127 -54
12 -127 29 7 -26 -77 -52 54
-70 -60 2 -24 127 -53 127 9
-53 4 -39 3 8 -11 45 21
127 -48 75 -24 8 -34 -69 35
-8 -73 1 10 34 -60 -14 -48
-92 -127 127 -38 8 -76 -44 69
25 9 63 -34 -49 -127 -2 -32
-49 -86 -66 -14 106 127 -73 -106
-7 -93 127 85 -17 71 -67 28
-47 52 1 41 -17 115 -20 -39
-6 -37 23 17 -16 -10 8 9
0 -31 -2 -27 -6 37 9 8
-30 28 6 12 -67 38 14 -10
-2 31 -2 -24 -55 16 10 -10
5 12 0 6 -19 24 -25 24
1 63 0 70 -3 -19 34 -14
20 -35 2 -19 -8 48 1 14
12 -72 59 18 -27 9 -17 21

model_4/linear_bottleneck_block_58/conv2d_63/Conv2D i1 [96, 1, 1, 96]
00000000: fa04 081b fc15 e4e7 bd0d 29e2 0f32 f003
00000010: 09f2 f604 0806 e309 f8f4 eaff 2e02 81fb
00000020: f014 e3d2 1aa4 eaf1 2003 35f8 0617 e224
00000030: bf1f 0825 f0f8 ec2a 0de3 f91a 25ce 1604
00000040: 3213 0412 e710 02f6 15f6 03e1 2b04 4ff6
00000050: c618 f7b9 ede9 5423 c4f7 0ac8 34e5 e117
00000060: 1e81 e917 1403 02fd 0c18 0709 cd18 2310
00000070: 0dc4 0204 f610 e010 fceb daf3 e60e 0820
00000080: 0b02 e7fc 05fb eade f3fd 150d ea08 08f7
00000090: 0117 20f5 00ee e9d1 0e16 1a10 fcef f703
000000a0: f4fc e2f4 0bf4 fbfc de05 fdfd e6fd 01e4
000000b0: f101 25f4 07fc f2df 1eac ea0c 04f4 2115
000000c0: 3a30 dd16 b2e8 0f56 1710 ec02 53a3 2612
000000d0: fbf9 1eff 04f9 0989 e8f8 f57d 0f46 04d6
000000e0: 136f d90d e4d8 2c09 c1c5 a99c 27ef 0200
000000f0: ef68 29c8 091e f029 f6da 231e 32d2 fd16
-6 4 8 27 -4 21 -28 -25
-67 13 41 -30 15 50 -16 3
9 -14 -10 4 8 6 -29 9
-8 -12 -22 -1 46 2 -127 -5
-16 20 -29 -46 26 -92 -22 -15
32 3 53 -8 6 23 -30 36
-65 31 8 37 -16 -8 -20 42
13 -29 -7 26 37 -50 22 4
50 19 4 18 -25 16 2 -10
21 -10 3 -31 43 4 79 -10
-58 24 -9 -71 -19 -23 84 35
-60 -9 10 -56 52 -27 -31 23
30 -127 -23 23 20 3 2 -3
12 24 7 9 -51 24 35 16
13 -60 2 4 -10 16 -32 16
-4 -21 -38 -13 -26 14 8 32
11 2 -25 -4 5 -5 -22 -34
-13 -3 21 13 -22 8 8 -9
1 23 32 -11 0 -18 -23 -47
14 22 26 16 -4 -17 -9 3
-12 -4 -30 -12 11 -12 -5 -4
-34 5 -3 -3 -26 -3 1 -28
-15 1 37 -12 7 -4 -14 -33
30 -84 -22 12 4 -12 33 21
58 48 -35 22 -78 -24 15 86
23 16 -20 2 83 -93 38 18
-5 -7 30 -1 4 -7 9 -119
-24 -8 -11 125 15 70 4 -42
19 111 -39 13 -28 -40 44 9
-63 -59 -87 -100 39 -17 2 0
-17 104 41 -56 9 30 -16 41
-10 -38 35 30 50 -46 -3 22

model_4/linear_bottleneck_block_58/batch_normalization_179/FusedBatchNormV3;model_4/linear_bottleneck_block_58/depthwise_conv2d_116/depthwise;model_4/linear_bottleneck_block_58/depthwise_conv2d_116/BiasAdd/ReadVariableOp;model_4/linear_bottleneck_block_58/depthwise_conv2d_116/BiasAdd;model_4/linear_bottleneck_block_60/depthwise_conv2d_120/depthwise1 i1 [1, 3, 3, 96]
00000000: 0a10 08e2 e5fe 28eb 090e b40a 1617 f4eb
00000010: c004 2004 05e9 1305 ec03 1200 1024 ce11
00000020: f30f ec14 3ff9 81e8 0836 fefc fe11 201c
00000030: ede7 07f9 31e1 1b15 e4e5 20f0 d2ff f5fd
00000040: dfe8 fd07 0d21 f0f7 2d1b ddf7 02dd fef2
00000050: 0cf9 f804 f0b7 fff5 2315 fd13 144c df06
00000060: d8ef 3a29 be38 f5e0 3c4f 810b d981 0b1e
00000070: 81dd 1220 ee07 62f9 fc18 0b04 e8c1 fe65
00000080: 2e21 5efe 66d0 264f d574 f32a 7ffc 491e
00000090: ff3a 1d05 154c 4ee2 cbc4 dba2 48bf 1a28
000000a0: 6826 f1de 7f7f 3381 7f10 2aa4 1a1e f0e9
000000b0: d0fc 2c2f f6da e40a 8104 decb c87f 5b0f
000000c0: fb14 f8f9 11e9 1cfa 36f6 e2f6 1e03 0f2c
000000d0: 18fd 1601 11f8 fa93 18fa 01e4 ec0f 1de4
000000e0: cff1 662a f928 f2ea 117f 13fb 1209 2a18
000000f0: fd18 ece3 14fd e709 1e59 faf0 09e8 fce6
10 16 8 -30 -27 -2 40 -21
9 14 -76 10 22 23 -12 -21
-64 4 32 4 5 -23 19 5
-20 3 18 0 16 36 -50 17
-13 15 -20 20 63 -7 -127 -24
8 54 -2 -4 -2 17 32 28
-19 -25 7 -7 49 -31 27 21
-28 -27 32 -16 -46 -1 -11 -3
-33 -24 -3 7 13 33 -16 -9
45 27 -35 -9 2 -35 -2 -14
12 -7 -8 4 -16 -73 -1 -11
35 21 -3 19 20 76 -33 6
-40 -17 58 41 -66 56 -11 -32
60 79 -127 11 -39 -127 11 30
-127 -35 18 32 -18 7 98 -7
-4 24 11 4 -24 -63 -2 101
46 33 94 -2 102 -48 38 79
-43 116 -13 42 127 -4 73 30
-1 58 29 5 21 76 78 -30
-53 -60 -37 -94 72 -65 26 40
104 38 -15 -34 127 127 51 -127
127 16 42 -92 26 30 -16 -23
-48 -4 44 47 -10 -38 -28 10
-127 4 -34 -53 -56 127 91 15
-5 20 -8 -7 17 -23 28 -6
54 -10 -30 -10 30 3 15 44
24 -3 22 1 17 -8 -6 -109
24 -6 1 -28 -20 15 29 -28
-49 -15 102 42 -7 40 -14 -22
17 127 19 -5 18 9 42 24
-3 24 -20 -29 20 -3 -25 9
30 89 -6 -16 9 -24 -4 -26

model_4/linear_bottleneck_block_57/batch_normalization_178/FusedBatchNormV3;model_4/linear_bottleneck_block_57/depthwise_conv2d_115/depthwise;model_4/linear_bottleneck_block_57/depthwise_conv2d_115/BiasAdd/ReadVariableOp;model_4/linear_bottleneck_block_57/depthwise_conv2d_115/BiasAdd;model_4/linear_bottleneck_block_60/depthwise_conv2d_120/depthwise i1 [1, 3, 3, 96]
00000000: f30d 18dc 17d8 0f15 bf02 fbed e919 05d5
00000010: 1e00 1b0e fdda 127f 24aa f2fe f2de 0123
00000020: 1efb 1afb f2f0 e5f0 0c01 0c15 0106 5335
00000030: 00df 0205 0a13 23e8 eb47 e7f0 3b0d e7e4
00000040: fd06 1007 f81c ee0a fef3 0009 fee8 f70e
00000050: f622 25e8 1cea f200 2113 0715 22a5 07da
00000060: 27e6 dc7f f381 f17f a6e3 d129 0a22 1ecf
00000070: ea07 50f0 e7f4 0edd 8781 0001 fb8e fdd1
00000080: ff3a 02df 2306 2281 50e5 dd7f 0428 2cba
00000090: f936 09c7 c81f 8f86 06c9 fee9 f620 e6f8
000000a0: e9cd faf5 c570 8ee4 bbd8 02d8 24c8 2320
000000b0: e9e4 7f19 7fd4 04e6 bde3 fbf8 241a bdab
000000c0: ec0c 1b12 fa06 eeff 11ea fcf9 fb01 f0ec
000000d0: 0e10 db0e 1120 9afc 55d9 f118 000e d5f9
000000e0: f3db 0d16 09f2 e0ba f5d5 cd12 fefc 41fd
000000f0: f4f9 e606 0706 35fe ebba 0fdb 02e6 12ef
-13 13 24 -36 23 -40 15 21
-65 2 -5 -19 -23 25 5 -43
30 0 27 14 -3 -38 18 127
36 -86 -14 -2 -14 -34 1 35
30 -5 26 -5 -14 -16 -27 -16
12 1 12 21 1 6 83 53
0 -33 2 5 10 19 35 -24
-21 71 -25 -16 59 13 -25 -28
-3 6 16 7 -8 28 -18 10
-2 -13 0 9 -2 -24 -9 14
-10 34 37 -24 28 -22 -14 0
33 19 7 21 34 -91 7 -38
39 -26 -36 127 -13 -127 -15 127
-90 -29 -47 41 10 34 30 -49
-22 7 80 -16 -25 -12 14 -35
-121 -127 0 1 -5 -114 -3 -47
-1 58 2 -33 35 6 34 -127
80 -27 -35 127 4 40 44 -70
-7 54 9 -57 -56 31 -113 -122
6 -55 -2 -23 -10 32 -26 -8
-23 -51 -6 -11 -59 112 -114 -28
-69 -40 2 -40 36 -56 35 32
-23 -28 127 25 127 -44 4 -26
-67 -29 -5 -8 36 26 -67 -85
-20 12 27 18 -6 6 -18 -1
17 -22 -4 -7 -5 1 -16 -20
14 16 -37 14 17 32 -102 -4
85 -39 -15 24 0 14 -43 -7
-13 -37 13 22 9 -14 -32 -70
-11 -43 -51 18 -2 -4 65 -3
-12 -7 -26 6 7 6 53 -2
-21 -70 15 -37 2 -26 18 -17

model_4/linear_bottleneck_block_57/conv2d_62/Conv2D i1 [96, 1, 1, 96]
00000000: e2ed 7f19 3199 2de2 6bf8 9648 f2fd c8ed
00000010: 04ed e431 d232 a958 f90d ef9c f3e6 1119
00000020: 2aeb 0e70 f608 f5e8 28d1 05b0 e1d6 24f5
00000030: f2d1 23f4 289b fefb 044b 4210 ff0c 050d
00000040: ffe0 fb50 d42e 0410 2588 23e2 3dd6 1e2d
00000050: 2752 e548 2ceb 1df4 19f5 1f0d 0b29 f1e4
00000060: ed20 fb1f 041f 01e6 1236 f618 e2fe 02d8
00000070: 17bd 0d08 090e 1803 fcc5 050d f808 ff03
00000080: 11f2 0214 07e4 f7f6 e2f4 fb16 0103 f57f
00000090: 1a04 effc 13f1 f5fd 1111 0bf5 fffc fef7
000000a0: c1fd dd2c 08fd 0210 14f0 ff0a 11c3 04e6
000000b0: 00fd ffbf 06fb d700 f70f b707 eb2f 0823
000000c0: 2ef6 fe17 d905 07f3 d231 d723 17f2 2034
000000d0: 07d4 2316 0cf8 0717 e909 3719 08dc f700
000000e0: d3f1 e481 02f6 03f1 3002 ebe9 eaf9 c510
000000f0: 0d08 16e6 f875 0f0c f8f0 20f4 f607 eb2a
-30 -19 127 25 49 -103 45 -30
107 -8 -106 72 -14 -3 -56 -19
4 -19 -28 49 -46 50 -87 88
-7 13 -17 -100 -13 -26 17 25
42 -21 14 112 -10 8 -11 -24
40 -47 5 -80 -31 -42 36 -11
-14 -47 35 -12 40 -101 -2 -5
4 75 66 16 -1 12 5 13
-1 -32 -5 80 -44 46 4 16
37 -120 35 -30 61 -42 30 45
39 82 -27 72 44 -21 29 -12
25 -11 31 13 11 41 -15 -28
-19 32 -5 31 4 31 1 -26
18 54 -10 24 -30 -2 2 -40
23 -67 13 8 9 14 24 3
-4 -59 5 13 -8 8 -1 3
17 -14 2 20 7 -28 -9 -10
-30 -12 -5 22 1 3 -11 127
26 4 -17 -4 19 -15 -11 -3
17 17 11 -11 -1 -4 -2 -9
-63 -3 -35 44 8 -3 2 16
20 -16 -1 10 17 -61 4 -26
0 -3 -1 -65 6 -5 -41 0
-9 15 -73 7 -21 47 8 35
46 -10 -2 23 -39 5 7 -13
-46 49 -41 35 23 -14 32 52
7 -44 35 22 12 -8 7 23
-23 9 55 25 8 -36 -9 0
-45 -15 -28 -127 2 -10 3 -15
48 2 -21 -23 -22 -7 -59 16
13 8 22 -26 -8 117 15 12
-8 -16 32 -12 -10 7 -21 42

model_4/linear_bottleneck_block_57/batch_normalization_176/FusedBatchNormV3;model_4/linear_bottleneck_block_57/depthwise_conv2d_114/depthwise;model_4/linear_bottleneck_block_57/depthwise_conv2d_114/BiasAdd/ReadVariableOp;model_4/linear_bottleneck_block_57/depthwise_conv2d_114/BiasAdd;model_4/linear_bottleneck_block_60/depthwise_conv2d_120/depthwise1 i1 [1, 3, 3, 96]
00000000: 0205 fcdc 12dd eed3 f7f0 03fd f11f 3204
00000010: 1fe6 0510 e7ee 1801 fe2c 07f4 edd7 f11c
00000020: fde7 130e 0918 a611 ea07 f2e2 1a09 e8f8
00000030: e8ef 1318 5eed e8f6 fb0b c205 7f41 1b02
00000040: edee 08ff edde 1107 0100 0a3f fc09 1468
00000050: 9201 ef00 3119 0e7f 2ae1 d1f0 7608 1203
00000060: e461 e5d4 29af 01c2 f940 e4f8 19f7 ffe9
00000070: d74c 31fd 76c5 3336 be23 0595 220d 2573
00000080: 24f4 7df5 1744 81df e6e4 d646 3337 f6fc
00000090: 3225 43b0 7f3b 17fb f9fd d300 7104 2905
000000a0: 751b f5fe 9000 8630 f8f6 e6ae 81f1 ebe0
000000b0: 81e0 cb1a 2c33 3307 281e d00c 7ffa 06f1
000000c0: ea14 f723 21f6 dff0 fd03 0509 e1f7 020f
000000d0: 13df f014 260a f300 c6fe 0bb0 0ecf f427
000000e0: 0cd3 6210 fd13 f409 f4fb 1016 efd8 c1df
000000f0: cce3 ef02 73f5 f4f5 3ae8 03f3 c4e9 e21a
2 5 -4 -36 18 -35 -18 -45
-9 -16 3 -3 -15 31 50 4
31 -26 5 16 -25 -18 24 1
-2 44 7 -12 -19 -41 -15 28
-3 -25 19 14 9 24 -90 17
-22 7 -14 -30 26 9 -24 -8
-24 -17 19 24 94 -19 -24 -10
-5 11 -62 5 127 65 27 2
-19 -18 8 -1 -19 -34 17 7
1 0 10 63 -4 9 20 104
-110 1 -17 0 49 25 14 127
42 -31 -47 -16 118 8 18 3
-28 97 -27 -44 41 -81 1 -62
-7 64 -28 -8 25 -9 -1 -23
-41 76 49 -3 118 -59 51 54
-66 35 5 -107 34 13 37 115
36 -12 125 -11 23 68 -127 -33
-26 -28 -42 70 51 55 -10 -4
50 37 67 -80 127 59 23 -5
-7 -3 -45 0 113 4 41 5
117 27 -11 -2 -112 0 -122 48
-8 -10 -26 -82 -127 -15 -21 -32
-127 -32 -53 26 44 51 51 7
40 30 -48 12 127 -6 6 -15
-22 20 -9 35 33 -10 -33 -16
-3 3 5 9 -31 -9 2 15
19 -33 -16 20 38 10 -13 0
-58 -2 11 -80 14 -49 -12 39
12 -45 98 16 -3 19 -12 9
-12 -5 16 22 -17 -40 -63 -33
-52 -29 -17 2 115 -11 -12 -11
58 -24 3 -13 -60 -23 -30 26

model_4/linear_bottleneck_block_56/batch_normalization_175/FusedBatchNormV3;model_4/linear_bottleneck_block_56/depthwise_conv2d_113/depthwise;model_4/linear_bottleneck_block_56/depthwise_conv2d_113/BiasAdd/ReadVariableOp;model_4/linear_bottleneck_block_56/depthwise_conv2d_113/BiasAdd;model_4/linear_bottleneck_block_60/depthwise_conv2d_120/depthwise i1 [1, 3, 3, 96]
00000000: d21c f30a f7e9 c612 0e10 050b 0e08 1309
00000010: 2ff9 e304 11fa 132c 24eb 211f 1ddb 362b
00000020: da98 00fa fbf3 d10e 0f0a fd0d f3f4 faec
00000030: e0ee 0517 b7ff fb0a f4fe 0517 11f4 d103
00000040: f0f0 f5fa f802 fc00 e4f9 47d2 e2ef fcf9
00000050: f7f0 0d02 0ef4 f30b 0902 e543 1f0d 10fd
00000060: edc1 12dd 142c 7f7f e632 0602 d2ee 7ffc
00000070: b831 4003 1f08 e52f 3050 efc9 c19e f568
00000080: 7f13 1913 1855 e7db d1eb 01c8 f853 f215
00000090: b7fe d332 1700 9205 f3ef f0f9 cea2 9fd9
000000a0: cfee 0ad4 ebd2 0fd2 acd8 81c6 0aed 81d2
000000b0: a0fe 0916 daf6 47f2 81f3 ed81 39e7 811a
000000c0: f813 fdeb f8d1 112f f6eb fff9 e9f8 9c0a
000000d0: 93f1 02f9 0704 f3ab f05a fdee 01e6 fcf7
000000e0: 0483 feff eeed 4404 1fff ea14 e6f8 561d
000000f0: e69c f5d4 fc00 eef0 ff13 07fd e52f 7f03
-46 28 -13 10 -9 -23 -58 18
14 16 5 11 14 8 19 9
47 -7 -29 4 17 -6 19 44
36 -21 33 31 29 -37 54 43
-38 -104 0 -6 -5 -13 -47 14
15 10 -3 13 -13 -12 -6 -20
-32 -18 5 23 -73 -1 -5 10
-12 -2 5 23 17 -12 -47 3
-16 -16 -11 -6 -8 2 -4 0
-28 -7 71 -46 -30 -17 -4 -7
-9 -16 13 2 14 -12 -13 11
9 2 -27 67 31 13 16 -3
-19 -63 18 -35 20 44 127 127
-26 50 6 2 -46 -18 127 -4
-72 49 64 3 31 8 -27 47
48 80 -17 -55 -63 -98 -11 104
127 19 25 19 24 85 -25 -37
-47 -21 1 -56 -8 83 -14 21
-73 -2 -45 50 23 0 -110 5
-13 -17 -16 -7 -50 -94 -97 -39
-49 -18 10 -44 -21 -46 15 -46
-84 -40 -127 -58 10 -19 -127 -46
-96 -2 9 22 -38 -10 71 -14
-127 -13 -19 -127 57 -25 -127 26
-8 19 -3 -21 -8 -47 17 47
-10 -21 -1 -7 -23 -8 -100 10
-109 -15 2 -7 7 4 -13 -85
-16 90 -3 -18 1 -26 -4 -9
4 -125 -2 -1 -18 -19 68 4
31 -1 -22 20 -26 -8 86 29
-26 -100 -11 -44 -4 0 -18 -16
-1 19 7 -3 -27 47 127 3

model_4/linear_bottleneck_block_56/conv2d_61/Conv2D i1 [96, 1, 1, 24]
00000000: ebff 0421 f6ff 147f 0bcd 6303 d41d f1e4
00000010: fdf6 2eff f30b f708 edfa e4de 00ed ddc4
00000020: 151f 4145 7fe8 f7e1 2258 ab12 ff00 00e3
00000030: f7fe f9fd 7a0e 28e8 e905 0c21 7f02 0e09
00000040: 1c3e ca41 1ff6 2d00 0ade 231d ffee c504
00000050: 2c25 1b6e 25ff 2523 7fec 8133 05f9 030d
00000060: 0314 f715 8f94 2a23 d505 fc1f 8281 e3dc
00000070: 2b23 efcd 0aff d2f7 eb46 d6ef 2302 13ca
00000080: 6c25 bc4a 1acd e53a 7f1f 952b ebfc e75a
00000090: fc16 9817 1505 23e8 0bdd d7dc 04ec b9e8
000000a0: ef0a 071f e27f ef02 21de 0b81 d300 e01f
000000b0: 01f5 2d52 4eff e8cc e85a f218 0d23 0560
000000c0: 0efe 0219 12f1 2510 ead0 06f0 78eb dbfd
000000d0: 3281 0ba3 ed05 fcbd 0fd5 05fb 0ae9 fb06
000000e0: cd00 0027 e9f7 ffb2 5100 c67f fe04 0691
000000f0: 7fe7 03cb f801 09f9 0406 08ff 203f 1af1
-21 -1 4 33 -10 -1 20 127
11 -51 99 3 -44 29 -15 -28
-3 -10 46 -1 -13 11 -9 8
-19 -6 -28 -34 0 -19 -35 -60
21 31 65 69 127 -24 -9 -31
34 88 -85 18 -1 0 0 -29
-9 -2 -7 -3 122 14 40 -24
-23 5 12 33 127 2 14 9
28 62 -54 65 31 -10 45 0
10 -34 35 29 -1 -18 -59 4
44 37 27 110 37 -1 37 35
127 -20 -127 51 5 -7 3 13
3 20 -9 21 -113 -108 42 35
-43 5 -4 31 -126 -127 -29 -36
43 35 -17 -51 10 -1 -46 -9
-21 70 -42 -17 35 2 19 -54
108 37 -68 74 26 -51 -27 58
127 31 -107 43 -21 -4 -25 90
-4 22 -104 23 21 5 35 -24
11 -35 -41 -36 4 -20 -71 -24
-17 10 7 31 -30 127 -17 2
33 -34 11 -127 -45 0 -32 31
1 -11 45 82 78 -1 -24 -52
-24 90 -14 24 13 35 5 96
14 -2 2 25 18 -15 37 16
-22 -48 6 -16 120 -21 -37 -3
50 -127 11 -93 -19 5 -4 -67
15 -43 5 -5 10 -23 -5 6
-51 0 0 39 -23 -9 -1 -78
81 0 -58 127 -2 4 6 -111
127 -25 3 -53 -8 1 9 -7
4 6 8 -1 32 63 26 -15

model_4/linear_bottleneck_block_56/batch_normalization_173/FusedBatchNormV3;model_4/linear_bottleneck_block_56/depthwise_conv2d_112/depthwise;model_4/linear_bottleneck_block_56/depthwise_conv2d_112/BiasAdd/ReadVariableOp;model_4/linear_bottleneck_block_56/depthwise_conv2d_112/BiasAdd1 i1 [1, 3, 3, 24]
00000000: 2b4b 0da6 c5b5 35bd 3131 45c4 70d6 dbaa
00000010: 5157 b3ca d6fb 379a 4d59 8181 8181 6b9d
00000020: 496b 66ce 70a5 b68a 2d50 9481 ac60 5ca4
00000030: 2324 99c7 ddeb 2bcc 4230 2d05 fcd7 db0f
00000040: faf7 d0f9 d5f1 f4ff 446a 29aa 0f64 5999
00000050: 6252 51ab 74a9 b9a6 7f7f adde b9c9 4491
00000060: 7f7f c887 2977 7f81 7f7f 7f81 7f81 8181
00000070: 5958 81aa 817f 7f81 3c35 adc0 1f1d 3dd8
00000080: 3d28 4407 f4da c4e5 eff0 e5f2 c301 15fa
00000090: 283b ecf7 2001 2ed8 331f 29f0 02d8 d412
000000a0: 340b baf5 dffe 23ed 3e5c 04e9 4207 3ac5
000000b0: 4504 3ee2 fbce c202 2106 c519 c6e9 fff7
000000c0: 1c18 14fc 09ff 17e9 2907 1d0c 0cf6 eff4
000000d0: 0106 e1f7 e401 a0f1
43 75 13 -90 -59 -75 53 -67
49 49 69 -60 112 -42 -37 -86
81 87 -77 -54 -42 -5 55 -102
77 89 -127 -127 -127 -127 107 -99
73 107 102 -50 112 -91 -74 -118
45 80 -108 -127 -84 96 92 -92
35 36 -103 -57 -35 -21 43 -52
66 48 45 5 -4 -41 -37 15
-6 -9 -48 -7 -43 -15 -12 -1
68 106 41 -86 15 100 89 -103
98 82 81 -85 116 -87 -71 -90
127 127 -83 -34 -71 -55 68 -111
127 127 -56 -121 41 119 127 -127
127 127 127 -127 127 -127 -127 -127
89 88 -127 -86 -127 127 127 -127
60 53 -83 -64 31 29 61 -40
61 40 68 7 -12 -38 -60 -27
-17 -16 -27 -14 -61 1 21 -6
40 59 -20 -9 32 1 46 -40
51 31 41 -16 2 -40 -44 18
52 11 -70 -11 -33 -2 35 -19
62 92 4 -23 66 7 58 -59
69 4 62 -30 -5 -50 -62 2
33 6 -59 25 -58 -23 -1 -9
28 24 20 -4 9 -1 23 -23
41 7 29 12 12 -10 -17 -12
1 6 -31 -9 -28 1 -96 -15
