etinynet_int8.tflite (tflite, 697464 bytes, 47 tensors)

model/dense/MatMul i1 [200, 384] scale=0.0061187167 zero_point=0
000000 1d fd ef 37 23 d4 e8 d1 f5 f2 34 15 f8 ed 29 21
       0.17744279 -0.01835615 -0.10401818 0.3365294 0.21415508 -0.26922354 -0.1468492 -0.2875797 -0.067305885 -0.08566204 0.31817326 0.12849306 -0.048949733 -0.11625562 0.2508674 0.20191765
000010 0e cc f2 0c e6 1f d5 da cd 01 f5 fd 07 fe e9 16
       0.08566204 -0.31817326 -0.08566204 0.0734246 -0.15908663 0.18968022 -0.26310483 -0.23251124 -0.31205454 0.0061187167 -0.067305885 -0.01835615 0.04283102 -0.012237433 -0.14073049 0.13461177
000020 27 ef d4 0e 41 12 f1 30 15 e0 21 db 12 06 36 09
       0.23862995 -0.10401818 -0.26922354 0.08566204 0.39771658 0.1101369 -0.09178075 0.2936984 0.12849306 -0.19579893 0.20191765 -0.22639252 0.1101369 0.0367123 0.3304107 0.05506845
000030 43 f5 5c e1 f9 db 09 03 d3 40 e1 ec 1d d9 f3 e4
       0.409954 -0.067305885 0.56292194 -0.18968022 -0.04283102 -0.22639252 0.05506845 0.01835615 -0.27534226 0.39159787 -0.18968022 -0.12237433 0.17744279 -0.23862995 -0.079543315 -0.17132407
000040 e9 27 31 f5 fc 00 19 ee c6 3b cf 39 03 ec 00 c9
       -0.14073049 0.23862995 0.29981712 -0.067305885 -0.024474867 0.0 0.15296791 -0.1101369 -0.35488558 0.3610043 -0.29981712 0.34876686 0.01835615 -0.12237433 0.0 -0.3365294
000050 18 29 0b 24 24 33 13 42 04 f6 ff e3 e0 d4 f1 f7
       0.1468492 0.2508674 0.067305885 0.2202738 0.2202738 0.31205454 0.11625562 0.4038353 0.024474867 -0.061187167 -0.0061187167 -0.17744279 -0.19579893 -0.26922354 -0.09178075 -0.05506845
000060 f1 12 db 05 de f8 ea 36 d5 f4 e4 f8 dc 35 04 1a
       -0.09178075 0.1101369 -0.22639252 0.030593583 -0.20803636 -0.048949733 -0.13461177 0.3304107 -0.26310483 -0.0734246 -0.17132407 -0.048949733 -0.2202738 0.32429197 0.024474867 0.15908663
000070 30 e6 0a e7 fe 16 d9 ec 22 da f1 e6 d1 00 3b fc
       0.2936984 -0.15908663 0.061187167 -0.15296791 -0.012237433 0.13461177 -0.23862995 -0.12237433 0.20803636 -0.23251124 -0.09178075 -0.15908663 -0.2875797 0.0 0.3610043 -0.024474867
000080 eb 08 fb 11 10 e8 09 f8 f3 f5 f7 e8 e7 dd ca d5
       -0.12849306 0.048949733 -0.030593583 0.10401818 0.09789947 -0.1468492 0.05506845 -0.048949733 -0.079543315 -0.067305885 -0.05506845 -0.1468492 -0.15296791 -0.21415508 -0.3304107 -0.26310483
000090 d9 2e 48 fc 02 d3 da 40 3c ef e0 c4 03 41 cf 16
       -0.23862995 0.28146097 0.4405476 -0.024474867 0.012237433 -0.27534226 -0.23251124 0.39159787 0.367123 -0.10401818 -0.19579893 -0.367123 0.01835615 0.39771658 -0.29981712 0.13461177
0000a0 e4 09 e1 d3 1e 2c dd fc ff 1b ea f2 30 db e0 d3
       -0.17132407 0.05506845 -0.18968022 -0.27534226 0.1835615 0.26922354 -0.21415508 -0.024474867 -0.0061187167 0.16520534 -0.13461177 -0.08566204 0.2936984 -0.22639252 -0.19579893 -0.27534226
0000b0 1d cf 2e 2a ef 20 3e dc 00 f6 09 ee 08 05 df de
       0.17744279 -0.29981712 0.28146097 0.2569861 -0.10401818 0.19579893 0.37936044 -0.2202738 0.0 -0.061187167 0.05506845 -0.1101369 0.048949733 0.030593583 -0.20191765 -0.20803636
0000c0 0f 00 e1 fa 3a e9 4b e1 f5 d9 f0 32 06 1b e0 eb
       0.09178075 0.0 -0.18968022 -0.0367123 0.35488558 -0.14073049 0.45890376 -0.18968022 -0.067305885 -0.23862995 -0.09789947 0.30593583 0.0367123 0.16520534 -0.19579893 -0.12849306
0000d0 43 00 ee ef 00 e1 27 ca 5a c2 fc 1e e8 c2 08 19
       0.409954 0.0 -0.1101369 -0.10401818 0.0 -0.18968022 0.23862995 -0.3304107 0.5506845 -0.37936044 -0.024474867 0.1835615 -0.1468492 -0.37936044 0.048949733 0.15296791
0000e0 dd eb 28 e2 da 23 ea da ec f1 1f 4f 02 c3 d5 1d
       -0.21415508 -0.12849306 0.24474867 -0.1835615 -0.23251124 0.21415508 -0.13461177 -0.23251124 -0.12237433 -0.09178075 0.18968022 0.48337862 0.012237433 -0.37324172 -0.26310483 0.17744279
0000f0 02 26 47 cb ec de ff fc f4 f8 25 ca 08 d6 f7 34
       0.012237433 0.23251124 0.43442887 -0.32429197 -0.12237433 -0.20803636 -0.0061187167 -0.024474867 -0.0734246 -0.048949733 0.22639252 -0.3304107 0.048949733 -0.2569861 -0.05506845 0.31817326

model/dense_linear_bottleneck_block_5/sequential_2/conv2d_17/Conv2D i1 [384, 1, 1, 192]
000000 d5 2b 0c eb 17 e8 2a 1e 00 26 70 f4 fe 2b bc e3
       -43 43 12 -21 23 -24 42 30 0 38 112 -12 -2 43 -68 -29
000010 e8 26 e5 00 d3 fc 0f ed 02 16 45 12 e7 3b c7 8d
       -24 38 -27 0 -45 -4 15 -19 2 22 69 18 -25 59 -57 -115
000020 cf 1c ee 2a 06 23 e6 1d 07 f7 14 42 f2 0c d9 2c
       -49 28 -18 42 6 35 -26 29 7 -9 20 66 -14 12 -39 44
000030 0a 3b 5c d9 4d fc be fd 3e 1b 26 ba 14 d1 15 d9
       10 59 92 -39 77 -4 -66 -3 62 27 38 -70 20 -47 21 -39
000040 c1 f8 ed 01 f7 0f dc de 0d c7 e2 f3 e5 0b db ed
       -63 -8 -19 1 -9 15 -36 -34 13 -57 -30 -13 -27 11 -37 -19
000050 2b fa 00 56 e5 fb e6 37 01 1b e6 b1 f7 2f 00 ee
       43 -6 0 86 -27 -5 -26 55 1 27 -26 -79 -9 47 0 -18
000060 e1 3a e9 07 f9 81 21 18 01 c7 bb f3 15 e3 50 10
       -31 58 -23 7 -7 -127 33 24 1 -57 -69 -13 21 -29 80 16
000070 f5 1a e5 c9 37 df 46 03 fe 12 2f 12 d7 5a f2 b9
       -11 26 -27 -55 55 -33 70 3 -2 18 47 18 -41 90 -14 -71
000080 da e2 0b 2a 58 ff 26 cd e1 cb 0e 07 42 f7 3a 19
       -38 -30 11 42 88 -1 38 -51 -31 -53 14 7 66 -9 58 25
000090 be c2 02 b4 19 c7 f0 15 57 03 0c d3 f2 ff ef e3
       -66 -62 2 -76 25 -57 -16 21 87 3 12 -45 -14 -1 -17 -29
0000a0 fb 0e 01 df fa fe 15 28 09 fa 2a 1d ff d2 18 09
       -5 14 1 -33 -6 -2 21 40 9 -6 42 29 -1 -46 24 9
0000b0 e1 04 fb 1d 0a 29 cd e9 17 3b fb 22 d9 16 ce 10
       -31 4 -5 29 10 41 -51 -23 23 59 -5 34 -39 22 -50 16
0000c0 32 1a d3 57 ae f4 e6 10 06 19 1a 12 17 1c e4 1c
       50 26 -45 87 -82 -12 -26 16 6 25 26 18 23 28 -28 28
0000d0 fa d9 13 d8 07 f0 22 e5 05 a0 35 e7 13 d4 01 da
       -6 -39 19 -40 7 -16 34 -27 5 -96 53 -25 19 -44 1 -38
0000e0 0a ef 01 3f e3 cc f7 ff f3 f9 04 bd 05 0a df ef
       10 -17 1 63 -29 -52 -9 -1 -13 -7 4 -67 5 10 -33 -17
0000f0 05 c7 41 d5 f2 12 de fd 18 e3 12 23 30 e6 22 45
       5 -57 65 -43 -14 18 -34 -3 24 -29 18 35 48 -26 34 69

model/dense_linear_bottleneck_block_5/batch_normalization_44/FusedBatchNormV3;model/dense_linear_bottleneck_block_5/depthwise_conv2d_27/depthwise;model/dense_linear_bottleneck_block_5/depthwise_conv2d_27/BiasAdd/ReadVariableOp;model/dense_linear_bottleneck_block_5/depthwise_conv2d_27/BiasAdd;model/dense_linear_bottleneck_block_5/sequential_2/conv2d_17/Conv2D1 i1 [1, 3, 3, 384]
000000 85 87 7f 81 df 81 a9 88 bb 81 ad 4a 65 85 9a 7f
       -123 -121 127 -127 -33 -127 -87 -120 -69 -127 -83 74 101 -123 -102 127
000010 93 f1 b0 d1 7f 8b c5 81 9a 99 a8 8d 8b 81 6a 4a
       -109 -15 -80 -47 127 -117 -59 -127 -102 -103 -88 -115 -117 -127 106 74
000020 81 7f 7c 7f 85 81 51 81 aa 77 9a 88 7f 8d df 81
       -127 127 124 127 -123 -127 81 -127 -86 119 -102 -120 127 -115 -33 -127
000030 4f 5e 47 7f f0 4d 81 b1 8e 84 81 87 81 97 2d c7
       79 94 71 127 -16 77 -127 -79 -114 -124 -127 -121 -127 -105 45 -57
000040 5b 98 1e 62 84 b6 da a6 b1 f7 89 26 d6 fc 5e 81
       91 -104 30 98 -124 -74 -38 -90 -79 -9 -119 38 -42 -4 94 -127
000050 97 90 9c 0d 7f 6d 69 88 a5 81 00 bf 1b 97 a5 81
       -105 -112 -100 13 127 109 105 -120 -91 -127 0 -65 27 -105 -91 -127
000060 c3 61 81 8f 81 af 9f 9f b0 92 90 2e 1a 9b da 76
       -61 97 -127 -113 -127 -81 -97 -97 -80 -110 -112 46 26 -101 -38 118
000070 a1 98 6d 4a 83 b9 0e 2d 81 81 96 a8 c0 67 fe ac
       -95 -104 109 74 -125 -71 14 45 -127 -127 -106 -88 -64 103 -2 -84
000080 83 89 55 8c 8d 33 5d 8c 81 8c a2 88 81 a8 81 6a
       -125 -119 85 -116 -115 51 93 -116 -127 -116 -94 -120 -127 -88 -127 106
000090 1c 9b 7f c2 81 93 81 7f 82 f1 50 c4 81 73 8a 0c
       28 -101 127 -62 -127 -109 -127 127 -126 -15 80 -60 -127 115 -118 12
0000a0 da 15 60 e4 1b 2e f5 9e 76 b4 b8 f8 8f 81 11 20
       -38 21 96 -28 27 46 -11 -98 118 -76 -72 -8 -113 -127 17 32
0000b0 7f 4b a7 a2 81 c8 d5 7f f6 ac 4b d6 c0 a9 5c 72
       127 75 -89 -94 -127 -56 -43 127 -10 -84 75 -42 -64 -87 92 114
0000c0 10 14 7f 81 a4 a3 7f fb b4 35 92 a3 a9 76 44 87
       16 20 127 -127 -92 -93 127 -5 -76 53 -110 -93 -87 118 68 -121
0000d0 8f 7f 9f 8f f2 8b 09 81 a7 6d cb 24 9f 81 b2 5f
       -113 127 -97 -113 -14 -117 9 -127 -89 109 -53 36 -97 -127 -78 95
0000e0 f8 7f a6 b2 c6 a4 8e 64 81 a5 95 86 b9 99 ef a9
       -8 127 -90 -78 -58 -92 -114 100 -127 -91 -107 -122 -71 -103 -17 -87
0000f0 81 5d 81 84 7a 10 af 7f 91 8c 67 fc 62 8d 9d 8f
       -127 93 -127 -124 122 16 -81 127 -111 -116 103 -4 98 -115 -99 -113

model/dense_linear_bottleneck_block_5/conv2d_16/Conv2D i1 [384, 1, 1, 192]
000000 d0 22 29 33 43 11 0c 46 49 e2 eb c7 b1 3a 4d 3b
       -48 34 41 51 67 17 12 70 73 -30 -21 -57 -79 58 77 59
000010 b9 e4 ac e1 f4 10 0a 9e 03 14 1f 1f 2b 08 54 2a
       -71 -28 -84 -31 -12 16 10 -98 3 20 31 31 43 8 84 42
000020 62 e5 ce b4 fe 12 c5 df 3b f5 de 2c 2a 15 18 24
       98 -27 -50 -76 -2 18 -59 -33 59 -11 -34 44 42 21 24 36
000030 2a 25 17 0f 11 16 c2 35 f9 d0 b8 c0 f0 c7 e2 07
       42 37 23 15 17 22 -62 53 -7 -48 -72 -64 -16 -57 -30 7
000040 29 bd fd 46 31 05 4c 1a 17 dc e9 fd f0 e5 e2 09
       41 -67 -3 70 49 5 76 26 23 -36 -23 -3 -16 -27 -30 9
000050 e9 61 ed 46 9a de c7 12 b4 04 cb 06 cb 35 d2 e9
       -23 97 -19 70 -102 -34 -57 18 -76 4 -53 6 -53 53 -46 -23
000060 13 29 0e 27 f6 28 cf f0 0c 1b 16 f8 df a6 e2 c6
       19 41 14 39 -10 40 -49 -16 12 27 22 -8 -33 -90 -30 -58
000070 d6 f0 ca cf db bb b3 9e df e9 25 f5 39 f3 01 ab
       -42 -16 -54 -49 -37 -69 -77 -98 -33 -23 37 -11 57 -13 1 -85
000080 e5 f1 e8 a0 dd f4 14 e4 d9 2d fb c4 c0 fa 25 23
       -27 -15 -24 -96 -35 -12 20 -28 -39 45 -5 -60 -64 -6 37 35
000090 8b e5 9a 30 25 ee 37 0c 48 f6 2a 09 34 81 da 71
       -117 -27 -102 48 37 -18 55 12 72 -10 42 9 52 -127 -38 113
0000a0 11 17 df 3d 51 42 fd fa cc 1e b9 02 28 c2 d6 27
       17 23 -33 61 81 66 -3 -6 -52 30 -71 2 40 -62 -42 39
0000b0 24 14 f6 1e de ff 0b 20 0a 2c 0f 0c 3d d5 fa 0d
       36 20 -10 30 -34 -1 11 32 10 44 15 12 61 -43 -6 13
0000c0 08 03 2e 23 39 f0 03 ff 12 16 01 1b 1c da 32 ed
       8 3 46 35 57 -16 3 -1 18 22 1 27 28 -38 50 -19
0000d0 01 31 10 81 2b 09 00 53 34 11 00 c4 d0 f1 ec ea
       1 49 16 -127 43 9 0 83 52 17 0 -60 -48 -15 -20 -22
0000e0 1f e9 07 17 02 37 2c cb 20 1f 12 10 fd 0b fd eb
       31 -23 7 23 2 55 44 -53 32 31 18 16 -3 11 -3 -21
0000f0 eb 03 c4 0d 03 f6 fe 26 fa 1e ce f1 32 08 ea 17
       -21 3 -60 13 3 -10 -2 38 -6 30 -50 -15 50 8 -22 23

model/dense_linear_bottleneck_block_5/batch_normalization_42/FusedBatchNormV3;model/dense_linear_bottleneck_block_5/depthwise_conv2d_26/depthwise;model/dense_linear_bottleneck_block_5/depthwise_conv2d_26/BiasAdd/ReadVariableOp;model/dense_linear_bottleneck_block_5/depthwise_conv2d_26/BiasAdd1 i1 [1, 3, 3, 192]
000000 d8 ea 10 bb 22 e7 81 7f c3 5c 21 67 e5 81 14 f6
       -40 -22 16 -69 34 -25 -127 127 -61 92 33 103 -27 -127 20 -10
000010 2a 71 81 81 a1 63 d6 79 83 81 e1 81 47 81 6f 81
       42 113 -127 -127 -95 99 -42 121 -125 -127 -31 -127 71 -127 111 -127
000020 20 40 5a 20 dc 8e 81 b1 73 c9 7f 81 c5 68 a8 ac
       32 64 90 32 -36 -114 -127 -79 115 -55 127 -127 -59 104 -88 -84
000030 b1 db 61 89 7f d8 8d 22 3f e8 13 e8 89 7f 5a e0
       -79 -37 97 -119 127 -40 -115 34 63 -24 19 -24 -119 127 90 -32
000040 af 1f 14 9a a2 ee cf 29 28 42 46 cb 39 d0 47 81
       -81 31 20 -102 -94 -18 -49 41 40 66 70 -53 57 -48 71 -127
000050 c9 67 ef b4 b7 9c 74 3b 71 c0 71 7f 44 c5 96 c9
       -55 103 -17 -76 -73 -100 116 59 113 -64 113 127 68 -59 -106 -55
000060 bc d3 d1 d9 4c 40 44 4c 3c 27 54 ce 98 87 bd dd
       -68 -45 -47 -39 76 64 68 76 60 39 84 -50 -104 -121 -67 -35
000070 04 d9 f1 66 b9 20 7f 89 e4 f5 be e7 7e 65 b0 e2
       4 -39 -15 102 -71 32 127 -119 -28 -11 -66 -25 126 101 -80 -30
000080 ed 7f b8 38 4b e7 7b 7f 7f 81 bd c7 2f d6 bd 14
       -19 127 -72 56 75 -25 123 127 127 -127 -67 -57 47 -42 -67 20
000090 8e 88 81 be 37 81 42 ef 49 64 17 a0 56 98 2b e0
       -114 -120 -127 -66 55 -127 66 -17 73 100 23 -96 86 -104 43 -32
0000a0 86 c1 4d 12 81 7f e8 25 2e 36 3c aa f8 1a c3 81
       -122 -63 77 18 -127 127 -24 37 46 54 60 -86 -8 26 -61 -127
0000b0 9c 01 81 81 08 4a 1b 81 44 dd 81 b4 10 a5 86 92
       -100 1 -127 -127 8 74 27 -127 68 -35 -127 -76 16 -91 -122 -110
0000c0 0c f3 3d 81 e0 b5 ef 4e f8 7f dc 78 30 e2 1a fb
       12 -13 61 -127 -32 -75 -17 78 -8 127 -36 120 48 -30 26 -5
0000d0 15 6b a4 93 81 25 04 63 81 99 e2 bb 01 95 6c a8
       21 107 -92 -109 -127 37 4 99 -127 -103 -30 -69 1 -107 108 -88
0000e0 1e 3c 7f 15 1a 8e b4 88 7f a3 52 9a c7 69 aa 01
       30 60 127 21 26 -114 -76 -120 127 -93 82 -102 -57 105 -86 1
0000f0 c9 eb 77 a1 6a c4 9c 43 1e 12 27 cf 90 6f 43 b3
       -55 -21 119 -95 106 -60 -100 67 30 18 39 -49 -112 111 67 -77

model/dense_linear_bottleneck_block_4/batch_normalization_41/FusedBatchNormV3;model/dense_linear_bottleneck_block_4/depthwise_conv2d_25/depthwise;model/dense_linear_bottleneck_block_4/depthwise_conv2d_25/BiasAdd/ReadVariableOp;model/dense_linear_bottleneck_block_4/depthwise_conv2d_25/BiasAdd;model/dense_linear_bottleneck_block_5/depthwise_conv2d_26/depthwise1 i1 [1, 3, 3, 192]
000000 e8 a7 81 69 88 b3 6d 34 00 c5 20 aa d4 bd 83 90
       -24 -89 -127 105 -120 -77 109 52 0 -59 32 -86 -44 -67 -125 -112
000010 cf 8a 62 92 67 92 ac 81 5f 6d 7e 38 c3 74 79 7f
       -49 -118 98 -110 103 -110 -84 -127 95 109 126 56 -61 116 121 127
000020 c4 ae 81 91 16 81 6d 81 8a 62 7f 5f 7f f8 35 78
       -60 -82 -127 -111 22 -127 109 -127 -118 98 127 95 127 -8 53 120
000030 81 4f 79 3d 99 93 34 60 75 44 cf e1 62 7c 81 7f
       -127 79 121 61 -103 -109 52 96 117 68 -49 -31 98 124 -127 127
000040 c7 3f 0c a9 81 9a 9a 2f 88 63 81 63 d3 96 93 95
       -57 63 12 -87 -127 -102 -102 47 -120 99 -127 99 -45 -106 -109 -107
000050 5b 49 7f e2 7f 76 57 97 7f 0f 4c 48 13 39 81 81
       91 73 127 -30 127 118 87 -105 127 15 76 72 19 57 -127 -127
000060 ef 81 f7 81 4f 7f 03 86 2e 79 33 a5 4f 59 5f 7f
       -17 -127 -9 -127 79 127 3 -122 46 121 51 -91 79 89 95 127
000070 e2 f3 30 49 7f 4f 6c 81 29 5a 7f 6c 81 81 43 5b
       -30 -13 48 73 127 79 108 -127 41 90 127 108 -127 -127 67 91
000080 c4 7f 81 fd 81 a6 7f 74 6c 81 17 89 62 fd 65 38
       -60 127 -127 -3 -127 -90 127 116 108 -127 23 -119 98 -3 101 56
000090 c4 7f 7f 72 7f 6d 83 6b 2b 93 7f 91 7d 6f e3 bd
       -60 127 127 114 127 109 -125 107 43 -109 127 -111 125 111 -29 -67
0000a0 7c fa d8 2f 79 7f 47 ad 7f 16 94 78 43 0d 03 45
       124 -6 -40 47 121 127 71 -83 127 22 -108 120 67 13 3 69
0000b0 7b b4 af cf e8 6b 67 7e 7f de 1b dc 00 b4 81 e5
       123 -76 -81 -49 -24 107 103 126 127 -34 27 -36 0 -76 -127 -27
0000c0 f1 b1 c8 24 cd c1 7f dd 1c a2 38 d0 fb 7f 00 a1
       -15 -79 -56 36 -51 -63 127 -35 28 -94 56 -48 -5 127 0 -95
0000d0 de 9c 7f c2 44 bb 01 be 7f 7f 21 29 a6 0c 65 70
       -34 -100 127 -62 68 -69 1 -66 127 127 33 41 -90 12 101 112
0000e0 dc 17 90 bc 4e cc 3f 9c a6 75 2d 74 53 a5 51 62
       -36 23 -112 -68 78 -52 63 -100 -90 117 45 116 83 -91 81 98
0000f0 a9 2b 41 3d b7 e1 6e 58 4c 7f f9 eb 7d 5c 1d 4b
       -87 43 65 61 -73 -31 110 88 76 127 -7 -21 125 92 29 75

model/dense_linear_bottleneck_block_4/conv2d_15/Conv2D i1 [192, 1, 1, 192]
000000 f1 31 d1 d2 25 fc a2 ee df ca e1 07 f5 27 2c e4
       -15 49 -47 -46 37 -4 -94 -18 -33 -54 -31 7 -11 39 44 -28
000010 ad 0b 25 f8 bb f9 ec cb dd 57 b1 9f 39 d0 45 4c
       -83 11 37 -8 -69 -7 -20 -53 -35 87 -79 -97 57 -48 69 76
000020 28 c6 31 08 08 87 fc 38 3b eb ff 04 16 02 f4 b3
       40 -58 49 8 8 -121 -4 56 59 -21 -1 4 22 2 -12 -77
000030 fa b5 e5 d7 0a 04 4b 38 fd 18 cb cb 0e 34 f8 de
       -6 -75 -27 -41 10 4 75 56 -3 24 -53 -53 14 52 -8 -34
000040 11 3c c0 e6 b2 c4 ac 0a ff 00 21 88 10 b9 a8 d4
       17 60 -64 -26 -78 -60 -84 10 -1 0 33 -120 16 -71 -88 -44
000050 13 b9 3f fd 35 51 e6 01 f8 d0 43 f2 b1 f5 08 fe
       19 -71 63 -3 53 81 -26 1 -8 -48 67 -14 -79 -11 8 -2
000060 e9 e5 30 74 c5 d0 ea 1e fa 03 f6 d2 01 ed e4 ed
       -23 -27 48 116 -59 -48 -22 30 -6 3 -10 -46 1 -19 -28 -19
000070 14 23 e8 02 10 01 32 b5 df 01 f0 4c c5 03 cb 78
       20 35 -24 2 16 1 50 -75 -33 1 -16 76 -59 3 -53 120
000080 cc e9 3c 07 0b dc b3 bb 65 dd 41 38 21 fd 02 1b
       -52 -23 60 7 11 -36 -77 -69 101 -35 65 56 33 -3 2 27
000090 ee d5 3c 14 7f fd e5 dc 4a b1 e2 1b 28 16 db ce
       -18 -43 60 20 127 -3 -27 -36 74 -79 -30 27 40 22 -37 -50
0000a0 d1 43 fc 10 d8 a3 ad 22 22 f1 37 90 9b 9c b7 13
       -47 67 -4 16 -40 -93 -83 34 34 -15 55 -112 -101 -100 -73 19
0000b0 b8 a0 9d 5c c6 c1 11 11 0b 2d ec 0f 18 ed d1 1f
       -72 -96 -99 92 -58 -63 17 17 11 45 -20 15 24 -19 -47 31
0000c0 e7 02 0a 2d 01 d1 dc 17 09 f5 df eb 07 13 32 26
       -25 2 10 45 1 -47 -36 23 9 -11 -33 -21 7 19 50 38
0000d0 db 41 f0 f0 27 dd 30 27 15 3d 16 34 04 f4 13 04
       -37 65 -16 -16 39 -35 48 39 21 61 22 52 4 -12 19 4
0000e0 c0 14 09 d2 e4 f5 f2 dd e5 02 da 09 b2 f4 f2 0b
       -64 20 9 -46 -28 -11 -14 -35 -27 2 -38 9 -78 -12 -14 11
0000f0 fb 45 cf 0e f5 e4 f5 1f 17 c4 0c 2e 01 1c 16 13
       -5 69 -49 14 -11 -28 -11 31 23 -60 12 46 1 28 22 19

model/dense_linear_bottleneck_block_4/batch_normalization_39/FusedBatchNormV3;model/dense_linear_bottleneck_block_4/depthwise_conv2d_24/depthwise;model/dense_linear_bottleneck_block_4/depthwise_conv2d_24/BiasAdd/ReadVariableOp;model/dense_linear_bottleneck_block_4/depthwise_conv2d_24/BiasAdd;model/dense_linear_bottleneck_block_5/depthwise_conv2d_26/depthwise1 i1 [1, 3, 3, 192]
000000 11 e4 c7 5d 1c 10 d9 a1 e2 b1 3d db 27 4c dd d9
       17 -28 -57 93 28 16 -39 -95 -30 -79 61 -37 39 76 -35 -39
000010 cb 04 30 3f 32 3f fa d9 6f b7 ad 7f ce ee 81 e3
       -53 4 48 63 50 63 -6 -39 111 -73 -83 127 -50 -18 -127 -29
000020 51 63 ef 46 e9 44 e1 59 c7 d0 88 1c 1b f6 fc 02
       81 99 -17 70 -23 68 -31 89 -57 -48 -120 28 27 -10 -4 2
000030 81 7f c5 b0 b5 f0 42 ca cb e4 43 ee 9d 81 12 81
       -127 127 -59 -80 -75 -16 66 -54 -53 -28 67 -18 -99 -127 18 -127
000040 90 de 49 e8 0b fd cf 4e cb e3 3a ab ff f2 36 3e
       -112 -34 73 -24 11 -3 -49 78 -53 -29 58 -85 -1 -14 54 62
000050 90 9a 8e 8b 1f 28 d7 25 15 6f e2 a7 d8 4f 70 fe
       -112 -102 -114 -117 31 40 -41 37 21 111 -30 -89 -40 79 112 -2
000060 51 8a 5c a8 a0 32 c5 ef ff f5 17 af 5f 4f 4e 47
       81 -118 92 -88 -96 50 -59 -17 -1 -11 23 -81 95 79 78 71
000070 2f 1b eb 6c 44 da bd 7f 81 fe 8a 95 fb 7f ce 0a
       47 27 -21 108 68 -38 -67 127 -127 -2 -118 -107 -5 127 -50 10
000080 81 6a 60 bc 61 31 11 07 7f 26 1c 4f cb ac d8 46
       -127 106 96 -68 97 49 17 7 127 38 28 79 -53 -84 -40 70
000090 5a 47 94 f4 5c 42 af 63 59 12 11 81 44 0f 1a bf
       90 71 -108 -12 92 66 -81 99 89 18 17 -127 68 15 26 -65
0000a0 cf a6 3d 7f 81 82 fd a5 7e e8 25 d5 43 ef 4e 2e
       -49 -90 61 127 -127 -126 -3 -91 126 -24 37 -43 67 -17 78 46
0000b0 3d 4b 60 f0 d5 1a 94 00 15 6c 9a df db e5 be 00
       61 75 96 -16 -43 26 -108 0 21 108 -102 -33 -37 -27 -66 0
0000c0 31 ed 81 4e 62 4d ad 92 b2 91 7f fb d2 73 e8 de
       49 -19 -127 78 98 77 -83 -110 -78 -111 127 -5 -46 115 -24 -34
0000d0 d8 bb 7f 7c 7f 7f 08 f3 3c 81 e2 61 81 81 df b4
       -40 -69 127 124 127 127 8 -13 60 -127 -30 97 -127 -127 -33 -76
0000e0 7f 5e 51 3d 81 3f aa 57 ee f0 df c1 de b5 81 69
       127 94 81 61 -127 63 -86 87 -18 -16 -33 -63 -34 -75 -127 105
0000f0 b1 e4 81 81 c2 dd 7f f0 91 e5 3a 2b 81 98 1a ab
       -79 -28 -127 -127 -62 -35 127 -16 -111 -27 58 43 -127 -104 26 -85

model/dense_linear_bottleneck_block_3/sequential_1/conv2d_14/Conv2D i1 [192, 1, 1, 168]
000000 15 7f b5 f2 d8 08 e9 f5 4c e1 f6 f7 ec df e5 d8
       21 127 -75 -14 -40 8 -23 -11 76 -31 -10 -9 -20 -33 -27 -40
000010 f4 ef f3 ce 96 08 d6 06 10 5b c9 30 d1 df d4 e8
       -12 -17 -13 -50 -106 8 -42 6 16 91 -55 48 -47 -33 -44 -24
000020 1c f9 40 54 17 0e d8 45 dd 2e fd 2a f0 dc 17 fb
       28 -7 64 84 23 14 -40 69 -35 46 -3 42 -16 -36 23 -5
000030 02 a3 07 04 ef cb f7 08 b5 37 d7 b9 08 18 b4 41
       2 -93 7 4 -17 -53 -9 8 -75 55 -41 -71 8 24 -76 65
000040 ef 0e 3e d1 e5 f5 2e e7 b0 10 0e ff b4 26 d8 f8
       -17 14 62 -47 -27 -11 46 -25 -80 16 14 -1 -76 38 -40 -8
000050 32 4e ff f8 29 db d4 f0 d6 28 0c 1e fa 26 27 2e
       50 78 -1 -8 41 -37 -44 -16 -42 40 12 30 -6 38 39 46
000060 0a 11 f7 df f5 ce 15 f7 22 ca e5 f4 38 17 fc 13
       10 17 -9 -33 -11 -50 21 -9 34 -54 -27 -12 56 23 -4 19
000070 32 27 ce ff f7 ee c3 06 d6 d8 e3 e3 06 ee f0 48
       50 39 -50 -1 -9 -18 -61 6 -42 -40 -29 -29 6 -18 -16 72
000080 e6 4c f3 11 18 00 06 eb 0a 08 d6 d5 25 09 e5 d2
       -26 76 -13 17 24 0 6 -21 10 8 -42 -43 37 9 -27 -46
000090 0f 39 49 44 df f0 fb 4c 51 2f 39 0a 16 30 00 ee
       15 57 73 68 -33 -16 -5 76 81 47 57 10 22 48 0 -18
0000a0 29 f1 df fb 04 15 12 07 06 cc 0c c1 f7 d3 31 16
       41 -15 -33 -5 4 21 18 7 6 -52 12 -63 -9 -45 49 22
0000b0 f0 14 f1 ff 60 b4 4f 19 29 0d 15 29 0e 19 c2 d0
       -16 20 -15 -1 96 -76 79 25 41 13 21 41 14 25 -62 -48
0000c0 f0 f9 c9 05 fa e9 15 24 bd 0b 12 cf ed 27 ea 1c
       -16 -7 -55 5 -6 -23 21 36 -67 11 18 -49 -19 39 -22 28
0000d0 c1 ff da c4 35 da fa dd 55 fd 44 02 e7 05 f0 b4
       -63 -1 -38 -60 53 -38 -6 -35 85 -3 68 2 -25 5 -16 -76
0000e0 30 c8 08 0f 1b fb 28 f4 f7 f0 24 05 0f eb e9 0f
       48 -56 8 15 27 -5 40 -12 -9 -16 36 5 15 -21 -23 15
0000f0 cb 1c 08 00 16 d0 f5 1e 08 f5 cf f0 ef e2 f3 c7
       -53 28 8 0 22 -48 -11 30 8 -11 -49 -16 -17 -30 -13 -57

model/dense_linear_bottleneck_block_3/batch_normalization_37/FusedBatchNormV3;model/dense_linear_bottleneck_block_3/depthwise_conv2d_23/depthwise;model/dense_linear_bottleneck_block_3/depthwise_conv2d_23/BiasAdd/ReadVariableOp;model/dense_linear_bottleneck_block_3/depthwise_conv2d_23/BiasAdd;model/dense_linear_bottleneck_block_5/depthwise_conv2d_26/depthwise1 i1 [1, 3, 3, 192]
000000 81 e4 c0 6b 91 ba b8 38 56 b3 12 06 e7 d6 8f 8a
       -127 -28 -64 107 -111 -70 -72 56 86 -77 18 6 -25 -42 -113 -118
000010 52 b0 c2 50 b7 1a a1 9c 86 ef a1 40 a8 81 9a 35
       82 -80 -62 80 -73 26 -95 -100 -122 -17 -95 64 -88 -127 -102 53
000020 fd 9e b0 bb 5b ce 9a 35 13 7f 50 1b f5 58 89 08
       -3 -98 -80 -69 91 -50 -102 53 19 127 80 27 -11 88 -119 8
000030 81 81 a4 a8 b4 c0 81 cb 67 8b 81 6e af 7f 81 ed
       -127 -127 -92 -88 -76 -64 -127 -53 103 -117 -127 110 -81 127 -127 -19
000040 60 fb 50 db 9f 70 c0 6a 62 05 f8 92 b0 7f be 71
       96 -5 80 -37 -97 112 -64 106 98 5 -8 -110 -80 127 -66 113
000050 0a 10 04 35 92 00 9f 98 95 81 f1 c6 81 05 b4 dd
       10 16 4 53 -110 0 -97 -104 -107 -127 -15 -58 -127 5 -76 -35
000060 81 58 a0 60 f9 ab 64 b9 b9 cb 2d 89 5b 2a f9 ae
       -127 88 -96 96 -7 -85 100 -71 -71 -53 45 -119 91 42 -7 -82
000070 32 b2 d8 61 95 b7 ad 63 41 5b 3e f9 e6 77 6d cb
       50 -78 -40 97 -107 -73 -83 99 65 91 62 -7 -26 119 109 -53
000080 a7 40 81 ae 57 be 5f 81 88 9e e2 b7 b2 72 47 81
       -89 64 -127 -82 87 -66 95 -127 -120 -98 -30 -73 -78 114 71 -127
000090 5d 16 9a f6 a0 9a 64 97 21 f6 ab d2 5e 9e ca af
       93 22 -102 -10 -96 -102 100 -105 33 -10 -85 -46 94 -98 -54 -81
0000a0 ee 81 b8 93 7f f1 d0 52 7f be c8 0f 2f 81 4d 68
       -18 -127 -72 -109 127 -15 -48 82 127 -66 -56 15 47 -127 77 104
0000b0 90 81 e9 8e 81 2a 09 52 1e 7f 59 a2 44 d0 f6 d3
       -112 -127 -23 -114 -127 42 9 82 30 127 89 -94 68 -48 -10 -45
0000c0 95 00 de fe 92 d1 39 48 2a f8 50 4d b9 a6 81 a7
       -107 0 -34 -2 -110 -47 57 72 42 -8 80 77 -71 -90 -127 -89
0000d0 60 81 a1 4c af 7f e1 94 e4 c8 d5 30 aa b7 81 fb
       96 -127 -95 76 -81 127 -31 -108 -28 -56 -43 48 -86 -73 -127 -5
0000e0 df d3 4c 97 05 c6 c9 7f cd d2 45 34 fd ed 81 bc
       -33 -45 76 -105 5 -58 -55 127 -51 -46 69 52 -3 -19 -127 -68
0000f0 c6 be ab c6 a2 f1 d2 3b e7 a4 8c 6b 83 4d 1a 02
       -58 -66 -85 -58 -94 -15 -46 59 -25 -92 -116 107 -125 77 26 2

model/dense_linear_bottleneck_block_3/conv2d_13/Conv2D i1 [192, 1, 1, 168]
000000 3a 1e b8 2d c9 18 02 06 c0 81 cf 21 23 f8 3b bd
       58 30 -72 45 -55 24 2 6 -64 -127 -49 33 35 -8 59 -67
000010 28 9d e8 ff 3e 92 06 e3 fa 2b ff 27 d6 09 07 03
       40 -99 -24 -1 62 -110 6 -29 -6 43 -1 39 -42 9 7 3
000020 07 00 cd f9 cc d9 c6 d8 b4 d5 d8 ac 12 f7 1a 04
       7 0 -51 -7 -52 -39 -58 -40 -76 -43 -40 -84 18 -9 26 4
000030 ea 38 3e f1 e0 ce 27 f1 2f e0 b0 1f ca da da 18
       -22 56 62 -15 -32 -50 39 -15 47 -32 -80 31 -54 -38 -38 24
000040 18 4e 23 e5 0f 2c eb bb 1f c5 c8 ff 17 58 23 d5
       24 78 35 -27 15 44 -21 -69 31 -59 -56 -1 23 88 35 -43
000050 f5 17 02 ef e6 d7 1d 29 02 30 2b f1 f6 dd 2f da
       -11 23 2 -17 -26 -41 29 41 2 48 43 -15 -10 -35 47 -38
000060 ef 1e ca db f0 20 ea 26 0c e6 f8 d6 1f e4 3e ce
       -17 30 -54 -37 -16 32 -22 38 12 -26 -8 -42 31 -28 62 -50
000070 06 fe f8 ff fb ef dd 04 21 36 d2 10 d9 1f d5 f5
       6 -2 -8 -1 -5 -17 -35 4 33 54 -46 16 -39 31 -43 -11
000080 03 16 fc f3 e3 e2 f9 fa ef e9 16 c6 fe 3b 4d a0
       3 22 -4 -13 -29 -30 -7 -6 -17 -23 22 -58 -2 59 77 -96
000090 11 0c 40 f3 22 4f 06 0e ae e8 f4 ee 49 33 d1 f5
       17 12 64 -13 34 79 6 14 -82 -24 -12 -18 73 51 -47 -11
0000a0 fb e9 cb 11 0b 12 27 37 62 f2 e2 57 4e 5b 17 b4
       -5 -23 -53 17 11 18 39 55 98 -14 -30 87 78 91 23 -76
0000b0 c9 f5 f1 f7 bc 43 0e ff 20 ed bf b8 65 de 3d 1e
       -55 -11 -15 -9 -68 67 14 -1 32 -19 -65 -72 101 -34 61 30
0000c0 ca 1d 26 3e a5 e1 0c eb 45 36 5f 28 f7 e3 c6 30
       -54 29 38 62 -91 -31 12 -21 69 54 95 40 -9 -29 -58 48
0000d0 0b 1a 06 1e bc f2 cf 11 47 14 f2 b8 05 22 33 1c
       11 26 6 30 -68 -14 -49 17 71 20 -14 -72 5 34 51 28
0000e0 41 e9 e3 42 0b d2 41 10 e7 cd 05 30 90 4c 0e 38
       65 -23 -29 66 11 -46 65 16 -25 -51 5 48 -112 76 14 56
0000f0 01 d1 57 2d 0e 4b 4b 1a 0b 12 da 6e 23 47 08 ed
       1 -47 87 45 14 75 75 26 11 18 -38 110 35 71 8 -19

model/dense_linear_bottleneck_block_3/batch_normalization_35/FusedBatchNormV3;model/dense_linear_bottleneck_block_3/depthwise_conv2d_22/depthwise;model/dense_linear_bottleneck_block_3/depthwise_conv2d_22/BiasAdd/ReadVariableOp;model/dense_linear_bottleneck_block_3/depthwise_conv2d_22/BiasAdd1 i1 [1, 3, 3, 168]
000000 c1 ff 2f 54 a2 81 7c b2 eb 81 10 06 02 64 38 51
       -63 -1 47 84 -94 -127 124 -78 -21 -127 16 6 2 100 56 81
000010 e4 16 6f 7f 22 c6 ad 63 3b 81 fd f9 e1 e3 87 9e
       -28 22 111 127 34 -58 -83 99 59 -127 -3 -7 -31 -29 -121 -98
000020 d8 be 55 be 64 9b 6a 39 0b db 4c 81 0f de e8 03
       -40 -66 85 -66 100 -101 106 57 11 -37 76 -127 15 -34 -24 3
000030 21 e1 d9 05 02 fc 4a b5 a2 22 d4 ed d6 52 59 31
       33 -31 -39 5 2 -4 74 -75 -94 34 -44 -19 -42 82 89 49
000040 a4 89 04 d5 38 ea 09 7f 58 81 30 26 e2 c8 37 9f
       -92 -119 4 -43 56 -22 9 127 88 -127 48 38 -30 -56 55 -97
000050 8e 48 23 42 cf a9 0d da 17 43 07 c3 02 5e 1d 0a
       -114 72 35 66 -49 -87 13 -38 23 67 7 -61 2 94 29 10
000060 3f 72 dd 44 a7 f6 7f f3 df f7 9d 25 11 f6 81 41
       63 114 -35 68 -89 -10 127 -13 -33 -9 -99 37 17 -10 -127 65
000070 fe 0d 92 d9 19 12 14 41 5b 7f d7 f2 af a6 09 32
       -2 13 -110 -39 25 18 20 65 91 127 -41 -14 -81 -90 9 50
000080 fc 30 40 b7 a4 8b 49 d2 2c c1 01 56 fe 1f ff cb
       -4 48 64 -73 -92 -117 73 -46 44 -63 1 86 -2 31 -1 -53
000090 36 d7 a8 44 c2 dc 0d 1b 20 f2 e2 e5 1b fe 0b 7f
       54 -41 -88 68 -62 -36 13 27 32 -14 -30 -27 27 -2 11 127
0000a0 0f e8 0c 18 04 f2 ae e1 8b cb 30 06 87 22 7f 0f
       15 -24 12 24 4 -14 -82 -31 -117 -53 48 6 -121 34 127 15
0000b0 da 97 a1 d7 a7 49 25 7f 25 60 22 e8 5c 81 a6 f4
       -38 -105 -95 -41 -89 73 37 127 37 96 34 -24 92 -127 -90 -12
0000c0 7f c2 1f b9 07 fd 93 81 ad ec 7f ce 7f 0c 38 21
       127 -62 31 -71 7 -3 -109 -127 -83 -20 127 -50 127 12 56 33
0000d0 d1 e9 5f 99 7b 35 23 2e c9 31 81 0b 7f 9e 13 b3
       -47 -23 95 -103 123 53 35 46 -55 49 -127 11 127 -98 19 -77
0000e0 3b 51 ea 11 25 2b 2d 6b dd 81 f7 d2 4d dd 1b a3
       59 81 -22 17 37 43 45 107 -35 -127 -9 -46 77 -35 27 -93
0000f0 7f 9c 22 12 01 63 04 b5 81 7f f6 41 d7 dc be 81
       127 -100 34 18 1 99 4 -75 -127 127 -10 65 -41 -36 -66 -127

model/dense_linear_bottleneck_block_2/batch_normalization_34/FusedBatchNormV3;model/dense_linear_bottleneck_block_2/depthwise_conv2d_21/depthwise;model/dense_linear_bottleneck_block_2/depthwise_conv2d_21/BiasAdd/ReadVariableOp;model/dense_linear_bottleneck_block_2/depthwise_conv2d_21/BiasAdd;model/dense_linear_bottleneck_block_3/depthwise_conv2d_22/depthwise1 i1 [1, 3, 3, 168]
000000 13 1e 7f f4 7d 9b 16 01 28 81 42 17 3d 81 24 42
       19 30 127 -12 125 -101 22 1 40 -127 66 23 61 -127 36 66
000010 04 81 81 97 c1 1e 81 0e 36 4f 44 67 bd 8e 81 7f
       4 -127 -127 -105 -63 30 -127 14 54 79 68 103 -67 -114 -127 127
000020 7f cf e7 0b 7f b8 a0 2b 81 42 81 6f d3 f7 2f c8
       127 -49 -25 11 127 -72 -96 43 -127 66 -127 111 -45 -9 47 -56
000030 f4 b9 1a 27 86 3b 31 8d 58 3b 20 7f a9 cb c4 e4
       -12 -71 26 39 -122 59 49 -115 88 59 32 127 -87 -53 -60 -28
000040 24 37 93 b0 ff 03 6b 70 3d cf 1a b0 ad 86 71 e6
       36 55 -109 -80 -1 3 107 112 61 -49 26 -80 -83 -122 113 -26
000050 38 85 31 8a da 09 08 ba 8a 9f 2d 81 81 81 11 e2
       56 -123 49 -118 -38 9 8 -70 -118 -97 45 -127 -127 -127 17 -30
000060 07 9c 29 9b 81 eb a1 ca 97 1d da a6 a8 ba 35 87
       7 -100 41 -101 -127 -21 -95 -54 -105 29 -38 -90 -88 -70 53 -121
000070 f3 fb b4 a3 17 41 ff 02 99 7f 5c 7f e5 f6 ef 6a
       -13 -5 -76 -93 23 65 -1 2 -103 127 92 127 -27 -10 -17 106
000080 e8 cb be cf d5 f3 95 13 28 2b 52 35 96 42 09 e8
       -24 -53 -66 -49 -43 -13 -107 19 40 43 82 53 -106 66 9 -24
000090 d5 b9 47 53 69 00 bc 54 7f 81 57 cf ab 2c ef 46
       -43 -71 71 83 105 0 -68 84 127 -127 87 -49 -85 44 -17 70
0000a0 86 ae 2e cc 24 a8 f8 ff a1 7f 4b b9 5f 22 7f 10
       -122 -82 46 -52 36 -88 -8 -1 -95 127 75 -71 95 34 127 16
0000b0 46 b6 4d e9 f6 f0 44 56 2f a7 cd ea fa ce da 7f
       70 -74 77 -23 -10 -16 68 86 47 -89 -51 -22 -6 -50 -38 127
0000c0 0b 81 10 7f 95 03 85 3b 58 34 b1 08 66 1d c1 b2
       11 -127 16 127 -107 3 -123 59 88 52 -79 8 102 29 -63 -78
0000d0 ac 27 9f 7f c1 bf 38 40 e0 e1 49 17 8c 3e ec 81
       -84 39 -97 127 -63 -65 56 64 -32 -31 73 23 -116 62 -20 -127
0000e0 5a fe bd 3b 25 de e7 0b 4c 75 d7 81 e3 3a 05 d1
       90 -2 -67 59 37 -34 -25 11 76 117 -41 -127 -29 58 5 -47
0000f0 42 e5 2f 55 42 19 4f 81 4b b4 6a ca cf f5 e6 81
       66 -27 47 85 66 25 79 -127 75 -76 106 -54 -49 -11 -26 -127

model/dense_linear_bottleneck_block_2/conv2d_12/Conv2D i1 [168, 1, 1, 168]
000000 69 ea ea db 33 ad 0e 01 1f f0 04 f7 4d 1b 12 19
       105 -22 -22 -37 51 -83 14 1 31 -16 4 -9 77 27 18 25
000010 2c 09 cc eb 33 d7 08 af d7 17 f6 05 c7 14 14 f9
       44 9 -52 -21 51 -41 8 -81 -41 23 -10 5 -57 20 20 -7
000020 da db ec b2 b1 b6 00 17 07 e7 d7 eb 31 27 f8 d2
       -38 -37 -20 -78 -79 -74 0 23 7 -25 -41 -21 49 39 -8 -46
000030 fa 34 2b cb 41 da b1 20 f5 20 2c 0f 4f e5 d5 e1
       -6 52 43 -53 65 -38 -79 32 -11 32 44 15 79 -27 -43 -31
000040 28 12 dc 09 44 c9 18 2f f2 40 29 f7 fe ab e4 4f
       40 18 -36 9 68 -55 24 47 -14 64 41 -9 -2 -85 -28 79
000050 45 cd 0c 53 d1 9f dc 30 04 89 cc be da f2 ed cb
       69 -51 12 83 -47 -97 -36 48 4 -119 -52 -66 -38 -14 -19 -53
000060 3b 4d 06 fd f8 da 0a 07 56 47 1b 28 0b 1d f1 ff
       59 77 6 -3 -8 -38 10 7 86 71 27 40 11 29 -15 -1
000070 dd c5 06 a6 0c d6 4a ca b3 d4 1a fb d2 fd fc d9
       -35 -59 6 -90 12 -42 74 -54 -77 -44 26 -5 -46 -3 -4 -39
000080 43 37 f0 d3 01 17 e3 0b fd 81 fb 4b 14 e3 12 ec
       67 55 -16 -45 1 23 -29 11 -3 -127 -5 75 20 -29 18 -20
000090 41 07 de 05 10 fa 1a 10 23 f2 00 33 db bc 2f fa
       65 7 -34 5 16 -6 26 16 35 -14 0 51 -37 -68 47 -6
0000a0 c9 df e0 d5 f4 06 4f 29 00 34 07 01 21 d9 05 ef
       -55 -33 -32 -43 -12 6 79 41 0 52 7 1 33 -39 5 -17
0000b0 07 1a 14 b9 af cc 26 44 3f 03 ae ad 28 1a 49 37
       7 26 20 -71 -81 -52 38 68 63 3 -82 -83 40 26 73 55
0000c0 e2 f9 5e f3 6e 28 c9 00 b9 e1 d7 fa ed 01 19 bf
       -30 -7 94 -13 110 40 -55 0 -71 -31 -41 -6 -19 1 25 -65
0000d0 a1 42 1e b5 ff c9 f5 ff f5 f5 30 15 8a dc ee 3e
       -95 66 30 -75 -1 -55 -11 -1 -11 -11 48 21 -118 -36 -18 62
0000e0 b3 2c 12 c7 0f f6 df 38 fd 62 fa f4 7f 2a f8 05
       -77 44 18 -57 15 -10 -33 56 -3 98 -6 -12 127 42 -8 5
0000f0 e6 d6 cd 10 ad d2 2f e0 eb 2e 18 26 1e d5 f9 e9
       -26 -42 -51 16 -83 -46 47 -32 -21 46 24 38 30 -43 -7 -23

model/dense_linear_bottleneck_block_2/batch_normalization_32/FusedBatchNormV3;model/dense_linear_bottleneck_block_2/depthwise_conv2d_20/depthwise;model/dense_linear_bottleneck_block_2/depthwise_conv2d_20/BiasAdd/ReadVariableOp;model/dense_linear_bottleneck_block_2/depthwise_conv2d_20/BiasAdd;model/dense_linear_bottleneck_block_3/depthwise_conv2d_22/depthwise1 i1 [1, 3, 3, 168]
000000 41 33 3f a8 fe f5 ee 3a 0a 83 6d d0 1c 7f 10 16
       65 51 63 -88 -2 -11 -18 58 10 -125 109 -48 28 127 16 22
000010 0e c6 7f 07 98 44 dd 13 ed e8 a2 77 c5 e1 e8 1a
       14 -58 127 7 -104 68 -35 19 -19 -24 -94 119 -59 -31 -24 26
000020 f5 ef 4e b0 e9 4a fa eb ef c1 7f 7a 76 b8 bf e4
       -11 -17 78 -80 -23 74 -6 -21 -17 -63 127 122 118 -72 -65 -28
000030 ae b2 a5 93 e2 5b 24 52 b1 59 78 a1 7f db 04 d0
       -82 -78 -91 -109 -30 91 36 82 -79 89 120 -95 127 -37 4 -48
000040 12 0d d8 d3 e0 7f e1 e0 53 25 37 06 62 1c 8d 68
       18 13 -40 -45 -32 127 -31 -32 83 37 55 6 98 28 -115 104
000050 cc 30 b4 81 cf c8 7f ca 4f 13 78 7d 7f de da d2
       -52 48 -76 -127 -49 -56 127 -54 79 19 120 125 127 -34 -38 -46
000060 d6 a0 4c 11 2c 7f 18 4d 4f e1 11 71 43 a8 81 d3
       -42 -96 76 17 44 127 24 77 79 -31 17 113 67 -88 -127 -45
000070 fa 0f a8 22 1c 30 3f bf 04 fb 1e 12 50 81 00 4a
       -6 15 -88 34 28 48 63 -65 4 -5 30 18 80 -127 0 74
000080 c4 81 7b 1c c5 1a a5 1d c4 63 c8 7f c1 f5 d8 40
       -60 -127 123 28 -59 26 -91 29 -60 99 -56 127 -63 -11 -40 64
000090 32 de 31 81 e6 27 4d 23 67 ff 3f b6 13 35 f1 1c
       50 -34 49 -127 -26 39 77 35 103 -1 63 -74 19 53 -15 28
0000a0 a5 28 e6 9a fc 4d 30 7f 41 7f 16 a5 5c 81 bf 4a
       -91 40 -26 -102 -4 77 48 127 65 127 22 -91 92 -127 -65 74
0000b0 ac 81 12 88 81 19 4f 7f ce be 2b b4 f6 c6 00 26
       -84 -127 18 -120 -127 25 79 127 -50 -66 43 -76 -10 -58 0 38
0000c0 d4 0d 9b 42 ad f6 f5 2f 98 bc f0 c2 5f b0 c6 c6
       -44 13 -101 66 -83 -10 -11 47 -104 -68 -16 -62 95 -80 -58 -58
0000d0 e4 b2 d7 4e 1d db ce 7f 81 05 c2 aa dd 71 2c 2b
       -28 -78 -41 78 29 -37 -50 127 -127 5 -62 -86 -35 113 44 43
0000e0 09 58 f9 81 5e 2c c0 36 7f 7f 81 0a 81 32 0e da
       9 88 -7 -127 94 44 -64 54 127 127 -127 10 -127 50 14 -38
0000f0 02 0d e2 df 1f eb cd 1f 53 45 07 04 ef 4f 53 39
       2 13 -30 -33 31 -21 -51 31 83 69 7 4 -17 79 83 57

model/dense_linear_bottleneck_block_1/batch_normalization_31/FusedBatchNormV3;model/dense_linear_bottleneck_block_1/depthwise_conv2d_19/depthwise;model/dense_linear_bottleneck_block_1/depthwise_conv2d_19/BiasAdd/ReadVariableOp;model/dense_linear_bottleneck_block_1/depthwise_conv2d_19/BiasAdd;model/dense_linear_bottleneck_block_3/depthwise_conv2d_22/depthwise1 i1 [1, 3, 3, 168]
000000 ca a3 17 30 91 b8 11 d2 cb 71 20 d7 bf df 64 68
       -54 -93 23 48 -111 -72 17 -46 -53 113 32 -41 -65 -33 100 104
000010 eb 4a 53 f8 d7 7f 0e 01 d4 81 22 81 a9 d2 26 aa
       -21 74 83 -8 -41 127 14 1 -44 -127 34 -127 -87 -46 38 -86
000020 d4 fd da 3f 4d 18 d4 7f 92 4b c0 04 6a 17 b0 e2
       -44 -3 -38 63 77 24 -44 127 -110 75 -64 4 106 23 -80 -30
000030 81 ba 39 52 af 0a d1 cf 12 81 f8 6c 7f 81 81 86
       -127 -70 57 82 -81 10 -47 -49 18 -127 -8 108 127 -127 -127 -122
000040 f3 3a b8 d5 64 42 46 bb 7f 9b 54 bd 08 b5 f3 da
       -13 58 -72 -43 100 66 70 -69 127 -101 84 -67 8 -75 -13 -38
000050 a6 c5 53 a4 9f df 42 0b a1 2b 41 eb e8 05 ab e2
       -90 -59 83 -92 -97 -33 66 11 -95 43 65 -21 -24 5 -85 -30
000060 29 ed 2d cf dd 74 b8 f6 f8 ca 81 47 45 bc ad cb
       41 -19 45 -49 -35 116 -72 -10 -8 -54 -127 71 69 -68 -83 -53
000070 af 2d 2a eb c9 25 98 fd c8 81 ba b8 26 7f 81 a5
       -81 45 42 -21 -55 37 -104 -3 -56 -127 -70 -72 38 127 -127 -91
000080 ed 81 7f c9 f5 de 2a f2 32 38 81 a0 c0 57 b5 26
       -19 -127 127 -55 -11 -34 42 -14 50 56 -127 -96 -64 87 -75 38
000090 99 81 8a 69 2b 83 81 59 f7 3c 0c fb b1 06 e3 c0
       -103 -127 -118 105 43 -125 -127 89 -9 60 12 -5 -79 6 -29 -64
0000a0 c5 8f 3c 03 54 aa 52 aa fc 9c db 3c 81 0a 36 ce
       -59 -113 60 3 84 -86 82 -86 -4 -100 -37 60 -127 10 54 -50
0000b0 cc 5c 5f cc c3 c3 26 08 15 75 13 fe b6 71 4a 3a
       -52 92 95 -52 -61 -61 38 8 21 117 19 -2 -74 113 74 58
0000c0 ab ca 29 1f ad d8 0c f7 7f 1d fe 21 7f 7f bf 6b
       -85 -54 41 31 -83 -40 12 -9 127 29 -2 33 127 127 -65 107
0000d0 cd 4b 04 50 48 91 a3 e8 c6 bb 81 7f d2 3c 83 c2
       -51 75 4 80 72 -111 -93 -24 -58 -69 -127 127 -46 60 -125 -62
0000e0 c9 c3 53 3c 13 dc c4 81 94 7f ff 00 7f 81 be be
       -55 -61 83 60 19 -36 -60 -127 -108 127 -1 0 127 -127 -66 -66
0000f0 40 81 22 e7 21 f2 12 8f ec c4 90 c4 d9 de 0f a2
       64 -127 34 -25 33 -14 18 -113 -20 -60 -112 -60 -39 -34 15 -94

model/dense_linear_bottleneck_block_1/conv2d_11/Conv2D i1 [168, 1, 1, 168]
000000 ef 1a ce a6 28 f0 e7 d9 07 3b b2 f1 fd 1e be 00
       -17 26 -50 -90 40 -16 -25 -39 7 59 -78 -15 -3 30 -66 0
000010 f1 c5 fd 00 e9 d4 1e 04 d1 76 da 0b 20 de e1 df
       -15 -59 -3 0 -23 -44 30 4 -47 118 -38 11 32 -34 -31 -33
000020 d5 17 1d fa da 1d d5 2e 0d ed 0d f5 1c 09 f8 fe
       -43 23 29 -6 -38 29 -43 46 13 -19 13 -11 28 9 -8 -2
000030 35 27 21 f1 36 38 2b 6c ec 09 e5 fd e7 cd ee 4c
       53 39 33 -15 54 56 43 108 -20 9 -27 -3 -25 -51 -18 76
000040 30 ea 2d b2 0a 47 02 d3 e9 54 b0 3d 01 1f d4 f6
       48 -22 45 -78 10 71 2 -45 -23 84 -80 61 1 31 -44 -10
000050 02 7f f4 09 49 62 ec 23 1a 0f 4b ff d7 d8 f4 fe
       2 127 -12 9 73 98 -20 35 26 15 75 -1 -41 -40 -12 -2
000060 e1 f9 e3 13 46 f8 2a da ee fd b5 e7 2a 3a ef fb
       -31 -7 -29 19 70 -8 42 -38 -18 -3 -75 -25 42 58 -17 -5
000070 24 02 ce fd 24 fe 20 56 f3 dd 0c 00 f1 c2 0f db
       36 2 -50 -3 36 -2 32 86 -13 -35 12 0 -15 -62 15 -37
000080 22 32 29 af 09 f4 5f cf 04 2e 09 46 13 d6 5c 01
       34 50 41 -81 9 -12 95 -49 4 46 9 70 19 -42 92 1
000090 0d 1a 21 12 28 00 e3 f8 1b 02 d6 13 4d f9 02 f2
       13 26 33 18 40 0 -29 -8 27 2 -42 19 77 -7 2 -14
0000a0 fb 34 3e 2a b8 bf 3d d3 cf 7f 13 ee ed e7 fc ef
       -5 52 62 42 -72 -65 61 -45 -49 127 19 -18 -19 -25 -4 -17
0000b0 e7 d5 25 04 01 ee 55 09 0b 2b d3 02 d6 f5 f9 d4
       -25 -43 37 4 1 -18 85 9 11 43 -45 2 -42 -11 -7 -44
0000c0 f4 ff f7 0e 36 14 19 e0 1e 01 3a f2 fc 12 3c f4
       -12 -1 -9 14 54 20 25 -32 30 1 58 -14 -4 18 60 -12
0000d0 e1 f5 02 fc fe 01 17 01 2a c5 15 06 02 fb 1b de
       -31 -11 2 -4 -2 1 23 1 42 -59 21 6 2 -5 27 -34
0000e0 21 3b f7 c3 b2 f5 28 08 0e 23 0d 0d f6 0a f3 ef
       33 59 -9 -61 -78 -11 40 8 14 35 13 13 -10 10 -13 -17
0000f0 0c 94 09 19 0a eb f9 01 f0 14 0b 0f 38 e8 cc e5
       12 -108 9 25 10 -21 -7 1 -16 20 11 15 56 -24 -52 -27

model/dense_linear_bottleneck_block_1/batch_normalization_29/FusedBatchNormV3;model/dense_linear_bottleneck_block_1/depthwise_conv2d_18/depthwise;model/dense_linear_bottleneck_block_1/depthwise_conv2d_18/BiasAdd/ReadVariableOp;model/dense_linear_bottleneck_block_1/depthwise_conv2d_18/BiasAdd;model/dense_linear_bottleneck_block_3/depthwise_conv2d_22/depthwise1 i1 [1, 3, 3, 168]
000000 6e e5 f0 a3 04 07 6c 81 8a 39 73 f6 0b ce 14 9b
       110 -27 -16 -93 4 7 108 -127 -118 57 115 -10 11 -50 20 -101
000010 a1 cc 3a fc 10 15 fb 66 0b 1b 17 8d 5c 86 7f df
       -95 -52 58 -4 16 21 -5 102 11 27 23 -115 92 -122 127 -33
000020 fc 7f 7f c3 f7 d8 6a f2 1c e7 0b 05 64 19 7f 81
       -4 127 127 -61 -9 -40 106 -14 28 -25 11 5 100 25 127 -127
000030 43 b8 63 f0 61 1f 7f 81 8b 1f 09 eb 1f 6a 34 11
       67 -72 99 -16 97 31 127 -127 -117 31 9 -21 31 106 52 17
000040 c6 1f 2d 55 17 fa ea 81 0f 05 bc b0 98 30 e8 dc
       -58 31 45 85 23 -6 -22 -127 15 5 -68 -80 -104 48 -24 -36
000050 d9 76 2e 10 bd 22 2a 0b 22 14 ab f6 e0 c7 10 70
       -39 118 46 16 -67 34 42 11 34 20 -85 -10 -32 -57 16 112
000060 40 22 30 9a b2 e4 81 7f cf e0 1a 63 cd 7f 98 c7
       64 34 48 -102 -78 -28 -127 127 -49 -32 26 99 -51 127 -104 -57
000070 31 c5 92 c5 19 b9 a1 ed 7f 1c c1 56 7f 5f c7 c1
       49 -59 -110 -59 25 -71 -95 -19 127 28 -63 86 127 95 -57 -63
000080 64 cc e3 0a 56 db 70 03 a1 07 b3 15 66 aa 52 d8
       100 -52 -29 10 86 -37 112 3 -95 7 -77 21 102 -86 82 -40
000090 20 49 20 8e bc 81 3b 4b f1 fa 58 e7 95 ec 26 81
       32 73 32 -114 -68 -127 59 75 -15 -6 88 -25 -107 -20 38 -127
0000a0 4e 7f e4 a1 85 c6 3c 28 0b 3b bb 3a 03 31 7f e4
       78 127 -28 -95 -123 -58 60 40 11 59 -69 58 3 49 127 -28
0000b0 81 eb b3 6c 19 ec 7a ac a8 ab 48 15 68 7f ff 7f
       -127 -21 -77 108 25 -20 122 -84 -88 -85 72 21 104 127 -1 127
0000c0 cf 26 d5 de 6f 04 63 37 ab 4d 62 81 d2 af 5b 13
       -49 38 -43 -34 111 4 99 55 -85 77 98 -127 -46 -81 91 19
0000d0 7f 22 7f 27 e3 0b 16 f7 f0 fd e9 0a 1a b1 db a0
       127 34 127 39 -29 11 22 -9 -16 -3 -23 10 26 -79 -37 -96
0000e0 ae 26 e6 4d 7e d4 cd 17 e6 8f 39 d3 ef 81 03 f1
       -82 38 -26 77 126 -44 -51 23 -26 -113 57 -45 -17 -127 3 -15
0000f0 7f 2f 81 29 fc f6 f1 1c fa c3 5d 42 f4 e2 16 50
       127 47 -127 41 -4 -10 -15 28 -6 -61 93 66 -12 -30 22 80

model/dense_linear_bottleneck_block/sequential/conv2d_10/Conv2D i1 [168, 1, 1, 96]
000000 0b 02 2f e3 ed cc 19 f1 1b df 04 11 26 0e d1 06
       11 2 47 -29 -19 -52 25 -15 27 -33 4 17 38 14 -47 6
000010 0b db 0e c1 06 43 b3 0c 57 04 e7 d8 10 f6 c1 f8
       11 -37 14 -63 6 67 -77 12 87 4 -25 -40 16 -10 -63 -8
000020 be 1a 4d 57 e0 e1 a7 d3 10 eb 41 e3 f2 13 51 c9
       -66 26 77 87 -32 -31 -89 -45 16 -21 65 -29 -14 19 81 -55
000030 cd db fd f9 fc fe 57 22 3e 0a 12 f6 7f ca e9 00
       -51 -37 -3 -7 -4 -2 87 34 62 10 18 -10 127 -54 -23 0
000040 ec f1 32 d0 e2 04 c9 2d f3 09 34 c6 ea 02 06 22
       -20 -15 50 -48 -30 4 -55 45 -13 9 52 -58 -22 2 6 34
000050 c8 eb b8 e0 f3 c8 f1 e4 41 7f 10 d2 0c de 02 0a
       -56 -21 -72 -32 -13 -56 -15 -28 65 127 16 -46 12 -34 2 10
000060 ee 7f f6 e9 f2 06 d8 15 08 0e ee f8 ff e4 ef fe
       -18 127 -10 -23 -14 6 -40 21 8 14 -18 -8 -1 -28 -17 -2
000070 02 03 0f ee f3 f7 cf fc dd 12 eb f0 1a 22 07 04
       2 3 15 -18 -13 -9 -49 -4 -35 18 -21 -16 26 34 7 4
000080 f4 f9 cf 27 0e 05 ff f5 0f 09 00 01 01 fb d7 06
       -12 -7 -49 39 14 5 -1 -11 15 9 0 1 1 -5 -41 6
000090 f6 0a f7 ff 04 fb fc f6 f0 f7 f1 e7 0e f0 ef f1
       -10 10 -9 -1 4 -5 -4 -10 -16 -9 -15 -25 14 -16 -17 -15
0000a0 02 f5 f0 09 ef 0b e8 de f9 fb ff f7 f1 24 ce 08
       2 -11 -16 9 -17 11 -24 -34 -7 -5 -1 -9 -15 36 -50 8
0000b0 0a f3 f7 05 16 e8 f7 ee 03 1b fb f7 fe 24 05 04
       10 -13 -9 5 22 -24 -9 -18 3 27 -5 -9 -2 36 5 4
0000c0 c1 21 c2 b6 0c 24 fb 07 df d3 e4 23 23 7c 13 c7
       -63 33 -62 -74 12 36 -5 7 -33 -45 -28 35 35 124 19 -57
0000d0 19 df 13 01 32 11 ce 1e 40 0b 01 ef dd 13 e4 f4
       25 -33 19 1 50 17 -50 30 64 11 1 -17 -35 19 -28 -12
0000e0 26 e6 fe cb cf 13 ea 09 24 03 06 f9 f1 1c ce c1
       38 -26 -2 -53 -49 19 -22 9 36 3 6 -7 -15 28 -50 -63
0000f0 ff f1 0d 07 3a 04 de fc f6 bf 1c f4 ad 0f c2 25
       -1 -15 13 7 58 4 -34 -4 -10 -65 28 -12 -83 15 -62 37

model/dense_linear_bottleneck_block/batch_normalization_27/FusedBatchNormV3;model/dense_linear_bottleneck_block/depthwise_conv2d_17/depthwise;model/dense_linear_bottleneck_block/depthwise_conv2d_17/BiasAdd/ReadVariableOp;model/dense_linear_bottleneck_block/depthwise_conv2d_17/BiasAdd;model/dense_linear_bottleneck_block_3/depthwise_conv2d_22/depthwise1 i1 [1, 3, 3, 168]
000000 e7 c3 81 8f 9e b3 c6 97 81 48 38 17 f4 a6 dd ed
       -25 -61 -127 -113 -98 -77 -58 -105 -127 72 56 23 -12 -90 -35 -19
000010 dd d6 f3 07 18 d3 ba 1f d3 af b6 91 10 92 d2 81
       -35 -42 -13 7 24 -45 -70 31 -45 -81 -74 -111 16 -110 -46 -127
000020 81 09 d7 e1 cc b8 a9 b4 de 81 47 de 7f 81 3a 37
       -127 9 -41 -31 -52 -72 -87 -76 -34 -127 71 -34 127 -127 58 55
000030 b7 1e 81 0d 2f 9d 02 c0 b8 e4 e7 df d6 cc eb 99
       -73 30 -127 13 47 -99 2 -64 -72 -28 -25 -33 -42 -52 -21 -103
000040 c7 f0 7f fe 88 ad 23 06 41 b8 b5 7a 9a 43 4f e5
       -57 -16 127 -2 -120 -83 35 6 65 -72 -75 122 -102 67 79 -27
000050 18 77 4a 48 81 9a 1e 91 e1 21 12 a5 e3 1d d5 81
       24 119 74 72 -127 -102 30 -111 -31 33 18 -91 -29 29 -43 -127
000060 9f de 87 19 f1 7a 9c 0c 14 6a bb d5 02 6d ca 81
       -97 -34 -121 25 -15 122 -100 12 20 106 -69 -43 2 109 -54 -127
000070 68 1c 4f 24 d7 f1 a8 b7 f2 b4 d8 29 2a 07 a9 0f
       104 28 79 36 -41 -15 -88 -73 -14 -76 -40 41 42 7 -87 15
000080 fe 1f 2c 87 ec b9 53 20 90 81 24 b0 38 44 24 8d
       -2 31 44 -121 -20 -71 83 32 -112 -127 36 -80 56 68 36 -115
000090 e9 21 a9 da 20 b8 96 27 a4 26 56 81 ec f0 84 89
       -23 33 -87 -38 32 -72 -106 39 -92 38 86 -127 -20 -16 -124 -119
0000a0 9c 81 99 e2 99 b2 15 e9 d3 2e e6 f1 1a f2 38 9d
       -100 -127 -103 -30 -103 -78 21 -23 -45 46 -26 -15 26 -14 56 -99
0000b0 86 36 00 33 66 a3 df 9d f6 db 4c b6 f1 c2 00 17
       -122 54 0 51 102 -93 -33 -99 -10 -37 76 -74 -15 -62 0 23
0000c0 39 c7 c7 81 ba e9 ce d7 f9 09 c7 dd a7 0a f8 05
       57 -57 -57 -127 -70 -23 -50 -41 -7 9 -57 -35 -89 10 -8 5
0000d0 f1 b5 4f 2f 0a ce 7f f8 cd 18 ba d4 81 b2 d9 0d
       -15 -75 79 47 10 -50 127 -8 -51 24 -70 -44 -127 -78 -39 13
0000e0 53 bc 2b a4 c1 08 27 9b ca d3 21 e9 a0 ab 40 06
       83 -68 43 -92 -63 8 39 -101 -54 -45 33 -23 -96 -85 64 6
0000f0 62 1b c4 34 c8 25 76 1e 5d 81 9e 1e cf f7 72 a6
       98 27 -60 52 -56 37 118 30 93 -127 -98 30 -49 -9 114 -90

model/dense_linear_bottleneck_block/conv2d_9/Conv2D i1 [168, 1, 1, 96]
000000 c1 33 19 e9 19 f5 dc 81 d2 e3 b0 36 ec 05 0a d9
       -63 51 25 -23 25 -11 -36 -127 -46 -29 -80 54 -20 5 10 -39
000010 12 aa 1d 35 f2 3d 0a 0e 32 f2 07 12 c0 0e fc e4
       18 -86 29 53 -14 61 10 14 50 -14 7 18 -64 14 -4 -28
000020 0a f3 2f 5b d4 0d 1c 48 2c f0 0a 30 f8 e4 21 d8
       10 -13 47 91 -44 13 28 72 44 -16 10 48 -8 -28 33 -40
000030 ee 1d fe f0 08 12 d4 be 44 20 e2 17 1d df 4c e6
       -18 29 -2 -16 8 18 -44 -66 68 32 -30 23 29 -33 76 -26
000040 c1 07 e0 24 12 2a ec be ca fd b7 20 1f d5 43 1b
       -63 7 -32 36 18 42 -20 -66 -54 -3 -73 32 31 -43 67 27
000050 15 fe 0d fc 5c 1f 25 fd 41 fe 0d fd 3e dc 12 fa
       21 -2 13 -4 92 31 37 -3 65 -2 13 -3 62 -36 18 -6
000060 01 21 ee 25 19 f8 f6 7f d6 1d 49 fb 06 02 17 08
       1 33 -18 37 25 -8 -10 127 -42 29 73 -5 6 2 23 8
000070 0f fb ee 0f b8 fd e5 34 40 a2 f4 18 0b fb 12 1b
       15 -5 -18 15 -72 -3 -27 52 64 -94 -12 24 11 -5 18 27
000080 06 f6 31 f3 1b f6 fd 25 fc bc 09 f0 06 0a 0d 25
       6 -10 49 -13 27 -10 -3 37 -4 -68 9 -16 6 10 13 37
000090 02 f8 1f 09 49 25 0d d7 02 01 03 0d f9 e7 b4 0c
       2 -8 31 9 73 37 13 -41 2 1 3 13 -7 -25 -76 12
0000a0 de 01 e8 28 0a 25 f5 ec 08 0d 72 01 29 04 10 07
       -34 1 -24 40 10 37 -11 -20 8 13 114 1 41 4 16 7
0000b0 e7 f7 1f fc 25 c7 d6 e0 31 4d 24 03 18 04 17 ce
       -25 -9 31 -4 37 -57 -42 -32 49 77 36 3 24 4 23 -50
0000c0 19 d9 e0 e4 f6 f5 ff 98 f1 ff 4c 27 fb d8 19 ba
       25 -39 -32 -28 -10 -11 -1 -104 -15 -1 76 39 -5 -40 25 -70
0000d0 0c e4 f3 e6 0f 86 0c 1b b2 02 03 c5 eb d5 c4 1f
       12 -28 -13 -26 15 -122 12 27 -78 2 3 -59 -21 -43 -60 31
0000e0 4e c4 0a cb 0d 1e 48 3c 22 1f 39 b9 f7 f1 cd e4
       78 -60 10 -53 13 30 72 60 34 31 57 -71 -9 -15 -51 -28
0000f0 cb 45 cd 7f 33 09 ba d4 ce 00 d7 10 e8 33 be 52
       -53 69 -51 127 51 9 -70 -44 -50 0 -41 16 -24 51 -66 82

model/dense_linear_bottleneck_block/batch_normalization_25/FusedBatchNormV3;model/dense_linear_bottleneck_block/depthwise_conv2d_16/depthwise;model/dense_linear_bottleneck_block/depthwise_conv2d_16/BiasAdd/ReadVariableOp;model/dense_linear_bottleneck_block/depthwise_conv2d_16/BiasAdd1 i1 [1, 3, 3, 96]
000000 04 fe 0b 98 f4 05 2c 55 a0 47 21 c6 2e 02 ba 2f
       4 -2 11 -104 -12 5 44 85 -96 71 33 -58 46 2 -70 47
000010 05 bc ae ce b3 01 66 d4 19 07 53 9d f1 2e 01 0d
       5 -68 -82 -50 -77 1 102 -44 25 7 83 -99 -15 46 1 13
000020 46 06 cf e2 24 a7 dd a4 7f 44 56 5a f2 d6 88 06
       70 6 -49 -30 36 -89 -35 -92 127 68 86 90 -14 -42 -120 6
000030 fe 65 e1 4a d6 81 17 9b 17 81 a1 bf 07 18 81 b5
       -2 101 -31 74 -42 -127 23 -101 23 -127 -95 -65 7 24 -127 -75
000040 36 7f 0e c0 81 28 6e e0 cb 7f cf 81 be e5 b1 5a
       54 127 14 -64 -127 40 110 -32 -53 127 -49 -127 -66 -27 -79 90
000050 3e a5 64 17 40 33 b3 17 08 3c 3e da c1 81 66 f4
       62 -91 100 23 64 51 -77 23 8 60 62 -38 -63 -127 102 -12
000060 7a 7f ad c6 d1 e9 7f 63 ad 2f ea 1d be fb be f9
       122 127 -83 -58 -47 -23 127 99 -83 47 -22 29 -66 -5 -66 -7
000070 75 b7 ae 23 b0 26 33 e9 eb 5e 55 96 81 0b b6 2a
       117 -73 -82 35 -80 38 51 -23 -21 94 85 -106 -127 11 -74 42
000080 eb 0b e2 cb 7f b8 11 81 1b 37 3a 7f 39 02 b0 24
       -21 11 -30 -53 127 -72 17 -127 27 55 58 127 57 2 -80 36
000090 50 79 c3 47 81 0a 57 ad d5 92 81 cd d6 2a ac a6
       80 121 -61 71 -127 10 87 -83 -43 -110 -127 -51 -42 42 -84 -90
0000a0 1a 26 ae cd c2 29 7f f5 aa 51 38 89 9e ae 81 63
       26 38 -82 -51 -62 41 127 -11 -86 81 56 -119 -98 -82 -127 99
0000b0 6c a0 7f 1e 67 64 81 11 dd 7f 14 f2 b0 82 1e a8
       108 -96 127 30 103 100 -127 17 -35 127 20 -14 -80 -126 30 -88
0000c0 f5 f3 8b dd bc 2b 49 18 e2 2a 55 02 09 0d f6 22
       -11 -13 -117 -35 -68 43 73 24 -30 42 85 2 9 13 -10 34
0000d0 f2 ee f8 29 f6 46 6e e3 23 66 3e 96 ed 05 b5 ed
       -14 -18 -8 41 -10 70 110 -29 35 102 62 -106 -19 5 -75 -19
0000e0 f3 28 fc b7 08 82 12 d5 ec 4f 2c 21 02 0c 8f 5a
       -13 40 -4 -73 8 -126 18 -43 -20 79 44 33 2 12 -113 90
0000f0 07 48 c1 31 c2 eb 72 3a d4 e7 d0 11 e8 26 2c fc
       7 72 -63 49 -62 -21 114 58 -44 -25 -48 17 -24 38 44 -4

model/linear_bottleneck_block_7/batch_normalization_24/FusedBatchNormV3;model/linear_bottleneck_block_7/depthwise_conv2d_15/depthwise;model/linear_bottleneck_block_7/depthwise_conv2d_15/BiasAdd/ReadVariableOp;model/linear_bottleneck_block_7/depthwise_conv2d_15/BiasAdd;model/dense_linear_bottleneck_block/depthwise_conv2d_16/depthwise i1 [1, 3, 3, 96]
000000 ac 2e fc dd 33 0e eb 3c b4 6e 24 f8 2c c8 81 30
       -84 46 -4 -35 51 14 -21 60 -76 110 36 -8 44 -56 -127 48
000010 0e 0e 81 97 f3 0c 2b 48 81 c7 dc ce 9f 29 f8 9c
       14 14 -127 -105 -13 12 43 72 -127 -57 -36 -50 -97 41 -8 -100
000020 96 cb b1 e3 f5 e2 aa 45 7f 8a 81 81 c8 0f 59 cd
       -106 -53 -79 -29 -11 -30 -86 69 127 -118 -127 -127 -56 15 89 -51
000030 7f 38 ea 3b a0 c8 87 54 61 b5 12 d2 fc 69 f0 c6
       127 56 -22 59 -96 -56 -121 84 97 -75 18 -46 -4 105 -16 -58
000040 ae 7f 21 ee e5 5b 3e e9 af 6d e8 7f 35 fd fa a1
       -82 127 33 -18 -27 91 62 -23 -81 109 -24 127 53 -3 -6 -95
000050 ef 81 16 ec 16 9a df cc 95 ab 41 ef d6 99 00 00
       -17 -127 22 -20 22 -102 -33 -52 -107 -85 65 -17 -42 -103 0 0
000060 25 0f 1c c7 cd d6 2f fa b2 13 da c8 eb b3 bb 24
       37 15 28 -57 -51 -42 47 -6 -78 19 -38 -56 -21 -77 -69 36
000070 e4 7f c0 cb b5 3d 78 b2 f6 9b 05 ab dc e0 1c d8
       -28 127 -64 -53 -75 61 120 -78 -10 -101 5 -85 -36 -32 28 -40
000080 81 da 16 92 57 da 1d 54 0e 8b fe 4e f0 0f 61 ce
       -127 -38 22 -110 87 -38 29 84 14 -117 -2 78 -16 15 97 -50
000090 6b ff d6 42 c0 b2 ac 9a 37 23 11 34 ed 7f d6 22
       107 -1 -42 66 -64 -78 -84 -102 55 35 17 52 -19 127 -42 34
0000a0 9f 07 46 db 55 7f 54 55 e1 39 04 5d 3d 3d 25 c8
       -97 7 70 -37 85 127 84 85 -31 57 4 93 61 61 37 -56
0000b0 09 bc 10 81 a3 c6 69 54 fd e9 b3 6f 06 a3 c4 2e
       9 -68 16 -127 -93 -58 105 84 -3 -23 -77 111 6 -93 -60 46
0000c0 02 9f 3c d7 13 f1 53 ac 94 04 81 81 d8 de b8 fb
       2 -97 60 -41 19 -15 83 -84 -108 4 -127 -127 -40 -34 -72 -5
0000d0 ed 3a 9c 81 81 59 60 f8 bc e5 c4 da ff c0 de a3
       -19 58 -100 -127 -127 89 96 -8 -68 -27 -60 -38 -1 -64 -34 -93
0000e0 dd 0a e2 f9 1c 05 15 dc d1 81 46 33 bd 18 e5 81
       -35 10 -30 -7 28 5 21 -36 -47 -127 70 51 -67 24 -27 -127
0000f0 08 6c bb 21 00 81 81 9f ce fa 2e fb d9 42 b0 1a
       8 108 -69 33 0 -127 -127 -97 -50 -6 46 -5 -39 66 -80 26

model/linear_bottleneck_block_7/conv2d_8/Conv2D i1 [96, 1, 1, 96]
000000 17 f8 ad 2d bb fb e9 29 1c e8 42 1a 47 fb cd 18
       23 -8 -83 45 -69 -5 -23 41 28 -24 66 26 71 -5 -51 24
000010 2b 28 d7 47 33 98 81 34 54 c0 1c ce fb 23 d0 f6
       43 40 -41 71 51 -104 -127 52 84 -64 28 -50 -5 35 -48 -10
000020 fe 2b a6 d0 fa 2d 01 f8 fc d6 17 05 2d e7 aa d9
       -2 43 -90 -48 -6 45 1 -8 -4 -42 23 5 45 -25 -86 -39
000030 d8 13 f4 51 e5 1b 5d 28 db 4d 34 66 ac 13 fb fa
       -40 19 -12 81 -27 27 93 40 -37 77 52 102 -84 19 -5 -6
000040 b7 41 55 f5 37 aa cd cc 94 2a 4b 23 26 1b f9 ef
       -73 65 85 -11 55 -86 -51 -52 -108 42 75 35 38 27 -7 -17
000050 0d 2c 5d fc 2c 25 4b 04 2f d6 00 60 f8 12 18 e2
       13 44 93 -4 44 37 75 4 47 -42 0 96 -8 18 24 -30
000060 d1 fd eb dd 0c e0 02 88 ef d8 17 07 fe fe bd 3c
       -47 -3 -21 -35 12 -32 2 -120 -17 -40 23 7 -2 -2 -67 60
000070 f0 17 d4 db 10 23 00 51 00 d0 12 f4 da 10 18 4f
       -16 23 -44 -37 16 35 0 81 0 -48 18 -12 -38 16 24 79
000080 d8 ee f2 1a 07 1d 01 ee 4b e8 e7 b7 c1 fc da 06
       -40 -18 -14 26 7 29 1 -18 75 -24 -25 -73 -63 -4 -38 6
000090 d4 3b 07 0c fd 07 ed 12 1d 02 fe 7c 11 cc dc e6
       -44 59 7 12 -3 7 -19 18 29 2 -2 124 17 -52 -36 -26
0000a0 ca fe 06 e4 e5 f1 0e f2 df f3 81 f9 88 e1 f0 0f
       -54 -2 6 -28 -27 -15 14 -14 -33 -13 -127 -7 -120 -31 -16 15
0000b0 1e f2 da ff ef 2e 13 c1 3a b3 12 0f 24 c5 26 e1
       30 -14 -38 -1 -17 46 19 -63 58 -77 18 15 36 -59 38 -31
0000c0 52 1e 1f 1d e7 f6 45 08 3c 05 32 1a 12 02 0a 1e
       82 30 31 29 -25 -10 69 8 60 5 50 26 18 2 10 30
0000d0 01 ee bb 3a 29 b8 bf 1d ff e2 ff 0b c0 27 b7 d7
       1 -18 -69 58 41 -72 -65 29 -1 -30 -1 11 -64 39 -73 -41
0000e0 22 24 c8 f9 03 7f 3f 51 f4 e5 b7 2a bf e8 f1 e0
       34 36 -56 -7 3 127 63 81 -12 -27 -73 42 -65 -24 -15 -32
0000f0 04 de f2 43 05 19 30 20 34 30 04 21 bc 17 d0 4c
       4 -34 -14 67 5 25 48 32 52 48 4 33 -68 23 -48 76

model/linear_bottleneck_block_7/batch_normalization_22/FusedBatchNormV3;model/linear_bottleneck_block_7/depthwise_conv2d_14/depthwise;model/linear_bottleneck_block_7/depthwise_conv2d_14/BiasAdd/ReadVariableOp;model/linear_bottleneck_block_7/depthwise_conv2d_14/BiasAdd;model/dense_linear_bottleneck_block/depthwise_conv2d_16/depthwise1 i1 [1, 3, 3, 96]
000000 a9 6d 3a 38 1e 3b 1b 3b 8e e3 0c 20 bf 08 7f 38
       -87 109 58 56 30 59 27 59 -114 -29 12 32 -65 8 127 56
000010 94 d7 24 b0 00 26 fd 9f e0 81 a4 a1 42 02 12 7f
       -108 -41 36 -80 0 38 -3 -97 -32 -127 -92 -95 66 2 18 127
000020 65 d0 1d ee 9a e8 31 cc df 11 e7 19 b2 37 7f ff
       101 -48 29 -18 -102 -24 49 -52 -33 17 -25 25 -78 55 127 -1
000030 0e cd 18 9b 1a 2b f1 81 17 07 7f e6 a4 37 39 c8
       14 -51 24 -101 26 43 -15 -127 23 7 127 -26 -92 55 57 -56
000040 0c 4a 96 7f ec 40 4d 1f 62 ee fe d9 48 0a 4d fd
       12 74 -106 127 -20 64 77 31 98 -18 -2 -39 72 10 77 -3
000050 2d 09 d9 04 eb 0e 40 01 c9 c6 e4 06 a5 07 81 e0
       45 9 -39 4 -21 14 64 1 -55 -58 -28 6 -91 7 -127 -32
000060 b2 7f d9 7e 06 7f 11 7f 81 b3 ff 14 fb f7 4e 5b
       -78 127 -39 126 6 127 17 127 -127 -77 -1 20 -5 -9 78 91
000070 81 42 f7 3a c3 42 3d b8 19 a5 81 92 63 c2 4c 31
       -127 66 -9 58 -61 66 61 -72 25 -91 -127 -110 99 -62 76 49
000080 7f c8 dd f4 9c 1b 14 3b dc 08 de 9a b2 37 3b 0b
       127 -56 -35 -12 -100 27 20 59 -36 8 -34 -102 -78 55 59 11
000090 18 cd 1a c5 18 5e 7f b8 c5 38 27 91 fc 34 7f 81
       24 -51 26 -59 24 94 127 -72 -59 56 39 -111 -4 52 127 -127
0000a0 f3 54 1c 76 e8 25 35 27 1c 19 a9 e8 1b 9a 7f 01
       -13 84 28 118 -24 37 53 39 28 25 -87 -24 27 -102 127 1
0000b0 44 8f ea 50 7f 4a f6 a1 a1 ea d5 9f ea cd c7 0d
       68 -113 -22 80 127 74 -10 -95 -95 -22 -43 -97 -22 -51 -57 13
0000c0 09 fd 36 7f 16 17 02 ed e7 3a fc 25 ca f5 14 25
       9 -3 54 127 22 23 2 -19 -25 58 -4 37 -54 -11 20 37
0000d0 ed 3f d8 f9 15 e4 1d b7 d7 92 a5 c3 4f d1 56 41
       -19 63 -40 -7 21 -28 29 -73 -41 -110 -91 -61 79 -47 86 65
0000e0 38 82 d8 a4 a1 d2 22 dc a8 0c f6 cf fa 4b fa 34
       56 -126 -40 -92 -95 -46 34 -36 -88 12 -10 -49 -6 75 -6 52
0000f0 39 f2 6b f1 d5 5a 78 f6 b9 1e 29 bc f5 70 26 f8
       57 -14 107 -15 -43 90 120 -10 -71 30 41 -68 -11 112 38 -8
