etinynet_int8.tflite (tflite, 488368 bytes, 41 tensors)

model/dense/MatMul i1 [200, 384] scale=0.004838106 zero_point=0
0.28061017 -0.09676212 -0.09192402 0.13062887 -0.019352425 -0.26609585 -0.14030509 0.029028637
-0.06773349 -0.2322291 -0.004838106 -0.19352424 -0.11127644 -0.058057275 -0.058057275 -0.17417182
0.004838106 0.25641963 0.31931502 0.009676212 0.19836235 0.17417182 -0.21287668 0.22255288
-0.16449562 -0.21287668 0.014514319 0.15965751 0.14030509 -0.03870485 0.1548194 0.0774097
-0.043542955 0.043542955 0.08708591 -0.03870485 -0.17417182 -0.08224781 0.10643834 0.25641963
0.10643834 -0.08708591 -0.18868615 -0.14998129 0.033866744 0.16933371 -0.13546698 0.019352425
-0.03870485 0.15965751 -0.03870485 -0.14030509 -0.20803857 -0.06773349 -0.26125774 -0.20320046
0.11611455 0.19352424 0.20320046 -0.21287668 -0.11127644 0.004838106 0.009676212 -0.08708591
-0.21771479 0.16933371 0.08224781 -0.20803857 0.05321917 -0.02419053 0.3096388 -0.12579076
-0.17417182 -0.20803857 -0.25158152 0.24674341 -0.17417182 -0.02419053 -0.10643834 -0.09192402
-0.13546698 -0.10643834 -0.21287668 -0.14030509 -0.14998129 0.12579076 -0.03870485 0.004838106
-0.009676212 0.16933371 0.26609585 -0.05321917 -0.04838106 -0.13062887 -0.06289538 0.02419053
0.08708591 -0.03870485 0.26125774 -0.14514318 -0.35318175 0.009676212 0.16933371 0.03870485
-0.22739099 0.14998129 -0.21287668 -0.2322291 0.08224781 -0.11611455 0.10160023 -0.19352424
-0.18384804 -0.29028636 0.06289538 0.34350553 -0.004838106 0.07257159 -0.18868615 -0.033866744
-0.26609585 0.029028637 -0.13546698 -0.06289538 0.0 -0.24674341 0.19352424 -0.043542955
-0.004838106 -0.25641963 -0.033866744 -0.14514318 -0.08224781 0.21771479 -0.07257159 0.033866744
-0.014514319 -0.13062887 0.04838106 -0.12095266 -0.06289538 0.3096388 -0.14998129 0.03870485
-0.043542955 -0.21287668 0.27093396 -0.058057275 0.18384804 -0.07257159 -0.09676212 -0.09192402
-0.05321917 0.14514318 -0.18384804 -0.29028636 -0.24674341 0.13062887 -0.1548194 0.14030509
-0.3773723 -0.21287668 -0.02419053 -0.033866744 0.08224781 -0.19836235 0.13546698 0.08708591
0.22255288 -0.27093396 -0.13062887 -0.19836235 -0.07257159 0.17417182 -0.02419053 -0.19352424
-0.019352425 -0.3725342 0.05321917 0.043542955 -0.18868615 -0.08224781 -0.14514318 -0.0774097
-0.20803857 0.06289538 -0.17900993 -0.03870485 -0.20320046 0.17900993 -0.22255288 0.06773349
0.058057275 -0.12579076 0.06773349 -0.17417182 -0.1548194 0.06289538 0.29028636 -0.07257159
-0.22255288 -0.29996258 -0.09192402 -0.009676212 0.29028636 0.06289538 -0.21771479 0.22739099
-0.22255288 -0.13546698 -0.05321917 -0.1548194 0.02419053 0.02419053 -0.09676212 -0.22739099
-0.0774097 -0.20803857 -0.13546698 -0.18868615 0.21771479 -0.11611455 -0.1548194 0.08708591
-0.05321917 0.22255288 -0.14998129 -0.24190532 -0.11611455 -0.11127644 -0.08224781 -0.014514319
-0.16933371 -0.08224781 0.058057275 -0.19352424 0.06773349 -0.019352425 0.033866744 0.25641963
0.27093396 0.2322291 -0.1548194 -0.08708591 0.22739099 -0.14514318 -0.16933371 -0.10160023
-0.29996258 -0.24190532 -0.03870485 -0.16933371 -0.1548194 0.17900993 -0.22739099 -0.11611455
00000000: 3aec ed1b fcc9 e306 f2d0 ffd8 e9f4 f4dc
00000010: 0135 4202 2924 d42e ded4 0321 1df8 2010
00000020: f709 12f8 dcef 1635 16ee d9e1 0723 e404
00000030: f821 f8e3 d5f2 cad6 1828 2ad4 e901 02ee
00000040: d323 11d5 0bfb 40e6 dcd5 cc33 dcfb eaed
00000050: e4ea d4e3 e11a f801 fe23 37f5 f6e5 f305
00000060: 12f8 36e2 b702 2308 d11f d4d0 11e8 15d8
00000070: dac4 0d47 ff0f d9f9 c906 e4f3 00cd 28f7
00000080: ffcb f9e2 ef2d f107 fde5 0ae7 f340 e108
00000090: f7d4 38f4 26f1 eced f51e dac4 cd1b e01d
000000a0: b2d4 fbf9 11d7 1c12 2ec8 e5d7 f124 fbd8
000000b0: fcb3 0b09 d9ef e2f0 d50d dbf8 d625 d20e
000000c0: 0ce6 0edc e00d 3cf1 d2c2 edfe 3c0d d32f
000000d0: d2e4 f5e0 0505 ecd1 f0d5 e4d9 2de8 e012
000000e0: f52e e1ce e8e9 effd ddef 0cd8 0efc 0735
000000f0: 3830 e0ee 2fe2 ddeb c2ce f8dd e025 d1e8

model/linear_bottleneck_block_12/batch_normalization_39/FusedBatchNormV3;model/linear_bottleneck_block_12/depthwise_conv2d_25/depthwise;model/linear_bottleneck_block_12/depthwise_conv2d_25/BiasAdd/ReadVariableOp;model/linear_bottleneck_block_12/depthwise_conv2d_25/BiasAdd i1 [1, 3, 3, 384]
-68 5 -48 -11 120 17 -18 -25
-38 18 127 -127 4 -6 17 6
-25 -1 -1 17 -42 -5 -70 46
-116 -25 0 44 57 -1 1 72
-110 -47 -13 -21 -14 -1 -8 127
-2 -63 -21 -10 37 -64 -67 127
-15 -16 -11 -9 -8 -5 -113 -2
-4 -11 127 -54 -17 16 73 -90
-24 -125 59 -120 -64 -16 127 4
-11 9 107 -52 -25 -17 35 0
-6 -126 -8 61 -4 -2 -25 1
-25 -32 -4 29 8 -33 -117 4
-42 -112 82 -94 -30 -10 -98 2
127 -47 -14 -118 -23 -9 -16 -50
7 -16 -25 -11 -19 22 -23 -9
-44 12 -27 -45 70 -86 6 -64
-126 -78 46 -25 58 32 81 4
6 -33 -38 -6 -115 -3 -32 -62
2 18 -48 14 127 -64 -52 -11
-23 3 -100 -107 -2 -65 -15 6
-17 33 7 -126 -119 65 -11 -119
7 -57 2 -19 2 3 -52 57
70 22 127 8 -9 -17 -126 -115
-69 2 -8 -1 -2 6 -19 18
-7 16 -22 -9 127 54 -7 -6
8 -11 -55 -8 -79 -17 69 7
-7 -67 127 6 -38 -4 -127 5
-102 -11 50 -21 -18 127 -85 -26
-8 -9 -39 20 -75 -52 -14 -1
-35 -36 -49 -51 -116 25 -5 3
-34 21 -40 -25 12 72 -20 -6
-2 34 13 -91 -8 -109 -17 44
00000000: bc05 d0f5 7811 eee7 da12 7f81 04fa 1106
00000010: e7ff ff11 d6fb ba2e 8ce7 002c 39ff 0148
00000020: 92d1 f3eb f2ff f87f fec1 ebf6 25c0 bd7f
00000030: f1f0 f5f7 f8fb 8ffe fcf5 7fca ef10 49a6
00000040: e883 3b88 c0f0 7f04 f509 6bcc e7ef 2300
00000050: fa82 f83d fcfe e701 e7e0 fc1d 08df 8b04
00000060: d690 52a2 e2f6 9e02 7fd1 f28a e9f7 f0ce
00000070: 07f0 e7f5 ed16 e9f7 d40c e5d3 46aa 06c0
00000080: 82b2 2ee7 3a20 5104 06df dafa 8dfd e0c2
00000090: 0212 d00e 7fc0 ccf5 e903 9c95 febf f106
000000a0: ef21 0782 8941 f589 07c7 02ed 0203 cc39
000000b0: 4616 7f08 f7ef 828d bb02 f8ff fe06 ed12
000000c0: f910 eaf7 7f36 f9fa 08f5 c9f8 b1ef 4507
000000d0: f9bd 7f06 dafc 8105 9af5 32eb ee7f abe6
000000e0: f8f7 d914 b5cc f2ff dddc cfcd 8c19 fb03
000000f0: de15 d8e7 0c48 ecfa fe22 0da5 f893 ef2c

model/linear_bottleneck_block_12/conv2d_13/Conv2D i1 [384, 1, 1, 192]
-3 58 -5 -75 -22 13 3 -90
24 -13 -4 -47 0 -1 -23 12
-40 -3 -59 5 -78 -7 -12 37
-13 57 -3 -2 -35 -88 -53 -34
-81 62 -18 11 21 -32 -20 18
28 23 46 44 23 68 6 47
7 10 18 -49 6 24 -10 40
-48 3 85 42 23 39 -45 25
118 -53 3 69 -83 -5 -51 40
-28 1 -60 -3 4 21 -18 -74
116 39 -49 -66 9 -8 -20 10
-11 63 -4 -23 -32 -48 -45 -12
-27 -108 25 41 71 -38 73 43
-37 23 -26 58 22 59 50 9
-22 4 60 -6 -80 100 58 19
5 66 37 43 -53 15 -30 -26
-29 -28 -33 -41 -33 -42 -19 -5
50 34 9 38 -68 -37 2 28
-30 82 29 -21 -27 10 -15 -5
-1 127 -43 42 81 30 -13 -67
-8 13 32 -1 -40 24 -32 78
-15 -8 2 30 -8 30 -3 81
68 10 -28 4 45 55 -18 47
-33 21 -3 -41 34 30 12 32
62 -63 9 -47 49 35 5 55
-85 11 12 21 -68 30 -41 43
41 28 42 27 -40 -18 59 13
14 -54 6 -7 1 -24 29 -12
8 -31 74 28 72 -34 73 61
-16 28 -46 -82 73 23 47 69
-9 7 60 38 21 -29 -34 14
-35 -44 -49 -24 6 -7 55 4
00000000: fd3a fbb5 ea0d 03a6 18f3 fcd1 00ff e90c
00000010: d8fd c505 b2f9 f425 f339 fdfe dda8 cbde
00000020: af3e ee0b 15e0 ec12 1c17 2e2c 1744 062f
00000030: 070a 12cf 0618 f628 d003 552a 1727 d319
00000040: 76cb 0345 adfb cd28 e401 c4fd 0415 eeb6
00000050: 7427 cfbe 09f8 ec0a f53f fce9 e0d0 d3f4
00000060: e594 1929 47da 492b db17 e63a 163b 3209
00000070: ea04 3cfa b064 3a13 0542 252b cb0f e2e6
00000080: e3e4 dfd7 dfd6 edfb 3222 0926 bcdb 021c
00000090: e252 1deb e50a f1fb ff7f d52a 511e f3bd
000000a0: f80d 20ff d818 e04e f1f8 021e f81e fd51
000000b0: 440a e404 2d37 ee2f df15 fdd7 221e 0c20
000000c0: 3ec1 09d1 3123 0537 ab0b 0c15 bc1e d72b
000000d0: 291c 2a1b d8ee 3b0d 0eca 06f9 01e8 1df4
000000e0: 08e1 4a1c 48de 493d f01c d2ae 4917 2f45
000000f0: f707 3c26 15e3 de0e ddd4 cfe8 06f9 3704

model/linear_bottleneck_block_12/batch_normalization_37/FusedBatchNormV3;model/linear_bottleneck_block_12/depthwise_conv2d_24/depthwise;model/linear_bottleneck_block_12/depthwise_conv2d_24/BiasAdd/ReadVariableOp;model/linear_bottleneck_block_12/depthwise_conv2d_24/BiasAdd1 i1 [1, 3, 3, 192]
7 -5 -8 -8 15 -33 -31 -111
60 -28 43 4 95 -24 -51 28
-127 81 2 -94 -28 -81 16 18
-11 -116 1 -127 -127 -68 52 -8
5 -43 -89 103 -14 -28 -115 -127
8 -42 22 -6 -44 -127 13 -12
39 6 -66 -17 -15 8 -100 -2
21 -94 27 14 -8 25 -14 -46
92 -80 -10 8 -53 42 -28 -2
2 -17 15 33 29 -18 -30 7
-28 -20 -12 -14 -8 -11 -15 -3
91 5 9 -28 16 13 -33 -67
31 -111 -30 17 -33 1 2 -2
-15 6 -1 12 9 32 -2 -89
-127 -27 127 -8 58 21 3 28
-2 -10 127 17 127 -3 -19 22
127 8 24 -17 -7 10 -13 2
11 59 66 46 -8 106 32 37
18 16 7 -73 -74 39 -11 -30
4 10 41 -64 -27 -15 115 -17
-127 -23 74 -55 -13 37 7 -27
16 5 -20 5 13 8 15 -28
-59 57 32 -127 -2 -9 -70 9
-41 -24 9 28 -95 29 -66 -7
55 16 83 127 -29 35 -24 127
127 -27 127 -60 -11 15 -59 127
59 -23 127 -31 21 -127 127 15
-43 -127 20 -69 28 -124 -14 -27
39 127 116 -109 -16 -76 23 30
-5 -30 13 9 -92 -83 20 -25
-17 16 -127 64 -127 9 -58 99
-27 -90 31 -72 23 10 -9 127
00000000: 07fb f8f8 0fdf e191 3ce4 2b04 5fe8 cd1c
00000010: 8151 02a2 e4af 1012 f58c 0181 81bc 34f8
00000020: 05d5 a767 f2e4 8d81 08d6 16fa d481 0df4
00000030: 2706 beef f108 9cfe 15a2 1b0e f819 f2d2
00000040: 5cb0 f608 cb2a e4fe 02ef 0f21 1dee e207
00000050: e4ec f4f2 f8f5 f1fd 5b05 09e4 100d dfbd
00000060: 1f91 e211 df01 02fe f106 ff0c 0920 fea7
00000070: 81e5 7ff8 3a15 031c fef6 7f11 7ffd ed16
00000080: 7f08 18ef f90a f302 0b3b 422e f86a 2025
00000090: 1210 07b7 b627 f5e2 040a 29c0 e5f1 73ef
000000a0: 81e9 4ac9 f325 07e5 1005 ec05 0d08 0fe4
000000b0: c539 2081 fef7 ba09 d7e8 091c a11d bef9
000000c0: 3710 537f e323 e87f 7fe5 7fc4 f50f c57f
000000d0: 3be9 7fe1 1581 7f0f d581 14bb 1c84 f2e5
000000e0: 277f 7493 f0b4 171e fbe2 0d09 a4ad 14e7
000000f0: ef10 8140 8109 c663 e5a6 1fb8 170a f77f

model/linear_bottleneck_block_11/batch_normalization_36/FusedBatchNormV3;model/linear_bottleneck_block_11/depthwise_conv2d_23/depthwise;model/linear_bottleneck_block_11/depthwise_conv2d_23/BiasAdd/ReadVariableOp;model/linear_bottleneck_block_11/depthwise_conv2d_23/BiasAdd;model/linear_bottleneck_block_12/depthwise_conv2d_24/depthwise i1 [1, 3, 3, 192]
-89 51 30 66 -83 -25 19 127
-48 -103 7 50 27 -21 40 -29
-3 32 -2 -112 -26 7 -9 124
11 -21 127 -15 -21 -53 -4 -47
5 -4 -14 -20 -4 -8 127 -26
-38 51 -52 5 57 -37 -41 -15
36 -104 25 29 2 30 5 -63
40 -22 -21 91 -13 127 -45 -12
-24 -89 39 25 -74 0 6 18
-72 22 -31 -40 40 -58 11 4
-9 -11 -14 -28 -11 69 -19 71
-16 8 -24 56 49 -4 127 2
-18 -29 1 -29 34 -127 54 -1
127 30 -52 35 -16 66 -19 -39
-73 84 -40 -3 7 -33 -8 -35
-88 -83 -20 -3 -18 8 114 4
-33 4 -68 -79 5 -30 108 -18
29 0 -30 62 98 -9 29 0
60 -12 -7 -11 -82 -33 -59 -12
-15 2 2 -73 -35 127 49 56
26 -105 -39 -17 16 15 -27 -9
-9 -20 96 -45 -1 -23 -17 -19
-30 -21 -71 0 76 -47 46 -59
51 59 -15 73 -19 -42 127 24
73 -81 127 6 17 -7 -18 48
-70 43 -5 29 35 -28 -42 -6
-9 -116 -20 -127 127 65 -25 11
108 72 -5 -79 -40 -38 -124 -94
36 -45 -43 -38 -29 -2 -13 -26
-27 -7 73 -91 36 -75 -4 35
-2 127 -47 -16 27 35 -37 62
-33 -50 123 -43 19 -37 127 -27
00000000: a733 1e42 ade7 137f d099 0732 1beb 28e3
00000010: fd20 fe90 e607 f77c 0beb 7ff1 ebcb fcd1
00000020: 05fc f2ec fcf8 7fe6 da33 cc05 39db d7f1
00000030: 2498 191d 021e 05c1 28ea eb5b f37f d3f4
00000040: e8a7 2719 b600 0612 b816 e1d8 28c6 0b04
00000050: f7f5 f2e4 f545 ed47 f008 e838 31fc 7f02
00000060: eee3 01e3 2281 36ff 7f1e cc23 f042 edd9
00000070: b754 d8fd 07df f8dd a8ad ecfd ee08 7204
00000080: df04 bcb1 05e2 6cee 1d00 e23e 62f7 1d00
00000090: 3cf4 f9f5 aedf c5f4 f102 02b7 dd7f 3138
000000a0: 1a97 d9ef 100f e5f7 f7ec 60d3 ffe9 efed
000000b0: e2eb b900 4cd1 2ec5 333b f149 edd6 7f18
000000c0: 49af 7f06 11f9 ee30 ba2b fb1d 23e4 d6fa
000000d0: f78c ec81 7f41 e70b 6c48 fbb1 d8da 84a2
000000e0: 24d3 d5da e3fe f3e6 e5f9 49a5 24b5 fc23
000000f0: fe7f d1f0 1b23 db3e dfce 7bd5 13db 7fe5

model/linear_bottleneck_block_11/conv2d_12/Conv2D i1 [192, 1, 1, 168]
-49 -56 81 5 -19 -76 80 52
-17 80 -96 -9 44 43 5 87
96 -9 -82 -98 -85 107 55 53
46 11 80 70 -83 -8 -60 14
-30 75 73 6 -88 3 95 -100
-110 36 -41 1 58 -17 8 7
-59 29 -96 -76 39 -40 12 -127
-11 25 19 -49 -52 -76 43 103
62 87 35 -44 -36 49 80 12
-23 10 -18 33 54 42 -1 45
12 -28 -4 7 -8 -13 -18 8
-51 86 -27 56 118 -12 34 10
75 4 28 -14 -27 -93 21 -30
-10 -22 -37 -16 19 -16 73 28
-44 -24 25 -26 -14 -73 -1 75
-37 38 -55 20 -87 17 -17 -9
5 -12 10 -16 -61 44 -73 -29
-87 41 -66 -62 58 88 83 10
-10 120 -54 28 -55 59 26 0
-26 37 21 -67 -53 -23 19 49
65 69 77 23 39 33 -27 -7
-96 -4 -66 -49 -99 -16 57 -103
-94 22 -39 -52 74 -87 -18 -27
2 -10 39 79 -18 110 -13 -15
-44 -100 63 51 -57 10 13 -13
21 -84 85 63 -37 -24 53 35
-29 -106 -91 -3 -100 78 -12 25
-46 46 29 -52 -1 26 29 15
-64 -3 -25 44 -62 82 37 83
-32 -3 61 0 9 -23 54 1
60 40 22 -68 18 -61 30 38
-52 34 28 60 -103 -41 -55 19
00000000: cfc8 5105 edb4 5034 ef50 a0f7 2c2b 0557
00000010: 60f7 ae9e ab6b 3735 2e0b 5046 adf8 c40e
00000020: e24b 4906 a803 5f9c 9224 d701 3aef 0807
00000030: c51d a0b4 27d8 0c81 f519 13cf ccb4 2b67
00000040: 3e57 23d4 dc31 500c e90a ee21 362a ff2d
00000050: 0ce4 fc07 f8f3 ee08 cd56 e538 76f4 220a
00000060: 4b04 1cf2 e5a3 15e2 f6ea dbf0 13f0 491c
00000070: d4e8 19e6 f2b7 ff4b db26 c914 a911 eff7
00000080: 05f4 0af0 c32c b7e3 a929 bec2 3a58 530a
00000090: f678 ca1c c93b 1a00 e625 15bd cbe9 1331
000000a0: 4145 4d17 2721 e5f9 a0fc becf 9df0 3999
000000b0: a216 d9cc 4aa9 eee5 02f6 274f ee6e f3f1
000000c0: d49c 3f33 c70a 0df3 15ac 553f dbe8 3523
000000d0: e396 a5fd 9c4e f419 d22e 1dcc ff1a 1d0f
000000e0: c0fd e72c c252 2553 e0fd 3d00 09e9 3601
000000f0: 3c28 16bc 12c3 1e26 cc22 1c3c 99d7 c913

model/linear_bottleneck_block_11/batch_normalization_34/FusedBatchNormV3;model/linear_bottleneck_block_11/depthwise_conv2d_22/depthwise;model/linear_bottleneck_block_11/depthwise_conv2d_22/BiasAdd/ReadVariableOp;model/linear_bottleneck_block_11/depthwise_conv2d_22/BiasAdd1 i1 [1, 3, 3, 168]
43 15 -5 -15 47 -50 -1 41
-14 -47 17 -1 19 -86 3 105
-11 -10 25 7 18 -64 -4 64
-33 53 5 6 -11 -64 0 -64
-20 -71 -17 -88 65 40 35 -20
-36 27 -34 -14 -25 73 14 -64
-52 60 -4 70 14 -17 15 26
9 -35 27 71 -51 -51 -62 91
22 92 6 29 4 -15 -28 -5
127 29 -61 -15 12 54 117 56
25 -3 -11 12 -100 38 -78 76
-7 -68 77 -60 127 -46 10 11
-11 -66 92 12 -80 7 -4 23
-47 31 -9 5 106 -23 10 -68
-48 -78 -11 127 20 -97 -4 -48
30 99 -1 -96 42 -22 46 -7
-30 -10 -34 -6 -24 1 15 -2
-5 127 15 1 38 49 56 -53
14 70 5 16 127 23 71 -93
127 27 -87 -76 -4 -4 -90 -51
39 -58 -65 -17 1 -11 61 39
18 87 43 57 2 34 15 -37
-40 97 38 -88 -112 5 127 7
-85 -74 23 47 116 4 5 13
-100 88 -68 -27 12 0 45 25
69 -47 -28 -50 -3 71 0 89
-127 -30 -59 59 23 -5 29 -58
-127 36 127 57 -40 -118 -46 61
50 -92 0 34 90 -104 10 -6
2 30 -15 36 -54 -10 -59 -56
122 -31 61 -127 -110 -60 18 70
-66 -127 -8 15 -4 -3 -34 -127
00000000: 2b0f fbf1 2fce ff29 f2d1 11ff 13aa 0369
00000010: f5f6 1907 12c0 fc40 df35 0506 f5c0 00c0
00000020: ecb9 efa8 4128 23ec dc1b def2 e749 0ec0
00000030: cc3c fc46 0eef 0f1a 09dd 1b47 cdcd c25b
00000040: 165c 061d 04f1 e4fb 7f1d c3f1 0c36 7538
00000050: 19fd f50c 9c26 b24c f9bc 4dc4 7fd2 0a0b
00000060: f5be 5c0c b007 fc17 d11f f705 6ae9 0abc
00000070: d0b2 f57f 149f fcd0 1e63 ffa0 2aea 2ef9
00000080: e2f6 defa e801 0ffe fb7f 0f01 2631 38cb
00000090: 0e46 0510 7f17 47a3 7f1b a9b4 fcfc a6cd
000000a0: 27c6 bfef 01f5 3d27 1257 2b39 0222 0fdb
000000b0: d861 26a8 9005 7f07 abb6 172f 7404 050d
000000c0: 9c58 bce5 0c00 2d19 45d1 e4ce fd47 0059
000000d0: 81e2 c53b 17fb 1dc6 8124 7f39 d88a d23d
000000e0: 32a4 0022 5a98 0afa 021e f124 caf6 c5c8
000000f0: 7ae1 3d81 92c4 1246 be81 f80f fcfd de81

model/linear_bottleneck_block_10/batch_normalization_33/FusedBatchNormV3;model/linear_bottleneck_block_10/depthwise_conv2d_21/depthwise;model/linear_bottleneck_block_10/depthwise_conv2d_21/BiasAdd/ReadVariableOp;model/linear_bottleneck_block_10/depthwise_conv2d_21/BiasAdd;model/linear_bottleneck_block_11/depthwise_conv2d_22/depthwise i1 [1, 3, 3, 168]
-87 31 40 -72 96 80 -36 110
-37 -31 43 -47 -9 83 -28 19
-5 67 63 86 -39 -7 -48 103
7 19 37 29 10 -58 -108 -21
-57 127 64 -80 -9 -69 -82 -41
-12 -11 16 -32 -18 19 99 127
-127 2 -40 127 -60 -95 -12 -41
-54 -29 -24 54 -9 -23 -14 -126
-51 -38 47 17 -14 -50 29 -26
-12 37 -52 127 -74 -62 55 5
-70 -23 20 -72 96 -19 -51 -117
127 -34 70 15 -25 107 -6 -84
-15 -22 -26 -7 -46 -117 -79 -33
37 -69 57 52 -96 -11 39 -59
-40 -57 -57 -8 79 -56 -25 1
-43 -82 127 -53 -19 -46 24 57
-92 -6 -21 -83 -79 -41 127 -16
-15 -108 -77 63 -50 -127 23 -12
-21 127 1 -9 90 31 11 -7
9 -15 43 114 -9 26 18 -8
19 -89 -74 81 36 45 -61 -26
-34 -12 -115 -57 -72 -15 -34 11
-13 94 -52 0 12 -48 -50 14
-44 -38 -27 82 -62 -42 10 127
-54 127 -23 74 127 127 -10 -77
-57 9 127 25 -19 -13 -18 -30
102 -15 -8 35 33 76 43 50
32 -45 -54 -120 17 -30 127 -25
-87 -45 127 -46 -53 -127 -9 -80
18 -127 127 -22 -27 3 18 127
-82 5 31 -63 -57 -76 -111 89
-120 -28 -51 -124 127 -13 45 -53
00000000: a91f 28b8 6050 dc6e dbe1 2bd1 f753 e413
00000010: fb43 3f56 d9f9 d067 0713 251d 0ac6 94eb
00000020: c77f 40b0 f7bb aed7 f4f5 10e0 ee13 637f
00000030: 8102 d87f c4a1 f4d7 cae3 e836 f7e9 f282
00000040: cdda 2f11 f2ce 1de6 f425 cc7f b6c2 3705
00000050: bae9 14b8 60ed cd8b 7fde 460f e76b faac
00000060: f1ea e6f9 d28b b1df 25bb 3934 a0f5 27c5
00000070: d8c7 c7f8 4fc8 e701 d5ae 7fcb edd2 1839
00000080: a4fa ebad b1d7 7ff0 f194 b33f ce81 17f4
00000090: eb7f 01f7 5a1f 0bf9 09f1 2b72 f71a 12f8
000000a0: 13a7 b651 242d c3e6 def4 8dc7 b8f1 de0b
000000b0: f35e cc00 0cd0 ce0e d4da e552 c2d6 0a7f
000000c0: ca7f e94a 7f7f f6b3 c709 7f19 edf3 eee2
000000d0: 66f1 f823 214c 2b32 20d3 ca88 11e2 7fe7
000000e0: a9d3 7fd2 cb81 f7b0 1281 7fea e503 127f
000000f0: ae05 1fc1 c7b4 9159 88e4 cd84 7ff3 2dcb

model/linear_bottleneck_block_10/conv2d_11/Conv2D i1 [168, 1, 1, 168]
38 -63 -5 47 -36 0 59 24
57 23 3 -17 -27 35 -65 -74
-79 -55 5 -36 37 19 53 70
14 -35 -104 -5 -1 19 -9 -120
37 -60 -42 -8 33 7 -71 -27
35 -25 -23 0 31 -65 35 -59
-2 29 8 32 15 14 -50 -39
6 -8 -21 -34 2 45 -67 -37
-10 31 -34 34 12 13 5 -29
9 33 -34 -33 -33 49 0 -39
-40 -56 3 38 32 11 38 87
23 -10 -6 51 65 -5 42 59
30 -26 15 1 -74 5 -71 -2
-49 5 -42 9 9 -16 79 -13
-24 -33 0 41 13 -1 -55 33
-26 76 -16 -21 4 29 -39 20
37 -2 24 -49 -21 28 26 -28
33 72 36 53 -51 21 -32 -16
-30 45 -45 127 -20 -55 -39 38
-20 24 -31 23 18 21 8 -35
-26 38 -16 -13 -9 -38 32 33
29 -65 -38 31 23 -2 59 -12
-14 -31 -39 18 -35 20 32 -41
-24 24 24 98 -35 21 -24 26
-60 19 -54 14 38 9 18 8
-39 27 63 -13 -14 88 -19 20
60 -45 -43 33 42 -25 -37 30
-25 127 -54 55 29 19 35 37
59 51 16 0 20 54 -12 13
-40 43 -47 -7 6 49 -21 -48
56 7 84 70 -48 -60 -42 -69
68 0 -83 31 -83 -9 68 -59
00000000: 26c1 fb2f dc00 3b18 3917 03ef e523 bfb6
00000010: b1c9 05dc 2513 3546 0edd 98fb ff13 f788
00000020: 25c4 d6f8 2107 b9e5 23e7 e900 1fbf 23c5
00000030: fe1d 0820 0f0e ced9 06f8 ebde 022d bddb
00000040: f61f de22 0c0d 05e3 0921 dedf df31 00d9
00000050: d8c8 0326 200b 2657 17f6 fa33 41fb 2a3b
00000060: 1ee6 0f01 b605 b9fe cf05 d609 09f0 4ff3
00000070: e8df 0029 0dff c921 e64c f0eb 041d d914
00000080: 25fe 18cf eb1c 1ae4 2148 2435 cd15 e0f0
00000090: e22d d37f ecc9 d926 ec18 e117 1215 08dd
000000a0: e626 f0f3 f7da 2021 1dbf da1f 17fe 3bf4
000000b0: f2e1 d912 dd14 20d7 e818 1862 dd15 e81a
000000c0: c413 ca0e 2609 1208 d91b 3ff3 f258 ed14
000000d0: 3cd3 d521 2ae7 db1e e77f ca37 1d13 2325
000000e0: 3b33 1000 1436 f40d d82b d1f9 0631 ebd0
000000f0: 3807 5446 d0c4 d6bb 4400 ad1f adf7 44c5

model/linear_bottleneck_block_10/batch_normalization_31/FusedBatchNormV3;model/linear_bottleneck_block_10/depthwise_conv2d_20/depthwise;model/linear_bottleneck_block_10/depthwise_conv2d_20/BiasAdd/ReadVariableOp;model/linear_bottleneck_block_10/depthwise_conv2d_20/BiasAdd;model/linear_bottleneck_block_11/depthwise_conv2d_22/depthwise1 i1 [1, 3, 3, 168]
44 13 47 -7 13 10 -46 -9
-31 -83 -36 -21 -3 -58 95 -63
-109 -33 28 127 -20 24 93 -43
-127 66 50 -30 -29 -109 -12 -64
117 10 -5 -23 -11 118 24 -10
45 -10 54 31 4 50 -113 -92
24 119 40 127 32 30 -22 127
-127 11 43 -127 -2 127 73 44
-41 24 26 -127 81 126 14 -33
-5 -25 -19 -49 35 -32 5 -127
33 -42 -73 12 23 44 47 -65
9 67 -105 -63 87 -33 -30 -44
7 89 -17 -37 -34 -113 105 -53
127 22 87 0 -19 52 32 -57
44 29 -14 7 4 -68 59 65
50 39 -40 49 54 -8 24 120
0 114 -16 81 -94 28 127 -42
-58 -1 -59 -65 -25 -127 64 -38
97 5 -96 -60 -66 -57 -32 -3
25 -10 -45 119 -43 -7 3 9
-38 127 38 64 -3 -29 -55 -127
98 -57 127 7 28 88 5 4
-49 -49 -42 47 27 63 32 -19
41 -72 -3 86 -37 -75 47 100
-70 23 127 -25 -66 -127 53 84
111 -48 -8 -115 121 36 20 -127
-127 -54 -29 2 75 -31 88 -22
42 32 90 -72 -34 127 -75 103
22 32 19 -59 3 68 127 -36
-29 -73 -24 -73 72 -126 -57 -11
-31 -20 127 82 85 -127 -23 -113
-27 7 70 -28 13 59 16 42
00000000: 2c0d 2ff9 0d0a d2f7 e1ad dceb fdc6 5fc1
00000010: 93df 1c7f ec18 5dd5 8142 32e2 e393 f4c0
00000020: 750a fbe9 f576 18f6 2df6 361f 0432 8fa4
00000030: 1877 287f 201e ea7f 810b 2b81 fe7f 492c
00000040: d718 1a81 517e 0edf fbe7 edcf 23e0 0581
00000050: 21d6 b70c 172c 2fbf 0943 97c1 57df e2d4
00000060: 0759 efdb de8f 69cb 7f16 5700 ed34 20c7
00000070: 2c1d f207 04bc 3b41 3227 d831 36f8 1878
00000080: 0072 f051 a21c 7fd6 c6ff c5bf e781 40da
00000090: 6105 a0c4 bec7 e0fd 19f6 d377 d5f9 0309
000000a0: da7f 2640 fde3 c981 62c7 7f07 1c58 0504
000000b0: cfcf d62f 1b3f 20ed 29b8 fd56 dbb5 2f64
000000c0: ba17 7fe7 be81 3554 6fd0 f88d 7924 1481
000000d0: 81ca e302 4be1 58ea 2a20 5ab8 de7f b567
000000e0: 1620 13c5 0344 7fdc e3b7 e8b7 4882 c7f5
000000f0: e1ec 7f52 5581 e98f e507 46e4 0d3b 102a

model/linear_bottleneck_block_9/batch_normalization_30/FusedBatchNormV3;model/linear_bottleneck_block_9/depthwise_conv2d_19/depthwise;model/linear_bottleneck_block_9/depthwise_conv2d_19/BiasAdd/ReadVariableOp;model/linear_bottleneck_block_9/depthwise_conv2d_19/BiasAdd;model/linear_bottleneck_block_11/depthwise_conv2d_22/depthwise i1 [1, 3, 3, 168]
-47 127 -50 -28 59 -40 77 -9
124 -14 -3 -24 6 11 -27 -56
58 -14 -21 -41 -3 32 25 -118
75 127 -25 -32 15 4 -10 10
-96 -114 48 23 -32 71 127 42
-94 -31 13 -94 14 78 -21 -9
127 -54 75 9 -101 41 53 -27
-85 6 127 59 127 127 53 -98
50 33 30 -33 18 -16 127 1
-115 -38 -32 19 -28 -62 34 5
39 -30 -114 127 56 13 80 -9
24 39 -42 9 78 -127 127 -4
-7 94 -35 3 -103 68 20 -29
-36 -25 117 34 19 26 -10 2
37 10 -5 80 -32 -54 -83 -102
-4 29 -52 127 -52 -60 30 -95
127 16 -60 -57 53 90 18 -18
-16 -88 -50 -55 -66 -26 -6 -23
70 97 -18 54 -53 -23 10 84
-41 127 -127 102 38 -11 -34 103
35 54 -46 127 122 -56 -40 4
-43 7 -44 127 127 -23 49 -3
49 -16 0 -48 69 -5 27 69
-60 25 -22 21 52 -28 -37 -73
60 -18 -85 -63 -45 14 -49 34
-40 -104 102 -25 45 -13 5 -69
81 -38 48 -23 1 78 17 -39
125 -4 -99 -68 67 -54 -21 16
-34 9 -5 37 10 73 39 -55
-96 5 48 -35 -58 68 -13 -46
69 127 127 13 -84 -60 51 -44
28 -20 -124 29 127 -33 23 48
00000000: d17f cee4 3bd8 4df7 7cf2 fde8 060b e5c8
00000010: 3af2 ebd7 fd20 198a 4b7f e7e0 0f04 f60a
00000020: a08e 3017 e047 7f2a a2e1 0da2 0e4e ebf7
00000030: 7fca 4b09 9b29 35e5 ab06 7f3b 7f7f 359e
00000040: 3221 1edf 12f0 7f01 8dda e013 e4c2 2205
00000050: 27e2 8e7f 380d 50f7 1827 d609 4e81 7ffc
00000060: f95e dd03 9944 14e3 dce7 7522 131a f602
00000070: 250a fb50 e0ca ad9a fc1d cc7f ccc4 1ea1
00000080: 7f10 c4c7 355a 12ee f0a8 cec9 bee6 fae9
00000090: 4661 ee36 cbe9 0a54 d77f 8166 26f5 de67
000000a0: 2336 d27f 7ac8 d804 d507 d47f 7fe9 31fd
000000b0: 31f0 00d0 45fb 1b45 c419 ea15 34e4 dbb7
000000c0: 3cee abc1 d30e cf22 d898 66e7 2df3 05bb
000000d0: 51da 30e9 014e 11d9 7dfc 9dbc 43ca eb10
000000e0: de09 fb25 0a49 27c9 a005 30dd c644 f3d2
000000f0: 457f 7f0d acc4 33d4 1cec 841d 7fdf 1730

model/linear_bottleneck_block_9/conv2d_10/Conv2D i1 [168, 1, 1, 168]
73 45 17 -41 12 26 -1 -36
113 -53 41 -62 -73 5 -28 71
-19 16 -94 56 -62 -1 -82 8
-11 25 4 -127 36 118 33 -26
-6 2 -26 -9 -79 -86 -3 47
3 -46 55 -60 -69 16 10 -39
-13 -7 51 11 70 28 24 94
-27 5 -11 -77 7 -12 -99 8
16 70 15 -31 -59 81 30 5
40 -30 21 -51 -58 -61 -27 -49
-74 -36 30 -21 -31 65 -4 11
53 -76 -20 -38 88 -29 -7 -12
78 43 -28 84 -5 77 102 -7
-27 -18 -66 44 -7 -62 -13 -8
46 -44 -50 -3 -17 -14 73 -32
10 52 75 -18 -98 -27 -47 -20
-67 2 -46 34 32 42 -37 41
-21 41 -50 56 -97 -66 39 -57
33 -67 20 1 101 50 -19 40
16 42 4 -2 52 -76 25 43
109 79 48 19 11 37 -25 65
-1 -37 -14 -34 -61 -12 -10 19
28 81 13 61 56 66 33 -56
-58 54 -23 -104 -41 -7 30 -47
40 0 -31 18 5 -4 53 -45
17 73 107 -2 29 7 26 27
-25 11 47 12 23 -31 40 -29
53 -39 -89 25 -27 9 64 -13
-80 -40 64 37 -48 14 13 -7
-56 28 -32 -3 103 83 9 -73
-9 5 6 -8 -55 -21 -28 25
-58 -18 -50 -29 22 -29 -4 6
00000000: 492d 11d7 0c1a ffdc 71cb 29c2 b705 e447
00000010: ed10 a238 c2ff ae08 f519 0481 2476 21e6
00000020: fa02 e6f7 b1aa fd2f 03d2 37c4 bb10 0ad9
00000030: f3f9 330b 461c 185e e505 f5b3 07f4 9d08
00000040: 1046 0fe1 c551 1e05 28e2 15cd c6c3 e5cf
00000050: b6dc 1eeb e141 fc0b 35b4 ecda 58e3 f9f4
00000060: 4e2b e454 fb4d 66f9 e5ee be2c f9c2 f3f8
00000070: 2ed4 cefd eff2 49e0 0a34 4bee 9ee5 d1ec
00000080: bd02 d222 202a db29 eb29 ce38 9fbe 27c7
00000090: 21bd 1401 6532 ed28 102a 04fe 34b4 192b
000000a0: 6d4f 3013 0b25 e741 ffdb f2de c3f4 f613
000000b0: 1c51 0d3d 3842 21c8 c636 e998 d7f9 1ed1
000000c0: 2800 e112 05fc 35d3 1149 6bfe 1d07 1a1b
000000d0: e70b 2f0c 17e1 28e3 35d9 a719 e509 40f3
000000e0: b0d8 4025 d00e 0df9 c81c e0fd 6753 09b7
000000f0: f705 06f8 c9eb e419 c6ee cee3 16e3 fc06

model/linear_bottleneck_block_9/batch_normalization_28/FusedBatchNormV3;model/linear_bottleneck_block_9/depthwise_conv2d_18/depthwise;model/linear_bottleneck_block_9/depthwise_conv2d_18/BiasAdd/ReadVariableOp;model/linear_bottleneck_block_9/depthwise_conv2d_18/BiasAdd;model/linear_bottleneck_block_11/depthwise_conv2d_22/depthwise1 i1 [1, 3, 3, 168]
44 70 39 19 -127 -41 -69 6
-6 110 42 -77 -22 -46 8 24
-5 -127 88 -30 103 -63 -73 62
-45 26 4 47 127 -75 -60 -40
62 7 -53 0 127 1 -28 113
-34 4 -18 16 109 -117 104 -68
-21 -12 -2 12 127 5 122 26
-60 -127 -40 -39 59 -34 23 0
-58 -72 32 47 -20 127 -22 -71
22 27 -15 -45 30 -13 -5 -12
1 -10 -39 75 73 -18 30 -63
25 45 -12 26 82 26 122 -34
6 -19 44 4 56 -21 -11 -63
-37 -65 -38 -28 11 80 43 61
-36 18 -127 68 18 98 -20 -22
68 3 -64 -3 18 -122 15 -69
46 -52 39 -55 123 -127 19 -85
87 -114 -39 58 69 12 49 84
70 101 -43 18 122 15 -44 -18
127 -77 42 42 -127 52 36 9
16 14 39 -35 11 6 86 -60
-17 5 -55 127 -73 95 79 -38
-127 -127 -5 -87 127 29 108 78
101 -108 -24 60 7 -127 -55 25
-35 30 2 -78 37 12 127 46
-127 106 -102 36 -69 -16 -70 49
-39 -10 94 50 -112 127 34 41
8 -8 124 119 8 -37 -104 50
-30 4 78 -36 127 -65 68 -111
102 45 107 75 14 12 61 -127
-11 23 -24 -25 127 79 43 -11
93 11 -79 -57 66 35 41 -125
00000000: 2c46 2713 81d7 bb06 fa6e 2ab3 ead2 0818
00000010: fb81 58e2 67c1 b73e d31a 042f 7fb5 c4d8
00000020: 3e07 cb00 7f01 e471 de04 ee10 6d8b 68bc
00000030: ebf4 fe0c 7f05 7a1a c481 d8d9 3bde 1700
00000040: c6b8 202f ec7f eab9 161b f1d3 1ef3 fbf4
00000050: 01f6 d94b 49ee 1ec1 192d f41a 521a 7ade
00000060: 06ed 2c04 38eb f5c1 dbbf dae4 0b50 2b3d
00000070: dc12 8144 1262 ecea 4403 c0fd 1286 0fbb
00000080: 2ecc 27c9 7b81 13ab 578e d93a 450c 3154
00000090: 4665 d512 7a0f d4ee 7fb3 2a2a 8134 2409
000000a0: 100e 27dd 0b06 56c4 ef05 c97f b75f 4fda
000000b0: 8181 fba9 7f1d 6c4e 6594 e83c 0781 c919
000000c0: dd1e 02b2 250c 7f2e 816a 9a24 bbf0 ba31
000000d0: d9f6 5e32 907f 2229 08f8 7c77 08db 9832
000000e0: e204 4edc 7fbf 4491 662d 6b4b 0e0c 3d81
000000f0: f517 e8e7 7f4f 2bf5 5d0b b1c7 4223 2983

model/linear_bottleneck_block_8/batch_normalization_27/FusedBatchNormV3;model/linear_bottleneck_block_8/depthwise_conv2d_17/depthwise;model/linear_bottleneck_block_8/depthwise_conv2d_17/BiasAdd/ReadVariableOp;model/linear_bottleneck_block_8/depthwise_conv2d_17/BiasAdd;model/linear_bottleneck_block_11/depthwise_conv2d_22/depthwise i1 [1, 3, 3, 168]
-47 -36 -88 -36 -119 -82 -18 21
-37 -26 -18 -30 -5 104 -99 -8
-80 92 -28 -66 34 127 -78 -72
40 -55 24 -29 107 -26 -37 46
35 47 35 -8 -25 -23 40 -114
-31 -7 -52 -24 101 -18 -50 20
-2 11 -72 27 -7 -18 127 50
-51 2 -27 -9 -20 102 95 -51
-127 -31 65 34 -48 -54 -23 -77
41 17 24 59 18 85 22 127
7 -11 127 -55 27 -5 -5 9
127 59 127 84 -66 76 -43 44
-14 -16 41 35 127 19 5 -32
127 116 -127 49 -31 94 120 74
19 -81 60 -74 -13 -64 112 127
-30 35 -96 -4 -53 29 76 8
-40 -10 -27 -7 -57 -80 9 -19
-43 -23 -127 -53 127 -94 -8 -81
-33 55 -11 127 -64 114 -44 98
-50 -66 111 -80 -70 17 -58 -73
-53 90 -71 -60 23 22 -13 71
-57 -80 -59 -46 3 40 12 2
-23 -28 25 127 100 -5 57 59
-89 127 -117 10 -45 42 -127 -127
-77 -3 10 -29 66 51 -56 -4
4 127 -47 -39 -74 5 -74 -102
27 52 -70 127 -127 -16 -31 -99
-33 -63 -73 -81 31 95 -54 124
-53 -7 88 30 -3 127 31 58
-10 -127 127 -118 -10 -31 26 -105
-91 127 -91 4 -19 55 48 -36
127 -19 -46 -39 127 -8 -34 -24
00000000: d1dc a8dc 89ae ee15 dbe6 eee2 fb68 9df8
00000010: b05c e4be 227f b2b8 28c9 18e3 6be6 db2e
00000020: 232f 23f8 e7e9 288e e1f9 cce8 65ee ce14
00000030: fe0b b81b f9ee 7f32 cd02 e5f7 ec66 5fcd
00000040: 81e1 4122 d0ca e9b3 2911 183b 1255 167f
00000050: 07f5 7fc9 1bfb fb09 7f3b 7f54 be4c d52c
00000060: f2f0 2923 7f13 05e0 7f74 8131 e15e 784a
00000070: 13af 3cb6 f3c0 707f e223 a0fc cb1d 4c08
00000080: d8f6 e5f9 c7b0 09ed d5e9 81cb 7fa2 f8af
00000090: df37 f57f c072 d462 cebe 6fb0 ba11 c6b7
000000a0: cb5a b9c4 1716 f347 c7b0 c5d2 0328 0c02
000000b0: e9e4 197f 64fb 393b a77f 8b0a d32a 8181
000000c0: b3fd 0ae3 4233 c8fc 047f d1d9 b605 b69a
000000d0: 1b34 ba7f 81f0 e19d dfc1 b7af 1f5f ca7c
000000e0: cbf9 581e fd7f 1f3a f681 7f8a f6e1 1a97
000000f0: a57f a504 ed37 30dc 7fed d2d9 7ff8 dee8

model/linear_bottleneck_block_8/conv2d_9/Conv2D i1 [168, 1, 1, 96]
35 -83 55 16 -20 -32 -22 -37
8 -18 77 10 51 -16 -63 -10
-31 -44 -95 16 19 -14 49 -45
-1 -26 -5 18 46 -15 -10 4
-53 39 27 -26 -14 -15 3 -84
90 -5 91 66 -59 0 -32 -30
9 -18 22 21 -14 12 65 58
-53 35 -49 -20 73 85 -28 43
37 43 -19 75 -38 -44 -17 -3
-50 51 -33 100 -9 41 -37 11
-22 -26 -49 10 -38 -42 -16 -88
-29 127 -3 27 23 47 36 -51
61 11 -4 -10 -25 33 46 62
62 30 5 10 11 50 -65 0
56 53 2 -1 12 5 54 -26
-38 -18 40 -6 73 -53 -19 -4
-66 -5 -19 -31 -62 -9 -57 -19
-5 85 16 17 33 -48 26 25
64 14 -24 -8 52 -33 -27 13
-90 54 29 35 -21 83 -49 -20
-4 55 32 33 -33 -65 27 -12
-14 -127 28 -11 -2 -2 16 -8
30 3 -33 43 12 -16 38 64
-25 -42 -22 46 -13 -46 -67 -32
33 42 -16 -31 -73 -9 -14 31
-66 5 -15 -14 -15 42 14 43
-47 38 14 11 2 60 -26 14
25 60 -77 -54 -49 2 21 -7
-7 27 124 -33 19 61 -94 108
31 12 -30 20 -14 -26 26 -5
-9 -64 -47 -55 2 46 59 41
34 11 -29 -46 46 -19 12 -127
00000000: 23ad 3710 ece0 eadb 08ee 4d0a 33f0 c1f6
00000010: e1d4 a110 13f2 31d3 ffe6 fb12 2ef1 f604
00000020: cb27 1be6 f2f1 03ac 5afb 5b42 c500 e0e2
00000030: 09ee 1615 f20c 413a cb23 cfec 4955 e42b
00000040: 252b ed4b dad4 effd ce33 df64 f729 db0b
00000050: eae6 cf0a dad6 f0a8 e37f fd1b 172f 24cd
00000060: 3d0b fcf6 e721 2e3e 3e1e 050a 0b32 bf00
00000070: 3835 02ff 0c05 36e6 daee 28fa 49cb edfc
00000080: befb ede1 c2f7 c7ed fb55 1011 21d0 1a19
00000090: 400e e8f8 34df e50d a636 1d23 eb53 cfec
000000a0: fc37 2021 dfbf 1bf4 f281 1cf5 fefe 10f8
000000b0: 1e03 df2b 0cf0 2640 e7d6 ea2e f3d2 bde0
000000c0: 212a f0e1 b7f7 f21f be05 f1f2 f12a 0e2b
000000d0: d126 0e0b 023c e60e 193c b3ca cf02 15f9
000000e0: f91b 7cdf 133d a26c 1f0c e214 f2e6 1afb
000000f0: f7c0 d1c9 022e 3b29 220b e3d2 2eed 0c81

model/linear_bottleneck_block_8/batch_normalization_25/FusedBatchNormV3;model/linear_bottleneck_block_8/depthwise_conv2d_16/depthwise;model/linear_bottleneck_block_8/depthwise_conv2d_16/BiasAdd/ReadVariableOp;model/linear_bottleneck_block_8/depthwise_conv2d_16/BiasAdd1 i1 [1, 3, 3, 96]
127 33 104 61 127 -41 -127 -115
-28 -127 -75 -55 -89 38 127 -47
-14 -68 -127 -8 -64 -21 -39 127
42 -60 57 -37 -1 15 4 -56
67 -53 17 -127 -64 62 20 7
7 -38 -115 127 -11 -24 50 37
-29 -127 -93 -92 91 -29 46 -102
-80 -127 -66 37 15 -57 -27 -17
38 -72 -42 -56 56 -115 -127 119
-30 -15 -91 -4 -55 -77 -80 -47
-108 -102 -109 24 -29 -71 -74 -51
-43 47 -73 -31 -2 -46 97 -18
95 -5 -85 -127 69 6 -61 74
-108 -92 -38 -127 76 6 -4 -2
-69 127 46 48 -47 4 -127 15
93 -15 100 -33 -1 127 -127 -127
-67 -2 -70 9 0 94 -23 66
85 -6 -121 88 8 75 3 53
-95 -53 -113 77 -16 23 50 9
30 -44 -28 56 -115 39 -41 -40
-127 -29 -127 -1 -53 33 -56 -45
-35 127 -110 47 30 -106 -69 -127
-32 45 -127 -23 103 -127 68 58
24 99 127 -26 6 116 -127 81
35 72 60 71 41 -15 10 112
-20 28 -95 57 -127 -127 -41 127
-109 -37 -31 -20 -20 13 -16 51
127 -33 -59 0 49 -47 45 -12
127 35 1 50 -24 23 63 -50
52 -44 2 55 30 98 -127 -2
-64 -12 -15 120 -76 46 32 25
25 11 -35 -101 108 5 -11 -45
00000000: 7f21 683d 7fd7 818d e481 b5c9 a726 7fd1
00000010: f2bc 81f8 c0eb d97f 2ac4 39db ff0f 04c8
00000020: 43cb 1181 c03e 1407 07da 8d7f f5e8 3225
00000030: e381 a3a4 5be3 2e9a b081 be25 0fc7 e5ef
00000040: 26b8 d6c8 388d 8177 e2f1 a5fc c9b3 b0d1
00000050: 949a 9318 e3b9 b6cd d52f b7e1 fed2 61ee
00000060: 5ffb ab81 4506 c34a 94a4 da81 4c06 fcfe
00000070: bb7f 2e30 d104 810f 5df1 64df ff7f 8181
00000080: bdfe ba09 005e e942 55fa 8758 084b 0335
00000090: a1cb 8f4d f017 3209 1ed4 e438 8d27 d7d8
000000a0: 81e3 81ff cb21 c8d3 dd7f 922f 1e96 bb81
000000b0: e02d 81e9 6781 443a 1863 7fe6 0674 8151
000000c0: 2348 3c47 29f1 0a70 ec1c a139 8181 d77f
000000d0: 93db e1ec ec0d f033 7fdf c500 31d1 2df4
000000e0: 7f23 0132 e817 3fce 34d4 0237 1e62 81fe
000000f0: c0f4 f178 b42e 2019 190b dd9b 6c05 f5d3

model/linear_bottleneck_block_7/batch_normalization_24/FusedBatchNormV3;model/linear_bottleneck_block_7/depthwise_conv2d_15/depthwise;model/linear_bottleneck_block_7/depthwise_conv2d_15/BiasAdd/ReadVariableOp;model/linear_bottleneck_block_7/depthwise_conv2d_15/BiasAdd;model/linear_bottleneck_block_8/depthwise_conv2d_16/depthwise i1 [1, 3, 3, 96]
-123 127 -55 -14 -2 21 -68 127
24 112 -17 127 33 28 -110 22
-59 -30 11 -45 127 -23 -11 127
9 29 1 -44 -59 -61 127 -3
-93 -24 41 -66 113 4 35 -40
-59 99 -25 -55 -72 127 33 -18
35 57 16 87 127 -44 -46 -106
41 -125 1 126 30 -15 -19 7
84 -34 -51 -38 46 -42 -6 32
-115 -54 -35 99 4 -11 -75 109
104 120 -116 40 -127 -79 -113 49
-123 67 -71 -17 19 127 1 45
111 18 -19 -15 -44 -5 -43 -95
40 36 -11 -107 -29 -10 -51 -16
64 45 8 71 -11 42 -1 34
127 12 -39 -127 -32 24 -16 -69
-36 -106 -95 11 -36 30 -53 -56
127 16 -35 -34 53 59 5 -127
-19 -27 127 -17 -70 83 -47 75
-8 82 23 18 29 127 97 -24
-27 28 127 1 109 -41 -93 -29
-113 -42 6 -106 -41 -62 -18 109
-74 -104 90 -114 -30 127 7 92
-34 -91 49 -26 105 -23 -22 -16
-19 25 -86 -18 -116 -12 -68 -37
-34 15 127 -36 -86 127 106 30
127 9 24 18 -33 56 -35 74
31 81 -5 -83 73 6 -30 -60
-32 46 19 -31 65 -24 12 127
-18 -42 -127 -30 106 -26 -127 25
-70 -4 29 -96 -18 127 -36 -110
-127 -59 127 -59 127 28 81 -37
00000000: 857f c9f2 fe15 bc7f 1870 ef7f 211c 9216
00000010: c5e2 0bd3 7fe9 f57f 091d 01d4 c5c3 7ffd
00000020: a3e8 29be 7104 23d8 c563 e7c9 b87f 21ee
00000030: 2339 1057 7fd4 d296 2983 017e 1ef1 ed07
00000040: 54de cdda 2ed6 fa20 8dca dd63 04f5 b56d
00000050: 6878 8c28 81b1 8f31 8543 b9ef 137f 012d
00000060: 6f12 edf1 d4fb d5a1 2824 f595 e3f6 cdf0
00000070: 402d 0847 f52a ff22 7f0c d981 e018 f0bb
00000080: dc96 a10b dc1e cbc8 7f10 ddde 353b 0581
00000090: ede5 7fef ba53 d14b f852 1712 1d7f 61e8
000000a0: e51c 7f01 6dd7 a3e3 8fd6 0696 d7c2 ee6d
000000b0: b698 5a8e e27f 075c dea5 31e6 69e9 eaf0
000000c0: ed19 aaee 8cf4 bcdb de0f 7fdc aa7f 6a1e
000000d0: 7f09 1812 df38 dd4a 1f51 fbad 4906 e2c4
000000e0: e02e 13e1 41e8 0c7f eed6 81e2 6ae6 8119
000000f0: bafc 1da0 ee7f dc92 81c5 7fc5 7f1c 51db

model/linear_bottleneck_block_7/conv2d_8/Conv2D i1 [96, 1, 1, 96]
40 -11 13 3 47 -47 48 -3
14 -46 29 1 33 7 -22 -33
-9 18 6 -15 54 68 -127 -33
-70 107 -18 -10 22 35 25 -95
-18 3 45 0 36 -12 41 -32
68 11 94 -18 -43 53 7 -39
5 -49 -7 -40 -29 -54 -25 -41
28 51 -23 -19 -18 66 -29 22
24 107 46 -9 -40 -75 19 29
9 62 -4 -50 76 -7 -46 -32
-22 -26 -35 44 20 -22 -49 -63
25 -29 -18 -76 1 4 -46 -112
-9 -30 -76 -36 -60 87 28 43
-41 66 88 -28 21 -27 0 -7
-11 12 10 -31 23 -99 19 49
-28 -72 -37 -44 17 43 -30 27
-56 17 -52 -44 -8 43 19 2
0 -17 -36 34 34 -18 -25 -35
-29 -32 -80 33 83 46 -100 -82
-11 6 -10 -50 38 -28 -14 24
-41 -20 42 29 -36 65 50 47
6 53 34 -22 56 -55 74 -88
25 -9 127 25 12 5 -4 -38
5 -6 14 31 -4 -25 51 56
-7 -5 7 10 -1 117 -2 75
-14 -14 14 -4 -7 -48 -8 17
-17 -56 -17 -4 24 -57 -22 -25
-47 8 -40 110 44 7 44 27
-44 28 -54 40 -16 -13 -12 -46
-13 103 47 35 -66 -34 64 -3
20 33 -97 18 42 8 -12 24
-47 54 -59 18 -47 39 11 -26
00000000: 28f5 0d03 2fd1 30fd 0ed2 1d01 2107 eadf
00000010: f712 06f1 3644 81df ba6b eef6 1623 19a1
00000020: ee03 2d00 24f4 29e0 440b 5eee d535 07d9
00000030: 05cf f9d8 e3ca e7d7 1c33 e9ed ee42 e316
00000040: 186b 2ef7 d8b5 131d 093e fcce 4cf9 d2e0
00000050: eae6 dd2c 14ea cfc1 19e3 eeb4 0104 d290
00000060: f7e2 b4dc c457 1c2b d742 58e4 15e5 00f9
00000070: f50c 0ae1 179d 1331 e4b8 dbd4 112b e21b
00000080: c811 ccd4 f82b 1302 00ef dc22 22ee e7dd
00000090: e3e0 b021 532e 9cae f506 f6ce 26e4 f218
000000a0: d7ec 2a1d dc41 322f 0635 22ea 38c9 4aa8
000000b0: 19f7 7f19 0c05 fcda 05fa 0e1f fce7 3338
000000c0: f9fb 070a ff75 fe4b f2f2 0efc f9d0 f811
000000d0: efc8 effc 18c7 eae7 d108 d86e 2c07 2c1b
000000e0: d41c ca28 f0f3 f4d2 f367 2f23 bede 40fd
000000f0: 1421 9f12 2a08 f418 d136 c512 d127 0be6

model/linear_bottleneck_block_7/batch_normalization_22/FusedBatchNormV3;model/linear_bottleneck_block_7/depthwise_conv2d_14/depthwise;model/linear_bottleneck_block_7/depthwise_conv2d_14/BiasAdd/ReadVariableOp;model/linear_bottleneck_block_7/depthwise_conv2d_14/BiasAdd;model/linear_bottleneck_block_8/depthwise_conv2d_16/depthwise1 i1 [1, 3, 3, 96]
58 24 81 -20 -47 32 -28 -56
127 -122 127 33 5 22 -39 -4
11 53 10 121 -127 49 -42 2
49 -62 -91 97 15 -79 -14 -50
-14 127 17 -18 -82 -100 127 -36
10 18 -9 105 29 5 -13 45
16 10 9 -27 7 15 -49 104
-21 -76 31 70 127 71 35 127
127 127 -44 37 -15 6 38 -65
44 21 -56 80 48 127 -21 -1
17 53 -7 -122 -59 -88 36 -25
37 122 32 127 -1 10 -58 100
122 35 127 -57 -90 27 -77 -14
-47 -17 2 113 -58 -16 32 10
-7 -78 3 24 -20 64 -120 -125
127 -124 -56 -47 23 -59 -100 -97
-75 -4 31 -127 -53 -127 -56 -109
95 -125 -12 -47 51 -44 102 -40
-96 -7 -47 60 61 -104 -2 -20
-73 48 30 127 -72 -17 -93 -53
-4 118 18 79 109 -76 78 -5
127 77 7 -127 15 28 -54 -127
-127 -97 19 -127 -5 127 61 -1
-16 72 -51 123 23 -1 -37 8
-8 -21 45 34 -11 82 -52 114
59 17 -15 102 18 -43 76 -94
-30 0 56 -46 -35 -127 -127 65
41 -127 17 122 39 -127 -127 -30
127 -54 -121 -18 29 -55 -75 -40
39 -56 127 111 89 -31 127 36
-74 62 -18 -78 -127 -127 47 95
-44 92 -41 43 50 7 72 -10
00000000: 3a18 51ec d120 e4c8 7f86 7f21 0516 d9fc
00000010: 0b35 0a79 8131 d602 31c2 a561 0fb1 f2ce
00000020: f27f 11ee ae9c 7fdc 0a12 f769 1d05 f32d
00000030: 100a 09e5 070f cf68 ebb4 1f46 7f47 237f
00000040: 7f7f d425 f106 26bf 2c15 c850 307f ebff
00000050: 1135 f986 c5a8 24e7 257a 207f ff0a c664
00000060: 7a23 7fc7 a61b b3f2 d1ef 0271 c6f0 200a
00000070: f9b2 0318 ec40 8883 7f84 c8d1 17c5 9c9f
00000080: b5fc 1f81 cb81 c893 5f83 f4d1 33d4 66d8
00000090: a0f9 d13c 3d98 feec b730 1e7f b8ef a3cb
000000a0: fc76 124f 6db4 4efb 7f4d 0781 0f1c ca81
000000b0: 819f 1381 fb7f 3dff f048 cd7b 17ff db08
000000c0: f8eb 2d22 f552 cc72 3b11 f166 12d5 4ca2
000000d0: e200 38d2 dd81 8141 2981 117a 2781 81e2
000000e0: 7fca 87ee 1dc9 b5d8 27c8 7f6f 59e1 7f24
000000f0: b63e eeb2 8181 2f5f d45c d72b 3207 48f6

model/linear_bottleneck_block_6/batch_normalization_21/FusedBatchNormV3;model/linear_bottleneck_block_6/depthwise_conv2d_13/depthwise;model/linear_bottleneck_block_6/depthwise_conv2d_13/BiasAdd/ReadVariableOp;model/linear_bottleneck_block_6/depthwise_conv2d_13/BiasAdd;model/linear_bottleneck_block_8/depthwise_conv2d_16/depthwise i1 [1, 3, 3, 96]
0 69 65 -44 127 -33 127 112
-25 92 -29 20 -66 -78 -3 -53
30 -97 85 20 16 46 127 -78
-7 -42 -48 -60 127 -11 34 127
-17 -62 32 65 71 -59 -43 -42
103 5 46 -13 -46 30 -66 127
-69 81 91 63 -9 20 36 -11
127 -92 -44 48 -77 -100 45 -82
-29 127 -1 4 58 -17 28 0
-12 -18 7 -32 -14 -61 -46 -30
7 37 14 -127 -65 -95 -47 25
13 -62 5 -83 -10 114 11 -34
-31 -66 67 -18 9 -2 66 -95
-84 -95 -127 -41 -81 4 -47 -7
104 82 -25 28 -23 -73 38 1
19 -98 43 127 83 17 -107 50
44 88 109 127 -22 6 -8 -33
94 -21 -41 30 -44 127 -29 3
-62 -43 -71 127 12 52 58 -20
-5 -23 6 -84 -90 93 50 7
-87 66 -19 -86 -64 -16 35 -46
-60 127 47 -7 28 -1 -85 38
-127 24 9 54 -73 54 -22 -10
9 10 72 -59 28 -86 -93 22
14 -50 107 15 -53 -36 0 -94
76 41 113 -67 80 -44 -6 127
-51 83 127 127 -109 -11 11 -24
-56 -127 -71 51 12 -46 -75 82
2 -32 18 -48 11 3 -33 -78
37 98 -13 127 4 -36 43 -20
-80 27 -46 -5 8 57 26 122
57 -26 110 -1 21 127 0 -127
00000000: 0045 41d4 7fdf 7f70 e75c e314 beb2 fdcb
00000010: 1e9f 5514 102e 7fb2 f9d6 d0c4 7ff5 227f
00000020: efc2 2041 47c5 d5d6 6705 2ef3 d21e be7f
00000030: bb51 5b3f f714 24f5 7fa4 d430 b39c 2dae
00000040: e37f ff04 3aef 1c00 f4ee 07e0 f2c3 d2e2
00000050: 0725 0e81 bfa1 d119 0dc2 05ad f672 0bde
00000060: e1be 43ee 09fe 42a1 aca1 81d7 af04 d1f9
00000070: 6852 e71c e9b7 2601 139e 2b7f 5311 9532
00000080: 2c58 6d7f ea06 f8df 5eeb d71e d47f e303
00000090: c2d5 b97f 0c34 3aec fbe9 06ac a65d 3207
000000a0: a942 edaa c0f0 23d2 c47f 2ff9 1cff ab26
000000b0: 8118 0936 b736 eaf6 090a 48c5 1caa a316
000000c0: 0ece 6b0f cbdc 00a2 4c29 71bd 50d4 fa7f
000000d0: cd53 7f7f 93f5 0be8 c881 b933 0cd2 b552
000000e0: 02e0 12d0 0b03 dfb2 2562 f37f 04dc 2bec
000000f0: b01b d2fb 0839 1a7a 39e6 6eff 157f 0081

model/linear_bottleneck_block_6/conv2d_7/Conv2D i1 [96, 1, 1, 96]
-15 -23 -35 29 -29 20 37 20
-35 17 4 -24 34 -35 -22 -43
51 -67 14 -28 -5 92 -8 18
2 -42 12 25 -7 -21 -10 -37
23 -1 127 16 78 22 51 -4
-2 14 -24 7 51 -29 -47 29
-11 8 -39 5 -12 75 46 41
-20 47 -14 9 -4 -48 36 -30
7 17 -75 5 -20 -65 -68 -53
31 -13 1 21 26 34 32 3
1 74 -19 -66 52 24 70 6
-28 2 13 4 49 -5 -48 3
-28 -47 -47 -1 -33 89 10 100
-28 62 2 28 -36 -39 -47 -47
-22 57 -15 -24 24 -31 47 -2
-40 -91 82 -55 -82 106 -33 71
-30 50 -44 -7 81 87 45 -40
23 -4 -66 -35 -1 9 106 3
25 10 -96 33 10 -23 -11 0
-77 50 37 44 108 42 -32 43
37 127 -23 39 11 -20 37 59
-35 -68 -20 -71 -11 6 -4 19
-24 -50 80 101 -98 -64 -51 -50
106 -71 -56 17 2 9 33 -39
53 10 2 -49 36 50 -5 -17
-16 -18 31 -43 32 23 28 4
-17 5 -5 -37 -10 -13 18 -5
-47 -26 49 23 -26 25 21 1
-9 27 44 46 53 -18 12 -13
-21 23 20 2 -13 12 -12 42
65 24 -29 -7 -21 -12 -9 4
41 0 75 11 11 28 77 -16
00000000: f1e9 dd1d e314 2514 dd11 04e8 22dd ead5
00000010: 33bd 0ee4 fb5c f812 02d6 0c19 f9eb f6db
00000020: 17ff 7f10 4e16 33fc fe0e e807 33e3 d11d
00000030: f508 d905 f44b 2e29 ec2f f209 fcd0 24e2
00000040: 0711 b505 ecbf bccb 1ff3 0115 1a22 2003
00000050: 014a edbe 3418 4606 e402 0d04 31fb d003
00000060: e4d1 d1ff df59 0a64 e43e 021c dcd9 d1d1
00000070: ea39 f1e8 18e1 2ffe d8a5 52c9 ae6a df47
00000080: e232 d4f9 5157 2dd8 17fc bedd ff09 6a03
00000090: 190a a021 0ae9 f500 b332 252c 6c2a e02b
000000a0: 257f e927 0bec 253b ddbc ecb9 f506 fc13
000000b0: e8ce 5065 9ec0 cdce 6ab9 c811 0209 21d9
000000c0: 350a 02cf 2432 fbef f0ee 1fd5 2017 1c04
000000d0: ef05 fbdb f6f3 12fb d1e6 3117 e619 1501
000000e0: f71b 2c2e 35ee 0cf3 eb17 1402 f30c f42a
000000f0: 4118 e3f9 ebf4 f704 2900 4b0b 0b1c 4df0

model/linear_bottleneck_block_6/batch_normalization_19/FusedBatchNormV3;model/linear_bottleneck_block_6/depthwise_conv2d_12/depthwise;model/linear_bottleneck_block_6/depthwise_conv2d_12/BiasAdd/ReadVariableOp;model/linear_bottleneck_block_6/depthwise_conv2d_12/BiasAdd;model/linear_bottleneck_block_8/depthwise_conv2d_16/depthwise1 i1 [1, 3, 3, 96]
127 63 -66 72 42 127 -2 5
-32 -119 23 77 -58 -17 57 -47
-13 -35 -5 -7 29 -102 -38 -63
-59 64 -14 -47 84 -65 88 -34
41 -65 -29 -65 -13 49 -15 7
-23 -65 -25 -34 8 -41 78 -69
48 -50 63 67 83 -70 -127 -123
76 -68 127 39 2 -57 -117 -127
-72 88 -61 42 1 64 21 74
-125 127 -89 127 120 -18 -11 84
-47 -14 -36 68 -52 54 23 -21
79 -14 -5 -101 56 -99 41 18
60 24 -107 -96 -42 -102 21 55
78 45 -14 0 10 62 -75 -58
50 59 -27 127 -16 115 21 -127
-127 -25 12 54 85 -127 113 127
4 42 -8 -127 29 12 43 52
127 127 -61 14 0 84 -64 -120
-46 -127 61 -32 -127 76 -82 -46
22 9 121 -37 26 76 -22 -50
65 127 -73 -127 32 127 -61 34
13 53 -66 23 100 -25 -28 29
77 21 -127 76 -34 90 90 16
-13 48 21 -59 -3 -51 -48 101
-4 27 -59 78 8 29 -59 41
23 77 -7 -17 -11 -127 -102 -76
-9 -5 127 -26 13 100 25 30
-7 36 15 18 122 -75 -45 -1
-39 86 29 -33 -63 0 13 127
-21 -5 74 33 -48 10 -89 21
95 115 -33 -40 -125 30 -42 89
-30 -61 26 57 -127 -127 10 -89
00000000: 7f3f be48 2a7f fe05 e089 174d c6ef 39d1
00000010: f3dd fbf9 1d9a dac1 c540 f2d1 54bf 58de
00000020: 29bf e3bf f331 f107 e9bf e7de 08d7 4ebb
00000030: 30ce 3f43 53ba 8185 4cbc 7f27 02c7 8b81
00000040: b858 c32a 0140 154a 837f a77f 78ee f554
00000050: d1f2 dc44 cc36 17eb 4ff2 fb9b 389d 2912
00000060: 3c18 95a0 d69a 1537 4e2d f200 0a3e b5c6
00000070: 323b e57f f073 1581 81e7 0c36 5581 717f
00000080: 042a f881 1d0c 2b34 7f7f c30e 0054 c088
00000090: d281 3de0 814c aed2 1609 79db 1a4c eace
000000a0: 417f b781 207f c322 0d35 be17 64e7 e41d
000000b0: 4d15 814c de5a 5a10 f330 15c5 fdcd d065
000000c0: fc1b c54e 081d c529 174d f9ef f581 9ab4
000000d0: f7fb 7fe6 0d64 191e f924 0f12 7ab5 d3ff
000000e0: d956 1ddf c100 0d7f ebfb 4a21 d00a a715
000000f0: 5f73 dfd8 831e d659 e2c3 1a39 8181 0aa7

model/linear_bottleneck_block_5/batch_normalization_18/FusedBatchNormV3;model/linear_bottleneck_block_5/depthwise_conv2d_11/depthwise;model/linear_bottleneck_block_5/depthwise_conv2d_11/BiasAdd/ReadVariableOp;model/linear_bottleneck_block_5/depthwise_conv2d_11/BiasAdd;model/linear_bottleneck_block_8/depthwise_conv2d_16/depthwise i1 [1, 3, 3, 96]
-87 -4 -23 -30 -14 27 -31 -37
80 25 -26 -33 -111 -45 -30 -39
100 7 -5 -14 127 127 27 26
-72 107 17 60 -68 -48 127 32
127 32 -27 -28 -18 32 60 -7
45 49 127 -43 119 -36 -27 1
-12 -57 -39 1 -15 -24 -102 17
1 47 123 -40 -71 78 73 -69
-110 -43 -26 -29 -31 28 95 -61
64 105 -127 -7 127 48 -36 22
94 50 -27 30 -26 -45 -127 -58
127 -127 -29 -64 -55 4 60 -33
127 -31 -65 -63 127 -38 -24 60
19 98 -23 -90 -73 127 10 1
75 -35 -53 49 58 -102 16 -102
-74 -90 -66 -46 -22 -37 55 -90
109 127 96 -106 -74 23 65 -58
-86 -88 -69 4 127 100 127 4
-52 -27 80 -30 -83 82 -16 33
-125 -2 127 -77 127 41 127 -114
-58 -35 -73 127 -67 49 -66 -125
80 127 -69 -53 77 127 34 127
0 27 -56 127 -4 18 -66 -98
49 -9 92 -33 -91 75 -22 -117
-53 -8 75 -127 -30 -33 -34 -78
50 -1 -67 127 67 -44 -1 52
14 -67 -11 -46 34 -64 -88 -52
-37 -115 54 31 -18 -55 -77 -43
-13 41 80 -22 27 110 127 -25
104 -46 -92 -127 83 127 16 60
66 -65 -127 -5 -45 56 -11 56
-43 88 -1 -19 29 -70 47 -57
00000000: a9fc e9e2 f21b e1db 5019 e6df 91d3 e2d9
00000010: 6407 fbf2 7f7f 1b1a b86b 113c bcd0 7f20
00000020: 7f20 e5e4 ee20 3cf9 2d31 7fd5 77dc e501
00000030: f4c7 d901 f1e8 9a11 012f 7bd8 b94e 49bb
00000040: 92d5 e6e3 e11c 5fc3 4069 81f9 7f30 dc16
00000050: 5e32 e51e e6d3 81c6 7f81 e3c0 c904 3cdf
00000060: 7fe1 bfc1 7fda e83c 1362 e9a6 b77f 0a01
00000070: 4bdd cb31 3a9a 109a b6a6 bed2 eadb 37a6
00000080: 6d7f 6096 b617 41c6 aaa8 bb04 7f64 7f04
00000090: cce5 50e2 ad52 f021 83fe 7fb3 7f29 7f8e
000000a0: c6dd b77f bd31 be83 507f bbcb 4d7f 227f
000000b0: 001b c87f fc12 be9e 31f7 5cdf a54b ea8b
000000c0: cbf8 4b81 e2df deb2 32ff bd7f 43d4 ff34
000000d0: 0ebd f5d2 22c0 a8cc db8d 361f eec9 b3d5
000000e0: f329 50ea 1b6e 7fe7 68d2 a481 537f 103c
000000f0: 42bf 81fb d338 f538 d558 ffed 1dba 2fc7

model/linear_bottleneck_block_5/conv2d_6/Conv2D i1 [96, 1, 1, 96]
-74 -18 -15 -17 28 -16 -1 73
-32 38 19 19 76 -17 39 31
25 -48 -17 -17 -43 -46 -6 -34
-6 -4 26 2 -53 8 49 32
-67 -25 4 -28 -15 -23 2 31
-30 -28 1 -11 -58 41 60 -42
34 82 -1 7 22 -1 14 21
-29 15 -1 55 -52 -64 -28 0
41 14 -56 31 0 -7 20 -49
30 127 -25 31 26 14 22 44
-60 13 29 -15 6 -4 49 6
42 -54 -17 -64 49 -31 2 -8
-9 -37 40 50 71 -15 29 4
57 7 0 -19 68 49 -26 -45
83 86 96 -8 36 -7 -12 -97
5 14 13 -127 -16 -45 23 -52
17 38 -8 -10 9 61 -65 -7
113 -24 78 24 -16 14 10 -19
-25 59 17 -49 17 -25 29 -33
-67 43 -29 -26 -33 -15 4 -19
-50 26 -19 44 40 9 -68 48
8 -6 3 -17 126 10 -11 -6
-45 9 -53 17 -22 -64 18 -47
-4 -76 2 30 -73 -34 17 49
-56 4 35 25 -34 -16 43 32
-11 -12 -29 19 20 -8 13 27
-9 -55 -13 1 -26 -16 22 -15
24 -43 55 -48 -127 17 15 -10
18 17 33 -27 2 -48 -30 2
18 -29 -24 48 45 -20 -18 15
-68 12 6 69 69 13 -14 -7
-34 -21 9 48 -3 67 37 -17
00000000: b6ee f1ef 1cf0 ff49 e026 1313 4cef 271f
00000010: 19d0 efef d5d2 fade fafc 1a02 cb08 3120
00000020: bde7 04e4 f1e9 021f e2e4 01f5 c629 3cd6
00000030: 2252 ff07 16ff 0e15 e30f ff37 ccc0 e400
00000040: 290e c81f 00f9 14cf 1e7f e71f 1a0e 162c
00000050: c40d 1df1 06fc 3106 2aca efc0 31e1 02f8
00000060: f7db 2832 47f1 1d04 3907 00ed 4431 e6d3
00000070: 5356 60f8 24f9 f49f 050e 0d81 f0d3 17cc
00000080: 1126 f8f6 093d bff9 71e8 4e18 f00e 0aed
00000090: e73b 11cf 11e7 1ddf bd2b e3e6 dff1 04ed
000000a0: ce1a ed2c 2809 bc30 08fa 03ef 7e0a f5fa
000000b0: d309 cb11 eac0 12d1 fcb4 021e b7de 1131
000000c0: c804 2319 def0 2b20 f5f4 e313 14f8 0d1b
000000d0: f7c9 f301 e6f0 16f1 18d5 37d0 8111 0ff6
000000e0: 1211 21e5 02d0 e202 12e3 e830 2dec ee0f
000000f0: bc0c 0645 450d f2f9 deeb 0930 fd43 25ef

model/linear_bottleneck_block_5/batch_normalization_16/FusedBatchNormV3;model/linear_bottleneck_block_5/depthwise_conv2d_10/depthwise;model/linear_bottleneck_block_5/depthwise_conv2d_10/BiasAdd/ReadVariableOp;model/linear_bottleneck_block_5/depthwise_conv2d_10/BiasAdd;model/linear_bottleneck_block_8/depthwise_conv2d_16/depthwise1 i1 [1, 3, 3, 96]
-72 15 -20 18 -17 -127 -127 -127
-17 -3 -1 -2 -50 -5 97 15
-8 11 -75 21 13 -55 -78 -34
22 -47 127 -68 -1 -64 51 108
5 20 -67 -52 -127 -40 36 0
-127 -14 87 -3 -18 -66 127 -127
-47 66 63 -127 -82 -41 -27 50
-127 -52 -7 -86 -121 127 29 -123
127 29 -41 47 -70 -42 61 39
-127 -9 33 57 10 82 127 -30
36 -93 21 -127 -69 -105 89 88
-33 -46 16 28 57 -1 40 -13
61 -21 -38 -25 12 81 -77 -37
-46 -6 -14 51 9 79 52 -17
-78 80 -98 -36 -60 -61 -79 127
109 121 97 -16 -19 -12 78 48
127 13 -43 29 -84 -82 127 98
39 115 -93 70 -65 -1 62 -50
-28 53 87 45 76 -12 6 -127
-69 -45 9 38 127 -57 -15 -4
54 -127 -11 36 -118 -12 86 -88
95 127 3 -48 40 -109 -30 -29
-15 23 109 13 -72 -127 -25 45
-48 79 -45 32 108 6 28 11
-49 114 -73 -117 -32 35 39 69
-85 -45 -72 58 24 24 50 9
-62 18 -127 -21 -35 -18 124 -75
-25 14 5 -43 -44 -48 49 35
37 -127 102 10 -22 65 -37 -19
-47 -50 28 28 75 -36 46 6
47 -21 -63 -28 -65 -85 -127 25
-46 96 17 -6 17 31 -64 -93
00000000: b80f ec12 ef81 8181 effd fffe cefb 610f
00000010: f80b b515 0dc9 b2de 16d1 7fbc ffc0 336c
00000020: 0514 bdcc 81d8 2400 81f2 57fd eebe 7f81
00000030: d142 3f81 aed7 e532 81cc f9aa 877f 1d85
00000040: 7f1d d72f bad6 3d27 81f7 2139 0a52 7fe2
00000050: 24a3 1581 bb97 5958 dfd2 101c 39ff 28f3
00000060: 3deb dae7 0c51 b3db d2fa f233 094f 34ef
00000070: b250 9edc c4c3 b17f 6d79 61f0 edf4 4e30
00000080: 7f0d d51d acae 7f62 2773 a346 bfff 3ece
00000090: e435 572d 4cf4 0681 bbd3 0926 7fc7 f1fc
000000a0: 3681 f524 8af4 56a8 5f7f 03d0 2893 e2e3
000000b0: f117 6d0d b881 e72d d04f d320 6c06 1c0b
000000c0: cf72 b78b e023 2745 abd3 b83a 1818 3209
000000d0: c212 81eb ddee 7cb5 e70e 05d5 d4d0 3123
000000e0: 2581 660a ea41 dbed d1ce 1c1c 4bdc 2e06
000000f0: 2feb c1e4 bfab 8119 d260 11fa 111f c0a3

model/linear_bottleneck_block_4/batch_normalization_15/FusedBatchNormV3;model/linear_bottleneck_block_4/depthwise_conv2d_9/depthwise;model/linear_bottleneck_block_4/depthwise_conv2d_9/BiasAdd/ReadVariableOp;model/linear_bottleneck_block_4/depthwise_conv2d_9/BiasAdd;model/linear_bottleneck_block_8/depthwise_conv2d_16/depthwise i1 [1, 3, 3, 96]
54 -69 -85 -30 -19 -94 24 -34
-34 36 -101 -50 -72 -15 -7 127
-61 77 -62 -77 -58 -57 13 127
-69 -90 -67 -97 10 -55 22 -43
50 -101 -5 10 -127 25 -34 55
68 -12 15 -127 115 -38 -127 -43
20 -64 76 -46 24 -67 33 -63
-101 61 15 41 -9 -43 -19 -43
-21 70 -20 -19 -76 44 21 -60
89 -16 -52 -68 42 127 57 54
46 -36 101 -55 -33 -85 48 84
-15 30 -37 -19 -67 126 -6 58
127 -15 127 -123 25 -9 78 -32
89 16 -127 48 1 52 -33 -38
-8 33 -18 42 28 -18 -72 44
-9 69 -13 -46 -46 60 34 -101
127 76 31 82 -83 29 -45 -10
25 75 127 8 9 47 -26 -6
-35 -34 57 40 -17 -59 -39 -116
-48 -82 127 16 -15 -83 -127 -45
-39 63 106 127 -51 0 127 -7
-26 48 -127 -45 3 45 33 -30
-103 -43 127 86 -27 -24 34 -51
-116 14 69 -39 -40 17 -127 -60
-35 -85 23 70 -64 -23 -42 -83
26 -80 -68 -5 -16 5 -31 -25
-11 46 -58 127 -73 62 29 19
18 -14 4 -80 127 127 -4 79
11 -103 -51 127 -117 -126 -46 16
-15 -98 -25 5 -80 -31 121 -28
14 -22 -57 4 26 -127 -49 -54
-22 127 61 -49 97 -41 -120 87
00000000: 36bb abe2 eda2 18de de24 9bce b8f1 f97f
00000010: c34d c2b3 c6c7 0d7f bba6 bd9f 0ac9 16d5
00000020: 329b fb0a 8119 de37 44f4 0f81 73da 81d5
00000030: 14c0 4cd2 18bd 21c1 9b3d 0f29 f7d5 edd5
00000040: eb46 eced b42c 15c4 59f0 ccbc 2a7f 3936
00000050: 2edc 65c9 dfab 3054 f11e dbed bd7e fa3a
00000060: 7ff1 7f85 19f7 4ee0 5910 8130 0134 dfda
00000070: f821 ee2a 1cee b82c f745 f3d2 d23c 229b
00000080: 7f4c 1f52 ad1d d3f6 194b 7f08 092f e6fa
00000090: ddde 3928 efc5 d98c d0ae 7f10 f1ad 81d3
000000a0: d93f 6a7f cd00 7ff9 e630 81d3 032d 21e2
000000b0: 99d5 7f56 e5e8 22cd 8c0e 45d9 d811 81c4
000000c0: ddab 1746 c0e9 d6ad 1ab0 bcfb f005 e1e7
000000d0: f52e c67f b73e 1d13 12f2 04b0 7f7f fc4f
000000e0: 0b99 cd7f 8b82 d210 f19e e705 b0e1 79e4
000000f0: 0eea c704 1a81 cfca ea7f 3dcf 61d7 8857

model/linear_bottleneck_block_4/conv2d_5/Conv2D i1 [96, 1, 1, 24]
21 2 46 43 -40 -61 -26 -16
24 -13 36 -51 42 25 51 1
2 42 127 33 -61 -34 -19 35
105 -12 55 127 -6 -50 1 -12
-75 38 -41 -110 6 70 -85 18
5 22 -106 -10 3 42 30 -96
20 -117 15 -107 16 89 -38 41
51 -96 45 27 33 -60 -19 5
58 8 127 -23 19 -10 22 -77
-12 -108 -73 -76 -22 -33 27 -34
60 5 -42 -29 -8 -44 127 -69
-11 -4 7 -57 12 29 12 -84
81 22 12 41 -15 -15 -17 7
-66 61 -32 24 -127 34 -22 -40
32 -89 -23 10 -37 -23 -35 -7
127 22 -4 99 -22 -33 37 0
72 59 83 -5 29 -45 64 -52
-40 3 -39 -14 25 -1 -15 -30
19 127 -2 42 -30 7 -4 44
12 46 32 64 20 -36 -12 -6
-4 42 60 11 29 4 -44 -28
-49 90 -126 127 -69 109 -95 -21
16 -83 -75 92 -84 2 90 70
-60 -86 50 -48 72 -97 -7 -14
-4 11 -6 -18 26 -67 3 14
-64 -99 2 35 -15 -6 -77 34
-6 39 2 45 38 -1 -127 -27
-6 -97 -52 90 62 -48 -76 23
43 -66 18 25 42 80 -47 -22
-42 -77 -40 -5 3 5 12 127
-80 48 3 22 -100 -2 -7 34
-22 -28 73 65 -113 127 -18 -36
00000000: 1502 2e2b d8c3 e6f0 18f3 24cd 2a19 3301
00000010: 022a 7f21 c3de ed23 69f4 377f face 01f4
00000020: b526 d792 0646 ab12 0516 96f6 032a 1ea0
00000030: 148b 0f95 1059 da29 33a0 2d1b 21c4 ed05
00000040: 3a08 7fe9 13f6 16b3 f494 b7b4 eadf 1bde
00000050: 3c05 d6e3 f8d4 7fbb f5fc 07c7 0c1d 0cac
00000060: 5116 0c29 f1f1 ef07 be3d e018 8122 ead8
00000070: 20a7 e90a dbe9 ddf9 7f16 fc63 eadf 2500
00000080: 483b 53fb 1dd3 40cc d803 d9f2 19ff f1e2
00000090: 137f fe2a e207 fc2c 0c2e 2040 14dc f4fa
000000a0: fc2a 3c0b 1d04 d4e4 cf5a 827f bb6d a1eb
000000b0: 10ad b55c ac02 5a46 c4aa 32d0 489f f9f2
000000c0: fc0b faee 1abd 030e c09d 0223 f1fa b322
000000d0: fa27 022d 26ff 81e5 fa9f cc5a 3ed0 b417
000000e0: 2bbe 1219 2a50 d1ea d6b3 d8fb 0305 0c7f
000000f0: b030 0316 9cfe f922 eae4 4941 8f7f eedc

model/linear_bottleneck_block_4/batch_normalization_13/FusedBatchNormV3;model/linear_bottleneck_block_4/depthwise_conv2d_8/depthwise;model/linear_bottleneck_block_4/depthwise_conv2d_8/BiasAdd/ReadVariableOp;model/linear_bottleneck_block_4/depthwise_conv2d_8/BiasAdd1 i1 [1, 3, 3, 24]
7 -93 113 -37 127 -17 127 -127
127 -76 -10 7 -54 127 -111 2
105 -66 45 -85 69 32 71 100
-109 -97 53 -3 28 -52 42 -54
106 56 20 -127 -127 50 71 104
122 -127 127 127 45 116 112 127
-127 67 -43 29 77 -95 12 25
22 113 -2 -17 -102 -41 127 17
-19 -124 38 -3 127 104 7 91
-29 -106 127 -47 100 -34 -6 22
74 19 127 -105 41 122 -86 127
-21 -90 23 15 81 44 5 48
-56 -127 8 -66 -56 -65 -83 2
103 127 104 -36 19 83 58 42
38 38 57 83 11 78 127 71
-87 15 17 -40 -10 -90 -108 18
76 85 -14 -64 10 -37 107 8
18 -75 42 24 33 127 3 99
83 -126 -21 -60 -58 47 -89 48
-44 60 73 -86 -9 30 -12 59
73 31 -12 23 58 16 -40 -34
28 -10 -7 -127 -33 -127 30 -52
-28 89 83 33 -69 103 -5 46
127 60 1 -15 25 32 -31 11
36 0 -94 -3 -79 20 48 -78
34 34 99 -44 -36 -30 35 -13
-45 -43 61 7 36 41 1 29
00000000: 07a3 71db 7fef 7f81 7fb4 f607 ca7f 9102
00000010: 69be 2dab 4520 4764 939f 35fd 1ccc 2aca
00000020: 6a38 1481 8132 4768 7a81 7f7f 2d74 707f
00000030: 8143 d51d 4da1 0c19 1671 feef 9ad7 7f11
00000040: ed84 26fd 7f68 075b e396 7fd1 64de fa16
00000050: 4a13 7f97 297a aa7f eba6 170f 512c 0530
00000060: c881 08be c8bf ad02 677f 68dc 1353 3a2a
00000070: 2626 3953 0b4e 7f47 a90f 11d8 f6a6 9412
00000080: 4c55 f2c0 0adb 6b08 12b5 2a18 217f 0363
00000090: 5382 ebc4 c62f a730 d43c 49aa f71e f43b
000000a0: 491f f417 3a10 d8de 1cf6 f981 df81 1ecc
000000b0: e459 5321 bb67 fb2e 7f3c 01f1 1920 e10b
000000c0: 2400 a2fd b114 30b2 2222 63d4 dce2 23f3
000000d0: d3d5 3d07 2429 011d
