etinynet_int8.tflite (tflite, 636616 bytes, 44 tensors)

model/dense/MatMul i1 [200, 384] scale=0.0064019156 zero_point=0
0	0x12	0.11523448
1	0x03	0.019205747
2	0x4a	0.47374174
3	0x3c	0.38411492
4	0x3a	0.3713111
5	0xd5	-0.27528238
6	0x39	0.3649092
7	0xf8	-0.051215325
8	0xed	-0.1216364
9	0xe7	-0.16004789
10	0xf5	-0.07042107
11	0x1b	0.17285173
12	0x1e	0.19205746
13	0xdf	-0.21126321
14	0xfe	-0.012803831
15	0xb7	-0.46733984
16	0xef	-0.10883257
17	0xf7	-0.05761724
18	0xfc	-0.025607662
19	0x44	0.43533027
20	0x23	0.22406705
21	0x0e	0.08962682
22	0xe8	-0.15364598
23	0xc1	-0.40332067
24	0xd2	-0.2944881
25	0xd9	-0.24967471
26	0xf9	-0.04481341
27	0xe9	-0.14724405
28	0xe2	-0.19205746
29	0xea	-0.14084214
30	0x25	0.23687087
31	0xdb	-0.23687087
32	0xf5	-0.07042107
33	0xf1	-0.09602873
34	0xec	-0.12803832
35	0xd2	-0.2944881
36	0x19	0.16004789
37	0x1f	0.19845939
38	0xcd	-0.3264977
39	0x42	0.42252642
40	0xe1	-0.19845939
41	0xf8	-0.051215325
42	0x15	0.13444023
43	0x23	0.22406705
44	0x59	0.5697705
45	0xe4	-0.17925364
46	0x0e	0.08962682
47	0xd4	-0.28168428
48	0xc6	-0.3713111
49	0xf4	-0.07682299
50	0xe7	-0.16004789
51	0xe7	-0.16004789
52	0xc8	-0.35850728
53	0xc6	-0.3713111
54	0xfb	-0.03200958
55	0xe7	-0.16004789
56	0xec	-0.12803832
57	0x35	0.33930153
58	0x05	0.03200958
59	0x18	0.15364598
60	0x34	0.3328996
61	0x07	0.04481341
62	0x00	0.0
63	0xf4	-0.07682299
64	0xdf	-0.21126321
65	0x1d	0.18565555
66	0xef	-0.10883257
67	0xef	-0.10883257
68	0xb9	-0.454536
69	0x28	0.25607663
70	0xdb	-0.23687087
71	0xe5	-0.17285173
72	0xdf	-0.21126321
73	0xfb	-0.03200958
74	0x46	0.4481341
75	0x50	0.51215327
76	0xa0	-0.6145839
77	0xf3	-0.0832249
78	0x1f	0.19845939
79	0x06	0.038411494
80	0xdc	-0.23046896
81	0xea	-0.14084214
82	0xfe	-0.012803831
83	0xf2	-0.08962682
84	0x19	0.16004789
85	0x38	0.35850728
86	0xfd	-0.019205747
87	0x5b	0.5825743
88	0x2e	0.2944881
89	0x26	0.2432728
90	0x49	0.46733984
91	0xd2	-0.2944881
92	0xe4	-0.17925364
93	0xd5	-0.27528238
94	0xfc	-0.025607662
95	0xc8	-0.35850728
96	0xea	-0.14084214
97	0x1c	0.17925364
98	0x28	0.25607663
99	0xfd	-0.019205747
100	0x2d	0.2880862
101	0x37	0.35210535
102	0xf3	-0.0832249
103	0x12	0.11523448
104	0xd1	-0.30089003
105	0xbe	-0.42252642
106	0x1a	0.1664498
107	0x2b	0.27528238
108	0x1d	0.18565555
109	0xf0	-0.10243065
110	0xe0	-0.2048613
111	0xf5	-0.07042107
112	0x15	0.13444023
113	0x34	0.3328996
114	0xcd	-0.3264977
115	0xfe	-0.012803831
116	0xe9	-0.14724405
117	0x17	0.14724405
118	0x2d	0.2880862
119	0x21	0.21126321
120	0xde	-0.21766514
121	0xee	-0.11523448
122	0x10	0.10243065
123	0x50	0.51215327
124	0xea	-0.14084214
125	0xcb	-0.33930153
126	0x07	0.04481341
127	0xed	-0.1216364
128	0x41	0.41612452
129	0x06	0.038411494
130	0xbd	-0.42892835
131	0x29	0.26247853
132	0x04	0.025607662
133	0x00	0.0
134	0x31	0.31369385
135	0xe9	-0.14724405
136	0x10	0.10243065
137	0xcc	-0.3328996
138	0x30	0.30729195
139	0xcc	-0.3328996
140	0xeb	-0.13444023
141	0xf8	-0.051215325
142	0xc7	-0.3649092
143	0x39	0.3649092
144	0xda	-0.2432728
145	0xc5	-0.37771302
146	0xee	-0.11523448
147	0x1d	0.18565555
148	0xe4	-0.17925364
149	0x11	0.10883257
150	0xd5	-0.27528238
151	0xe3	-0.18565555
152	0x0a	0.06401916
153	0xe1	-0.19845939
154	0x1e	0.19205746
155	0x07	0.04481341
156	0xce	-0.32009578
157	0xd2	-0.2944881
158	0x1d	0.18565555
159	0x32	0.32009578
160	0x05	0.03200958
161	0x06	0.038411494
162	0x27	0.24967471
163	0xf7	-0.05761724
164	0xd5	-0.27528238
165	0xe3	-0.18565555
166	0x1e	0.19205746
167	0xf8	-0.051215325
168	0xd9	-0.24967471
169	0x09	0.05761724
170	0xc1	-0.40332067
171	0x08	0.051215325
172	0x28	0.25607663
173	0x0c	0.07682299
174	0x06	0.038411494
175	0x24	0.23046896
176	0xf3	-0.0832249
177	0xec	-0.12803832
178	0x3c	0.38411492
179	0xcf	-0.31369385
180	0xf4	-0.07682299
181	0xca	-0.34570345
182	0xfa	-0.038411494
183	0x12	0.11523448
184	0x05	0.03200958
185	0xcf	-0.31369385
186	0xd2	-0.2944881
187	0x24	0.23046896
188	0x21	0.21126321
189	0x3c	0.38411492
190	0xf4	-0.07682299
191	0xef	-0.10883257
192	0x02	0.012803831
193	0x5b	0.5825743
194	0xec	-0.12803832
195	0xd6	-0.26888046
196	0xe0	-0.2048613
197	0xe3	-0.18565555
198	0x2c	0.28168428
199	0xf7	-0.05761724
200	0x33	0.3264977
201	0xd4	-0.28168428
202	0x48	0.46093792
203	0xd1	-0.30089003
204	0xe1	-0.19845939
205	0xe5	-0.17285173
206	0xfe	-0.012803831
207	0xec	-0.12803832
208	0xcd	-0.3264977
209	0x23	0.22406705
210	0xdf	-0.21126321
211	0xe1	-0.19845939
212	0xea	-0.14084214
213	0x3c	0.38411492
214	0xf1	-0.09602873
215	0xef	-0.10883257
216	0x12	0.11523448
217	0xc4	-0.38411492
218	0xc5	-0.37771302
219	0xff	-0.0064019156
220	0xfa	-0.038411494
221	0xd5	-0.27528238
222	0xee	-0.11523448
223	0xcc	-0.3328996
224	0xd9	-0.24967471
225	0xed	-0.1216364
226	0xe3	-0.18565555
227	0xd9	-0.24967471
228	0x1e	0.19205746
229	0xd5	-0.27528238
230	0xd0	-0.30729195
231	0xc1	-0.40332067
232	0xe2	-0.19205746
233	0x3d	0.39051685
234	0xeb	-0.13444023
235	0xf2	-0.08962682
236	0xf6	-0.06401916
237	0x36	0.34570345
238	0xea	-0.14084214
239	0x2b	0.27528238
240	0x2e	0.2944881
241	0x14	0.12803832
242	0x27	0.24967471
243	0xe0	-0.2048613
244	0xfe	-0.012803831
245	0x01	0.0064019156
246	0x07	0.04481341
247	0x33	0.3264977
248	0x1c	0.17925364
249	0xd8	-0.25607663
250	0xc4	-0.38411492
251	0x17	0.14724405
252	0x15	0.13444023
253	0xed	-0.1216364
254	0xf3	-0.0832249
255	0x2a	0.26888046

model/dense_linear_bottleneck_block_4/sequential_2/conv2d_16/Conv2D i1 [384, 1, 1, 192]
0	0xca	-54
1	0xd6	-42
2	0xdd	-35
3	0x45	69
4	0xe4	-28
5	0x29	41
6	0xd9	-39
7	0x08	8
8	0xf8	-8
9	0xea	-22
10	0x0b	11
11	0xfa	-6
12	0x32	50
13	0xfa	-6
14	0x43	67
15	0xf0	-16
16	0xf1	-15
17	0xef	-17
18	0x98	-104
19	0x1f	31
20	0xbb	-69
21	0x21	33
22	0x03	3
23	0xf4	-12
24	0xa3	-93
25	0xae	-82
26	0x01	1
27	0xba	-70
28	0x59	89
29	0x42	66
30	0xfe	-2
31	0x31	49
32	0x54	84
33	0xbf	-65
34	0xdd	-35
35	0x1f	31
36	0x15	21
37	0xc7	-57
38	0xf0	-16
39	0x1d	29
40	0x13	19
41	0x1d	29
42	0x12	18
43	0xd5	-43
44	0x16	22
45	0xe3	-29
46	0x26	38
47	0xfa	-6
48	0xf0	-16
49	0xed	-19
50	0x09	9
51	0x24	36
52	0xc0	-64
53	0x02	2
54	0xe9	-23
55	0xfe	-2
56	0xba	-70
57	0xc7	-57
58	0xfd	-3
59	0x0d	13
60	0x15	21
61	0xdb	-37
62	0x02	2
63	0x2d	45
64	0x16	22
65	0x14	20
66	0xf8	-8
67	0xe2	-30
68	0xde	-34
69	0x21	33
70	0x57	87
71	0xfd	-3
72	0xab	-85
73	0xe3	-29
74	0x27	39
75	0x1c	28
76	0xec	-20
77	0x07	7
78	0xfb	-5
79	0x16	22
80	0xe5	-27
81	0x24	36
82	0xe0	-32
83	0xe8	-24
84	0xad	-83
85	0x0e	14
86	0x8a	-118
87	0xe8	-24
88	0x09	9
89	0xeb	-21
90	0xbf	-65
91	0xc8	-56
92	0x30	48
93	0x0a	10
94	0xaa	-86
95	0x22	34
96	0x2f	47
97	0xd3	-45
98	0x47	71
99	0xf7	-9
100	0xf7	-9
101	0x81	-127
102	0x3a	58
103	0xcc	-52
104	0x3a	58
105	0xd4	-44
106	0xf6	-10
107	0xe0	-32
108	0xfc	-4
109	0x06	6
110	0xda	-38
111	0xf1	-15
112	0x30	48
113	0xdd	-35
114	0xf0	-16
115	0xcf	-49
116	0xf1	-15
117	0x18	24
118	0x14	20
119	0x20	32
120	0x41	65
121	0xf5	-11
122	0xb4	-76
123	0xe6	-26
124	0xe0	-32
125	0xf8	-8
126	0xc0	-64
127	0x01	1
128	0x18	24
129	0xfb	-5
130	0x11	17
131	0x07	7
132	0xc5	-59
133	0xe7	-25
134	0x15	21
135	0xd7	-41
136	0xd3	-45
137	0xe4	-28
138	0xc9	-55
139	0xfe	-2
140	0xa6	-90
141	0xda	-38
142	0xe4	-28
143	0xd4	-44
144	0xc3	-61
145	0xdf	-33
146	0x08	8
147	0x0b	11
148	0x0e	14
149	0x8a	-118
150	0x31	49
151	0xdf	-33
152	0x0d	13
153	0xbf	-65
154	0xf1	-15
155	0xeb	-21
156	0x1a	26
157	0x22	34
158	0x26	38
159	0x1c	28
160	0xf7	-9
161	0xd3	-45
162	0xe9	-23
163	0x22	34
164	0xfc	-4
165	0x3c	60
166	0x36	54
167	0xdf	-33
168	0xad	-83
169	0x01	1
170	0xcc	-52
171	0x3e	62
172	0x43	67
173	0xf0	-16
174	0xe9	-23
175	0xd5	-43
176	0x3b	59
177	0xe7	-25
178	0x55	85
179	0xba	-70
180	0xf8	-8
181	0x25	37
182	0x45	69
183	0x04	4
184	0xec	-20
185	0xf2	-14
186	0x08	8
187	0xe0	-32
188	0xed	-19
189	0xb7	-73
190	0x03	3
191	0xcd	-51
192	0x07	7
193	0x01	1
194	0x01	1
195	0x4c	76
196	0xdc	-36
197	0xee	-18
198	0xfe	-2
199	0xf8	-8
200	0x23	35
201	0x06	6
202	0xec	-20
203	0xe8	-24
204	0x67	103
205	0xcd	-51
206	0x26	38
207	0x09	9
208	0xde	-34
209	0x05	5
210	0xe9	-23
211	0xed	-19
212	0x23	35
213	0x1d	29
214	0xcb	-53
215	0x0b	11
216	0x71	113
217	0x05	5
218	0x2d	45
219	0x67	103
220	0x08	8
221	0xc2	-62
222	0x70	112
223	0x0e	14
224	0xf3	-13
225	0x05	5
226	0x2d	45
227	0xeb	-21
228	0x47	71
229	0xfc	-4
230	0x10	16
231	0xb8	-72
232	0xed	-19
233	0x22	34
234	0xd9	-39
235	0xec	-20
236	0xd9	-39
237	0xf6	-10
238	0xc7	-57
239	0x25	37
240	0x1c	28
241	0xd7	-41
242	0x14	20
243	0x20	32
244	0x1a	26
245	0x29	41
246	0x44	68
247	0xac	-84
248	0xb1	-79
249	0x13	19
250	0xeb	-21
251	0xeb	-21
252	0xd2	-46
253	0xe5	-27
254	0x24	36
255	0xf1	-15

model/dense_linear_bottleneck_block_4/batch_normalization_41/FusedBatchNormV3;model/dense_linear_bottleneck_block_4/depthwise_conv2d_25/depthwise;model/dense_linear_bottleneck_block_4/depthwise_conv2d_25/BiasAdd/ReadVariableOp;model/dense_linear_bottleneck_block_4/depthwise_conv2d_25/BiasAdd;model/dense_linear_bottleneck_block_4/sequential_2/conv2d_16/Conv2D1 i1 [1, 3, 3, 384]
0	0x30	48
1	0x8c	-116
2	0x81	-127
3	0x65	101
4	0x82	-126
5	0x90	-112
6	0x60	96
7	0x81	-127
8	0xc6	-58
9	0x87	-121
10	0x14	20
11	0x6f	111
12	0x34	52
13	0x77	119
14	0x50	80
15	0x25	37
16	0xc9	-55
17	0x56	86
18	0x70	112
19	0x7c	124
20	0x66	102
21	0x9c	-100
22	0x96	-106
23	0x8b	-117
24	0xeb	-21
25	0x79	121
26	0xa6	-90
27	0x62	98
28	0xa8	-88
29	0x65	101
30	0x41	65
31	0xab	-85
32	0x89	-119
33	0x40	64
34	0x8f	-113
35	0x96	-106
36	0x9a	-102
37	0x7f	127
38	0x84	-124
39	0x9d	-99
40	0x81	-127
41	0x7f	127
42	0x7c	124
43	0x81	-127
44	0x49	73
45	0x97	-105
46	0x75	117
47	0xb2	-78
48	0x17	23
49	0x81	-127
50	0x7f	127
51	0xd8	-40
52	0x7b	123
53	0x90	-112
54	0x6f	111
55	0x84	-124
56	0x96	-106
57	0x81	-127
58	0x84	-124
59	0x81	-127
60	0x47	71
61	0x59	89
62	0xa6	-90
63	0x73	115
64	0xe4	-28
65	0xac	-84
66	0x81	-127
67	0x82	-126
68	0x81	-127
69	0x47	71
70	0x7f	127
71	0x49	73
72	0x9f	-97
73	0x81	-127
74	0x30	48
75	0x16	22
76	0x6d	109
77	0xb5	-75
78	0x4a	74
79	0x79	121
80	0x65	101
81	0x81	-127
82	0xa2	-94
83	0x8d	-115
84	0xb5	-75
85	0xac	-84
86	0x81	-127
87	0x4b	75
88	0x7f	127
89	0x94	-108
90	0x81	-127
91	0x81	-127
92	0x74	116
93	0x7f	127
94	0x8c	-116
95	0x18	24
96	0x81	-127
97	0x12	18
98	0x8e	-114
99	0x02	2
100	0x5b	91
101	0x81	-127
102	0x56	86
103	0xa3	-93
104	0x6b	107
105	0x98	-104
106	0xd3	-45
107	0x70	112
108	0x55	85
109	0x81	-127
110	0x2a	42
111	0xa8	-88
112	0xa2	-94
113	0x68	104
114	0x9c	-100
115	0x8f	-113
116	0x95	-107
117	0x2e	46
118	0x88	-120
119	0xb2	-78
120	0x63	99
121	0x93	-109
122	0x81	-127
123	0x77	119
124	0xa1	-95
125	0x3a	58
126	0x86	-122
127	0x81	-127
128	0x54	84
129	0xd4	-44
130	0x81	-127
131	0x89	-119
132	0x4c	76
133	0x9e	-98
134	0x8d	-115
135	0x7d	125
136	0xa0	-96
137	0x7f	127
138	0x10	16
139	0x81	-127
140	0x81	-127
141	0x3f	63
142	0x8a	-118
143	0x90	-112
144	0x81	-127
145	0x81	-127
146	0x7f	127
147	0xad	-83
148	0xa9	-87
149	0x81	-127
150	0x7c	124
151	0x81	-127
152	0xa1	-95
153	0xd9	-39
154	0x81	-127
155	0xb4	-76
156	0x6e	110
157	0x65	101
158	0xa1	-95
159	0xa1	-95
160	0x85	-123
161	0x13	19
162	0x57	87
163	0x81	-127
164	0x67	103
165	0x87	-121
166	0x7f	127
167	0x7a	122
168	0x8f	-113
169	0x8c	-116
170	0x7f	127
171	0xac	-84
172	0x3e	62
173	0xce	-50
174	0x81	-127
175	0x81	-127
176	0x99	-103
177	0x7f	127
178	0x33	51
179	0x7f	127
180	0x98	-104
181	0xda	-38
182	0x3c	60
183	0x81	-127
184	0x8f	-113
185	0x7f	127
186	0x60	96
187	0x21	33
188	0x97	-105
189	0x4d	77
190	0xc7	-57
191	0xea	-22
192	0x9d	-99
193	0x62	98
194	0x9a	-102
195	0x81	-127
196	0x81	-127
197	0x7f	127
198	0x7f	127
199	0xa1	-95
200	0x4a	74
201	0x91	-111
202	0xea	-22
203	0xa1	-95
204	0x7f	127
205	0x79	121
206	0x94	-108
207	0xb0	-80
208	0x85	-123
209	0x4f	79
210	0x88	-120
211	0xaa	-86
212	0x8a	-118
213	0x82	-126
214	0xcc	-52
215	0xe8	-24
216	0x81	-127
217	0x95	-107
218	0xa6	-90
219	0x6f	111
220	0x83	-125
221	0x7f	127
222	0x7a	122
223	0x05	5
224	0x9a	-102
225	0x7f	127
226	0xaa	-86
227	0x81	-127
228	0x4f	79
229	0x81	-127
230	0x7f	127
231	0xad	-83
232	0xa1	-95
233	0x7a	122
234	0x7f	127
235	0x50	80
236	0x73	115
237	0x37	55
238	0x1a	26
239	0x81	-127
240	0x48	72
241	0x7f	127
242	0xac	-84
243	0x83	-125
244	0x7f	127
245	0x70	112
246	0xc5	-59
247	0x81	-127
248	0x7f	127
249	0x8b	-117
250	0x89	-119
251	0x8a	-118
252	0x1c	28
253	0x9f	-97
254	0xb6	-74
255	0x72	114

model/dense_linear_bottleneck_block_4/conv2d_15/Conv2D i1 [384, 1, 1, 192]
0	0xed	-19
1	0x34	52
2	0x15	21
3	0xc7	-57
4	0x14	20
5	0x4b	75
6	0xee	-18
7	0x23	35
8	0xfc	-4
9	0xb9	-71
10	0xe0	-32
11	0x17	23
12	0xee	-18
13	0xab	-85
14	0x3b	59
15	0xf1	-15
16	0xea	-22
17	0x13	19
18	0x1a	26
19	0xff	-1
20	0xde	-34
21	0xc9	-55
22	0x0d	13
23	0xd0	-48
24	0x28	40
25	0xd2	-46
26	0x1b	27
27	0xd3	-45
28	0x1e	30
29	0xe9	-23
30	0xf1	-15
31	0xfa	-6
32	0x14	20
33	0x2e	46
34	0x15	21
35	0xed	-19
36	0x00	0
37	0x36	54
38	0x1f	31
39	0x14	20
40	0xe7	-25
41	0xea	-22
42	0x08	8
43	0x1f	31
44	0x0d	13
45	0x29	41
46	0xe4	-28
47	0xee	-18
48	0x0a	10
49	0xc2	-62
50	0x10	16
51	0x16	22
52	0x57	87
53	0xf3	-13
54	0x15	21
55	0x0c	12
56	0x30	48
57	0x35	53
58	0xcc	-52
59	0x30	48
60	0x43	67
61	0xd2	-46
62	0xfe	-2
63	0xf4	-12
64	0x0b	11
65	0x03	3
66	0x20	32
67	0xf9	-7
68	0xfe	-2
69	0x22	34
70	0x81	-127
71	0x0e	14
72	0x2c	44
73	0x1e	30
74	0xf3	-13
75	0xdc	-36
76	0xd5	-43
77	0x0a	10
78	0x08	8
79	0x29	41
80	0x1b	27
81	0xff	-1
82	0x36	54
83	0x02	2
84	0xf7	-9
85	0x2c	44
86	0x46	70
87	0xe5	-27
88	0xf8	-8
89	0xf2	-14
90	0xfb	-5
91	0xeb	-21
92	0x37	55
93	0x1e	30
94	0x0f	15
95	0x33	51
96	0xcc	-52
97	0x00	0
98	0x13	19
99	0x08	8
100	0xe7	-25
101	0xf9	-7
102	0xe5	-27
103	0x1c	28
104	0xd9	-39
105	0x39	57
106	0x0e	14
107	0xde	-34
108	0x2e	46
109	0xd9	-39
110	0x32	50
111	0xa1	-95
112	0x35	53
113	0xc1	-63
114	0xec	-20
115	0x70	112
116	0xd2	-46
117	0xf5	-11
118	0x07	7
119	0xee	-18
120	0xce	-50
121	0xe2	-30
122	0xd2	-46
123	0xe9	-23
124	0xeb	-21
125	0xcf	-49
126	0xfd	-3
127	0xfd	-3
128	0xf5	-11
129	0x00	0
130	0x23	35
131	0xfa	-6
132	0xf7	-9
133	0x30	48
134	0x17	23
135	0xe5	-27
136	0x1b	27
137	0xea	-22
138	0x20	32
139	0x1e	30
140	0xf3	-13
141	0xe7	-25
142	0xff	-1
143	0xf4	-12
144	0x13	19
145	0xe2	-30
146	0xe8	-24
147	0xf2	-14
148	0x54	84
149	0xe7	-25
150	0x15	21
151	0xf7	-9
152	0x2d	45
153	0x28	40
154	0xed	-19
155	0x0d	13
156	0x04	4
157	0xa1	-95
158	0x11	17
159	0xec	-20
160	0x71	113
161	0x43	67
162	0x14	20
163	0xbd	-67
164	0xfc	-4
165	0x1a	26
166	0xe4	-28
167	0x2a	42
168	0xea	-22
169	0xfd	-3
170	0xea	-22
171	0xe5	-27
172	0xbe	-66
173	0xca	-54
174	0x22	34
175	0x22	34
176	0x13	19
177	0x05	5
178	0x6c	108
179	0xef	-17
180	0x53	83
181	0x09	9
182	0xa4	-92
183	0xfb	-5
184	0x1a	26
185	0x2a	42
186	0x13	19
187	0xeb	-21
188	0x1d	29
189	0x3e	62
190	0xf2	-14
191	0xef	-17
192	0xd0	-48
193	0x96	-106
194	0x3f	63
195	0xef	-17
196	0x39	57
197	0x4c	76
198	0x31	49
199	0xdf	-33
200	0xbe	-66
201	0x34	52
202	0x5b	91
203	0x18	24
204	0x58	88
205	0xb5	-75
206	0xce	-50
207	0xf2	-14
208	0xd2	-46
209	0xab	-85
210	0x4b	75
211	0x52	82
212	0xde	-34
213	0xdc	-36
214	0x08	8
215	0xaa	-86
216	0x27	39
217	0xd7	-41
218	0xb5	-75
219	0x0b	11
220	0x51	81
221	0x01	1
222	0x26	38
223	0xe1	-31
224	0xe1	-31
225	0x0d	13
226	0x78	120
227	0x94	-108
228	0x7f	127
229	0x1b	27
230	0x37	55
231	0x6f	111
232	0xf5	-11
233	0xfc	-4
234	0xf8	-8
235	0xf1	-15
236	0xef	-17
237	0x2d	45
238	0xc9	-55
239	0x3a	58
240	0xb3	-77
241	0xf6	-10
242	0x0a	10
243	0x01	1
244	0x5e	94
245	0xff	-1
246	0x5f	95
247	0xeb	-21
248	0x1a	26
249	0x13	19
250	0x15	21
251	0x06	6
252	0x20	32
253	0x02	2
254	0xa9	-87
255	0x16	22

model/dense_linear_bottleneck_block_4/batch_normalization_39/FusedBatchNormV3;model/dense_linear_bottleneck_block_4/depthwise_conv2d_24/depthwise;model/dense_linear_bottleneck_block_4/depthwise_conv2d_24/BiasAdd/ReadVariableOp;model/dense_linear_bottleneck_block_4/depthwise_conv2d_24/BiasAdd1 i1 [1, 3, 3, 192]
0	0x14	20
1	0x9b	-101
2	0x3d	61
3	0xc0	-64
4	0x59	89
5	0x17	23
6	0xc0	-64
7	0xba	-70
8	0x7f	127
9	0x7e	126
10	0xfd	-3
11	0x8e	-114
12	0xaf	-81
13	0x81	-127
14	0xc0	-64
15	0xd3	-45
16	0xb4	-76
17	0x8d	-115
18	0x76	118
19	0x05	5
20	0x57	87
21	0x7a	122
22	0xbe	-66
23	0x54	84
24	0x20	32
25	0x7f	127
26	0xb3	-77
27	0x56	86
28	0x07	7
29	0x81	-127
30	0x7f	127
31	0x03	3
32	0xf4	-12
33	0xc1	-63
34	0x94	-108
35	0xc6	-58
36	0x10	16
37	0xbb	-69
38	0x6c	108
39	0x73	115
40	0x37	55
41	0x5b	91
42	0x5f	95
43	0xe7	-25
44	0xd3	-45
45	0xaf	-81
46	0x8d	-115
47	0x94	-108
48	0x4b	75
49	0x72	114
50	0x7f	127
51	0x82	-126
52	0xed	-19
53	0x19	25
54	0xa5	-91
55	0x83	-125
56	0xc5	-59
57	0x85	-123
58	0x81	-127
59	0x96	-106
60	0x4f	79
61	0x27	39
62	0x0b	11
63	0xf5	-11
64	0xaa	-86
65	0x81	-127
66	0x07	7
67	0x7f	127
68	0x81	-127
69	0x6c	108
70	0xa7	-89
71	0xc1	-63
72	0xf6	-10
73	0x87	-121
74	0x8d	-115
75	0x04	4
76	0xe0	-32
77	0xab	-85
78	0x8f	-113
79	0x2e	46
80	0x73	115
81	0x6d	109
82	0x61	97
83	0x97	-105
84	0x81	-127
85	0x01	1
86	0x98	-104
87	0x67	103
88	0x2d	45
89	0x95	-107
90	0x83	-125
91	0x1c	28
92	0xcc	-52
93	0x81	-127
94	0x81	-127
95	0x11	17
96	0x81	-127
97	0x85	-123
98	0x5d	93
99	0x93	-109
100	0x78	120
101	0x9d	-99
102	0x83	-125
103	0x81	-127
104	0x4f	79
105	0x8d	-115
106	0x2b	43
107	0x7f	127
108	0xb5	-75
109	0x4b	75
110	0x1c	28
111	0x47	71
112	0x28	40
113	0x5b	91
114	0x81	-127
115	0x29	41
116	0x7f	127
117	0x66	102
118	0x81	-127
119	0x88	-120
120	0xe3	-29
121	0xfc	-4
122	0xde	-34
123	0x7f	127
124	0x5d	93
125	0x53	83
126	0xd7	-41
127	0x8b	-117
128	0x9e	-98
129	0xfb	-5
130	0xf0	-16
131	0xd3	-45
132	0x56	86
133	0x81	-127
134	0x88	-120
135	0xf6	-10
136	0x81	-127
137	0x9f	-97
138	0xf4	-12
139	0xae	-82
140	0x81	-127
141	0xee	-18
142	0x01	1
143	0x81	-127
144	0x63	99
145	0x7f	127
146	0x56	86
147	0xf5	-11
148	0xe1	-31
149	0x65	101
150	0xeb	-21
151	0xe7	-25
152	0x42	66
153	0x81	-127
154	0x77	119
155	0xd8	-40
156	0x23	35
157	0xe3	-29
158	0xc3	-61
159	0xa0	-96
160	0x81	-127
161	0xf9	-7
162	0x4b	75
163	0x30	48
164	0x4b	75
165	0x7f	127
166	0xe0	-32
167	0xd6	-42
168	0x46	70
169	0xa4	-92
170	0x7f	127
171	0xca	-54
172	0xc0	-64
173	0x60	96
174	0x1c	28
175	0xcc	-52
176	0x59	89
177	0xc4	-60
178	0x59	89
179	0xaf	-81
180	0x81	-127
181	0xbb	-69
182	0xf8	-8
183	0x76	118
184	0x31	49
185	0xf7	-9
186	0x26	38
187	0x7f	127
188	0xf8	-8
189	0xaa	-86
190	0xa4	-92
191	0xae	-82
192	0xf8	-8
193	0x95	-107
194	0x26	38
195	0xb9	-71
196	0x3e	62
197	0x5e	94
198	0x97	-105
199	0xb4	-76
200	0x18	24
201	0x77	119
202	0xf9	-7
203	0xc2	-62
204	0xde	-34
205	0xab	-85
206	0x15	21
207	0xf7	-9
208	0xbe	-66
209	0x94	-108
210	0x7a	122
211	0xf7	-9
212	0x78	120
213	0x5e	94
214	0xa5	-91
215	0x51	81
216	0x49	73
217	0x57	87
218	0xce	-50
219	0x34	52
220	0x60	96
221	0xb6	-74
222	0x6f	111
223	0xf5	-11
224	0xbe	-66
225	0xb3	-77
226	0x81	-127
227	0xde	-34
228	0x44	68
229	0xd9	-39
230	0x74	116
231	0x7f	127
232	0x17	23
233	0x5c	92
234	0x73	115
235	0xf9	-7
236	0xfb	-5
237	0xbe	-66
238	0x81	-127
239	0xe4	-28
240	0x2d	45
241	0x7f	127
242	0x49	73
243	0x92	-110
244	0x9e	-98
245	0xdd	-35
246	0xf6	-10
247	0x91	-111
248	0xe8	-24
249	0xb0	-80
250	0x93	-109
251	0x8e	-114
252	0x7f	127
253	0xf5	-11
254	0xf9	-7
255	0xf9	-7

model/dense_linear_bottleneck_block_3/sequential_1/conv2d_14/Conv2D i1 [192, 1, 1, 168]
0	0xe9	-23
1	0x06	6
2	0x12	18
3	0xf5	-11
4	0x2f	47
5	0xef	-17
6	0xbc	-68
7	0x07	7
8	0x35	53
9	0x25	37
10	0xfa	-6
11	0xce	-50
12	0x01	1
13	0x26	38
14	0x03	3
15	0x1a	26
16	0x03	3
17	0xe9	-23
18	0xd9	-39
19	0xf5	-11
20	0x10	16
21	0xdc	-36
22	0xef	-17
23	0x17	23
24	0xcf	-49
25	0xf6	-10
26	0xe5	-27
27	0x0f	15
28	0x59	89
29	0xf2	-14
30	0xf5	-11
31	0x2c	44
32	0xb3	-77
33	0x24	36
34	0xff	-1
35	0xd5	-43
36	0xf1	-15
37	0xd9	-39
38	0xeb	-21
39	0x2a	42
40	0xe1	-31
41	0xfe	-2
42	0xb8	-72
43	0x11	17
44	0x1f	31
45	0x02	2
46	0x23	35
47	0x7f	127
48	0x3b	59
49	0x2d	45
50	0x08	8
51	0xfc	-4
52	0xc4	-60
53	0x17	23
54	0xec	-20
55	0x3d	61
56	0x10	16
57	0x06	6
58	0xf5	-11
59	0x8b	-117
60	0xd3	-45
61	0xe4	-28
62	0x23	35
63	0xde	-34
64	0xfa	-6
65	0x23	35
66	0xe2	-30
67	0xf8	-8
68	0x9e	-98
69	0xf9	-7
70	0x03	3
71	0x09	9
72	0xc0	-64
73	0xff	-1
74	0xdc	-36
75	0x25	37
76	0xcb	-53
77	0xfd	-3
78	0x50	80
79	0xe4	-28
80	0x42	66
81	0x15	21
82	0x10	16
83	0x0a	10
84	0xc2	-62
85	0xdf	-33
86	0x3b	59
87	0xfa	-6
88	0x11	17
89	0xe5	-27
90	0xd5	-43
91	0xee	-18
92	0x21	33
93	0xc0	-64
94	0xde	-34
95	0xf6	-10
96	0xc6	-58
97	0xea	-22
98	0x13	19
99	0x49	73
100	0x07	7
101	0xf8	-8
102	0x0a	10
103	0x0f	15
104	0xa5	-91
105	0x61	97
106	0xb8	-72
107	0xf2	-14
108	0xb6	-74
109	0xb3	-77
110	0xf7	-9
111	0xdb	-37
112	0x18	24
113	0xaa	-86
114	0xfb	-5
115	0xb5	-75
116	0xe1	-31
117	0x0f	15
118	0xbb	-69
119	0xdc	-36
120	0xbd	-67
121	0xd9	-39
122	0x14	20
123	0xe1	-31
124	0xd8	-40
125	0xf7	-9
126	0x10	16
127	0xe6	-26
128	0xf2	-14
129	0xef	-17
130	0xc5	-59
131	0x1e	30
132	0xd0	-48
133	0x2e	46
134	0x12	18
135	0xf3	-13
136	0x1a	26
137	0xfc	-4
138	0x15	21
139	0x1b	27
140	0x03	3
141	0xf0	-16
142	0xe8	-24
143	0x2a	42
144	0x27	39
145	0x3c	60
146	0x2f	47
147	0xff	-1
148	0xf4	-12
149	0xc1	-63
150	0xce	-50
151	0x03	3
152	0xe2	-30
153	0x2d	45
154	0xa6	-90
155	0xfd	-3
156	0x0b	11
157	0x07	7
158	0x3d	61
159	0x04	4
160	0xcd	-51
161	0xb4	-76
162	0xfa	-6
163	0xe5	-27
164	0xf9	-7
165	0xd9	-39
166	0xb7	-73
167	0xe8	-24
168	0xde	-34
169	0x05	5
170	0x2c	44
171	0x37	55
172	0xae	-82
173	0xf0	-16
174	0xd7	-41
175	0x41	65
176	0xfa	-6
177	0x07	7
178	0x16	22
179	0xf7	-9
180	0x31	49
181	0x02	2
182	0xfe	-2
183	0x09	9
184	0x28	40
185	0x1a	26
186	0xf0	-16
187	0xea	-22
188	0x42	66
189	0xea	-22
190	0xe9	-23
191	0x03	3
192	0xf4	-12
193	0x0b	11
194	0x02	2
195	0xfc	-4
196	0xd4	-44
197	0x65	101
198	0xe8	-24
199	0x02	2
200	0x0f	15
201	0x16	22
202	0xde	-34
203	0xad	-83
204	0xc7	-57
205	0xda	-38
206	0xff	-1
207	0xa5	-91
208	0x31	49
209	0x0b	11
210	0x10	16
211	0xe7	-25
212	0xdd	-35
213	0xfa	-6
214	0x0d	13
215	0xbf	-65
216	0x7f	127
217	0x29	41
218	0xb5	-75
219	0x81	-127
220	0x16	22
221	0xdf	-33
222	0xe2	-30
223	0xde	-34
224	0x31	49
225	0xf2	-14
226	0x19	25
227	0xea	-22
228	0xb9	-71
229	0xd5	-43
230	0xbe	-66
231	0x18	24
232	0xdd	-35
233	0xf2	-14
234	0xf3	-13
235	0xe5	-27
236	0x25	37
237	0x35	53
238	0x9c	-100
239	0x34	52
240	0x05	5
241	0xf5	-11
242	0xd4	-44
243	0x1a	26
244	0xe4	-28
245	0x05	5
246	0x01	1
247	0xdf	-33
248	0xf9	-7
249	0x07	7
250	0x0e	14
251	0xe1	-31
252	0x1e	30
253	0x32	50
254	0xf4	-12
255	0xf6	-10

model/dense_linear_bottleneck_block_3/batch_normalization_37/FusedBatchNormV3;model/dense_linear_bottleneck_block_3/depthwise_conv2d_23/depthwise;model/dense_linear_bottleneck_block_3/depthwise_conv2d_23/BiasAdd/ReadVariableOp;model/dense_linear_bottleneck_block_3/depthwise_conv2d_23/BiasAdd;model/dense_linear_bottleneck_block_4/depthwise_conv2d_24/depthwise1 i1 [1, 3, 3, 192]
0	0x00	0
1	0x81	-127
2	0x62	98
3	0xd2	-46
4	0xb0	-80
5	0x17	23
6	0x87	-121
7	0x97	-105
8	0x69	105
9	0x81	-127
10	0xb9	-71
11	0xa3	-93
12	0x3b	59
13	0x44	68
14	0x81	-127
15	0xc4	-60
16	0x21	33
17	0x81	-127
18	0x7d	125
19	0xb7	-73
20	0x7c	124
21	0x5d	93
22	0x46	70
23	0x37	55
24	0x95	-107
25	0x46	70
26	0x83	-125
27	0x73	115
28	0x6a	106
29	0x81	-127
30	0x3c	60
31	0xa3	-93
32	0xbe	-66
33	0x81	-127
34	0x9c	-100
35	0x1f	31
36	0x61	97
37	0xb1	-79
38	0x73	115
39	0x7f	127
40	0xaa	-86
41	0x90	-112
42	0x7a	122
43	0x39	57
44	0x66	102
45	0x93	-109
46	0x7f	127
47	0x7f	127
48	0x7e	126
49	0xdc	-36
50	0x7f	127
51	0x8e	-114
52	0x7f	127
53	0x7f	127
54	0xbf	-65
55	0x6e	110
56	0x59	89
57	0x7f	127
58	0x6c	108
59	0x9f	-97
60	0x81	-127
61	0xdd	-35
62	0xdd	-35
63	0x26	38
64	0x81	-127
65	0x93	-109
66	0x7c	124
67	0x7f	127
68	0x72	114
69	0x63	99
70	0x81	-127
71	0x81	-127
72	0xa1	-95
73	0x14	20
74	0x81	-127
75	0xea	-22
76	0x94	-108
77	0xbe	-66
78	0x7f	127
79	0x72	114
80	0x49	73
81	0x6b	107
82	0x81	-127
83	0x4e	78
84	0xae	-82
85	0xb1	-79
86	0xe9	-23
87	0x45	69
88	0xd8	-40
89	0x76	118
90	0x7f	127
91	0x42	66
92	0x65	101
93	0x3b	59
94	0x61	97
95	0x11	17
96	0x81	-127
97	0xe0	-32
98	0x14	20
99	0x11	17
100	0x4e	78
101	0x60	96
102	0xa0	-96
103	0x6e	110
104	0x1c	28
105	0x31	49
106	0xd6	-42
107	0x6e	110
108	0x81	-127
109	0xcf	-49
110	0xb9	-71
111	0x57	87
112	0xb5	-75
113	0xb9	-71
114	0x6e	110
115	0x17	23
116	0x8a	-118
117	0x7f	127
118	0x41	65
119	0x02	2
120	0x4e	78
121	0xa3	-93
122	0xf0	-16
123	0x7a	122
124	0x44	68
125	0xf4	-12
126	0xab	-85
127	0xa7	-89
128	0xbd	-67
129	0x86	-122
130	0x53	83
131	0x6e	110
132	0x7f	127
133	0x7f	127
134	0x72	114
135	0x55	85
136	0x07	7
137	0x7f	127
138	0x8c	-116
139	0xf9	-7
140	0x39	57
141	0xdb	-37
142	0x39	57
143	0xf0	-16
144	0x5b	91
145	0xa3	-93
146	0xcb	-53
147	0x68	104
148	0xa3	-93
149	0x60	96
150	0xd4	-44
151	0x49	73
152	0x9c	-100
153	0x7f	127
154	0x97	-105
155	0x95	-107
156	0x6c	108
157	0x85	-123
158	0x7a	122
159	0x7f	127
160	0x5b	91
161	0xa3	-93
162	0x81	-127
163	0x0e	14
164	0x7b	123
165	0xf4	-12
166	0xb9	-71
167	0x30	48
168	0x79	121
169	0x81	-127
170	0x81	-127
171	0x85	-123
172	0x91	-111
173	0x15	21
174	0x7f	127
175	0x72	114
176	0xef	-17
177	0x0e	14
178	0x81	-127
179	0xd0	-48
180	0xbf	-65
181	0xd2	-46
182	0xe1	-31
183	0x9d	-99
184	0xa9	-87
185	0xb1	-79
186	0xf1	-15
187	0x61	97
188	0xb1	-79
189	0xc3	-61
190	0xb0	-80
191	0x7f	127
192	0x2b	43
193	0x9c	-100
194	0x22	34
195	0xb9	-71
196	0x81	-127
197	0x09	9
198	0xb9	-71
199	0xac	-84
200	0x38	56
201	0x0d	13
202	0xf9	-7
203	0xee	-18
204	0x59	89
205	0x3e	62
206	0xc7	-57
207	0xfd	-3
208	0xf7	-9
209	0x94	-108
210	0x36	54
211	0x03	3
212	0x3e	62
213	0x29	41
214	0xfc	-4
215	0x4b	75
216	0xe6	-26
217	0x57	87
218	0xbc	-68
219	0x4a	74
220	0x53	83
221	0xa5	-91
222	0x4f	79
223	0xa1	-95
224	0xe2	-30
225	0x89	-119
226	0xeb	-21
227	0x36	54
228	0x34	52
229	0xdd	-35
230	0x5b	91
231	0x42	66
232	0xce	-50
233	0xb0	-80
234	0x3c	60
235	0xf7	-9
236	0x26	38
237	0xcd	-51
238	0x5a	90
239	0x32	50
240	0x48	72
241	0xce	-50
242	0x4d	77
243	0xbc	-68
244	0x55	85
245	0x27	39
246	0x21	33
247	0x3e	62
248	0x9d	-99
249	0x5a	90
250	0x0e	14
251	0x81	-127
252	0xb0	-80
253	0x0d	13
254	0xdc	-36
255	0x14	20

model/dense_linear_bottleneck_block_3/conv2d_13/Conv2D i1 [192, 1, 1, 168]
0	0xe5	-27
1	0x20	32
2	0x12	18
3	0xf3	-13
4	0xf6	-10
5	0x57	87
6	0xf6	-10
7	0xf2	-14
8	0x0c	12
9	0x3b	59
10	0xfe	-2
11	0x81	-127
12	0x23	35
13	0xb3	-77
14	0xbd	-67
15	0x18	24
16	0x1f	31
17	0x06	6
18	0xec	-20
19	0xd7	-41
20	0x4c	76
21	0xa2	-94
22	0x0b	11
23	0x1f	31
24	0xb6	-74
25	0x03	3
26	0x00	0
27	0xd6	-42
28	0x02	2
29	0xcf	-49
30	0x19	25
31	0x24	36
32	0x9a	-102
33	0x32	50
34	0x1d	29
35	0x3c	60
36	0x00	0
37	0x18	24
38	0x6a	106
39	0x32	50
40	0x2c	44
41	0x23	35
42	0xca	-54
43	0xa2	-94
44	0xee	-18
45	0xe0	-32
46	0x4c	76
47	0x48	72
48	0xd1	-47
49	0x32	50
50	0x0c	12
51	0xd5	-43
52	0x4b	75
53	0xd3	-45
54	0xdf	-33
55	0x1a	26
56	0x3c	60
57	0xdf	-33
58	0xb9	-71
59	0x4e	78
60	0xfc	-4
61	0xc2	-62
62	0x3a	58
63	0x53	83
64	0xcb	-53
65	0x05	5
66	0x48	72
67	0x1b	27
68	0xfc	-4
69	0x13	19
70	0xbc	-68
71	0x0b	11
72	0x1c	28
73	0x3e	62
74	0xd4	-44
75	0x16	22
76	0x1e	30
77	0x65	101
78	0x98	-104
79	0x31	49
80	0x0b	11
81	0xfc	-4
82	0x42	66
83	0xf7	-9
84	0x5c	92
85	0x04	4
86	0x4c	76
87	0xe8	-24
88	0x7e	126
89	0xea	-22
90	0x34	52
91	0x46	70
92	0x22	34
93	0x1c	28
94	0xfe	-2
95	0xf9	-7
96	0xf9	-7
97	0xdd	-35
98	0x51	81
99	0x31	49
100	0x1c	28
101	0xe3	-29
102	0x06	6
103	0x2d	45
104	0x34	52
105	0x56	86
106	0x24	36
107	0xc5	-59
108	0x0e	14
109	0x15	21
110	0x25	37
111	0xdc	-36
112	0x5b	91
113	0x32	50
114	0xc5	-59
115	0x1e	30
116	0x1c	28
117	0xf7	-9
118	0x69	105
119	0xc4	-60
120	0x13	19
121	0xe0	-32
122	0x14	20
123	0x12	18
124	0xe2	-30
125	0xe4	-28
126	0x03	3
127	0x3c	60
128	0x03	3
129	0xca	-54
130	0x18	24
131	0xd1	-47
132	0xee	-18
133	0xfa	-6
134	0xe5	-27
135	0x22	34
136	0xe2	-30
137	0xec	-20
138	0xe9	-23
139	0x60	96
140	0xa1	-95
141	0x12	18
142	0xb0	-80
143	0x00	0
144	0xfb	-5
145	0x30	48
146	0xa8	-88
147	0x15	21
148	0x34	52
149	0x0e	14
150	0xcc	-52
151	0x7f	127
152	0xf5	-11
153	0x1e	30
154	0xb4	-76
155	0x51	81
156	0x1f	31
157	0x04	4
158	0xbf	-65
159	0xea	-22
160	0x70	112
161	0xed	-19
162	0xf5	-11
163	0xfd	-3
164	0xdb	-37
165	0x05	5
166	0x60	96
167	0xd3	-45
168	0xdd	-35
169	0xfd	-3
170	0xe0	-32
171	0xde	-34
172	0x09	9
173	0x10	16
174	0xf0	-16
175	0x0f	15
176	0xa5	-91
177	0xf4	-12
178	0x15	21
179	0xd6	-42
180	0xeb	-21
181	0x16	22
182	0x9f	-97
183	0x07	7
184	0x20	32
185	0xce	-50
186	0xf1	-15
187	0x35	53
188	0x54	84
189	0xea	-22
190	0x06	6
191	0xff	-1
192	0x42	66
193	0x4c	76
194	0xff	-1
195	0xee	-18
196	0x33	51
197	0x9b	-101
198	0x7a	122
199	0x0a	10
200	0xcc	-52
201	0xe8	-24
202	0x1c	28
203	0xf9	-7
204	0x09	9
205	0xf8	-8
206	0x5a	90
207	0x53	83
208	0xe8	-24
209	0xab	-85
210	0xf1	-15
211	0xbd	-67
212	0x83	-125
213	0xb7	-73
214	0x1a	26
215	0xee	-18
216	0x39	57
217	0xbe	-66
218	0x28	40
219	0xdc	-36
220	0x22	34
221	0xdb	-37
222	0xf0	-16
223	0xeb	-21
224	0xfb	-5
225	0xca	-54
226	0xdd	-35
227	0x13	19
228	0xb4	-76
229	0xb0	-80
230	0xec	-20
231	0x69	105
232	0xd5	-43
233	0xdb	-37
234	0xe1	-31
235	0x25	37
236	0xc1	-63
237	0xb0	-80
238	0x1b	27
239	0xd5	-43
240	0x21	33
241	0x3d	61
242	0xef	-17
243	0xce	-50
244	0x29	41
245	0xca	-54
246	0xb4	-76
247	0xff	-1
248	0x16	22
249	0x4f	79
250	0xe2	-30
251	0xfc	-4
252	0xaa	-86
253	0x9d	-99
254	0x11	17
255	0xfb	-5

model/dense_linear_bottleneck_block_3/batch_normalization_35/FusedBatchNormV3;model/dense_linear_bottleneck_block_3/depthwise_conv2d_22/depthwise;model/dense_linear_bottleneck_block_3/depthwise_conv2d_22/BiasAdd/ReadVariableOp;model/dense_linear_bottleneck_block_3/depthwise_conv2d_22/BiasAdd1 i1 [1, 3, 3, 168]
0	0x08	8
1	0x24	36
2	0x7f	127
3	0x81	-127
4	0x7f	127
5	0x40	64
6	0x2f	47
7	0xce	-50
8	0x54	84
9	0xdd	-35
10	0x31	49
11	0xac	-84
12	0xce	-50
13	0x2c	44
14	0x81	-127
15	0x24	36
16	0x00	0
17	0x41	65
18	0x34	52
19	0xda	-38
20	0xd0	-48
21	0x09	9
22	0xda	-38
23	0xbd	-67
24	0x7f	127
25	0x19	25
26	0x5f	95
27	0x64	100
28	0x17	23
29	0x26	38
30	0x81	-127
31	0xaa	-86
32	0xdc	-36
33	0xcd	-51
34	0x4e	78
35	0x55	85
36	0x7f	127
37	0xa2	-94
38	0x02	2
39	0x48	72
40	0xf4	-12
41	0x27	39
42	0x7f	127
43	0xe0	-32
44	0x66	102
45	0x13	19
46	0xe2	-30
47	0x7f	127
48	0x9b	-101
49	0x90	-112
50	0x36	54
51	0x2f	47
52	0xce	-50
53	0xf3	-13
54	0x36	54
55	0xe2	-30
56	0x95	-107
57	0xe5	-27
58	0x3c	60
59	0xe1	-31
60	0xe3	-29
61	0x81	-127
62	0xfa	-6
63	0x25	37
64	0x17	23
65	0xa5	-91
66	0x25	37
67	0xc6	-58
68	0xbc	-68
69	0x34	52
70	0x7b	123
71	0x11	17
72	0xb7	-73
73	0xd2	-46
74	0x01	1
75	0x0f	15
76	0x81	-127
77	0xca	-54
78	0xe1	-31
79	0x23	35
80	0xc4	-60
81	0x4b	75
82	0x09	9
83	0xcb	-53
84	0x44	68
85	0x03	3
86	0xec	-20
87	0x1d	29
88	0xea	-22
89	0x4c	76
90	0x22	34
91	0xc6	-58
92	0xe7	-25
93	0x5d	93
94	0x93	-109
95	0xdc	-36
96	0x7f	127
97	0x97	-105
98	0x81	-127
99	0xe8	-24
100	0x48	72
101	0x7f	127
102	0x7f	127
103	0x7f	127
104	0xee	-18
105	0xb3	-77
106	0xd2	-46
107	0x7f	127
108	0x74	116
109	0xf4	-12
110	0x57	87
111	0x0b	11
112	0x63	99
113	0xc9	-55
114	0xd4	-44
115	0x13	19
116	0x87	-121
117	0xc1	-63
118	0xb1	-79
119	0x46	70
120	0xaf	-81
121	0xfe	-2
122	0xec	-20
123	0xf4	-12
124	0x39	57
125	0x6f	111
126	0xb1	-79
127	0xdc	-36
128	0x25	37
129	0xc7	-57
130	0xb7	-73
131	0xa0	-96
132	0x93	-109
133	0xcc	-52
134	0xf4	-12
135	0xe5	-27
136	0x3f	63
137	0x28	40
138	0x7f	127
139	0x7f	127
140	0xb2	-78
141	0xf6	-10
142	0xe8	-24
143	0xfc	-4
144	0x98	-104
145	0xf8	-8
146	0xa9	-87
147	0x7f	127
148	0x2d	45
149	0x0b	11
150	0x44	68
151	0x35	53
152	0x0c	12
153	0x7f	127
154	0x42	66
155	0xdf	-33
156	0x43	67
157	0xd9	-39
158	0xd3	-45
159	0xa7	-89
160	0x2d	45
161	0xca	-54
162	0x7f	127
163	0xab	-85
164	0xa6	-90
165	0x58	88
166	0xe8	-24
167	0xbf	-65
168	0x13	19
169	0xcd	-51
170	0x04	4
171	0xa5	-91
172	0x3b	59
173	0x2e	46
174	0x39	57
175	0xe7	-25
176	0x01	1
177	0x03	3
178	0xf3	-13
179	0xbf	-65
180	0xbf	-65
181	0x7f	127
182	0x98	-104
183	0xd2	-46
184	0xbc	-68
185	0x4a	74
186	0x00	0
187	0xa5	-91
188	0x81	-127
189	0x03	3
190	0xe4	-28
191	0xde	-34
192	0x77	119
193	0xe8	-24
194	0x15	21
195	0x7f	127
196	0xc0	-64
197	0x1d	29
198	0xa1	-95
199	0x9f	-97
200	0xdb	-37
201	0xf2	-14
202	0xf0	-16
203	0xf0	-16
204	0x77	119
205	0xc3	-61
206	0x00	0
207	0x7f	127
208	0xe9	-23
209	0x1a	26
210	0x5f	95
211	0xbc	-68
212	0x2f	47
213	0x35	53
214	0xa8	-88
215	0x3d	61
216	0x81	-127
217	0xfa	-6
218	0x7f	127
219	0x0f	15
220	0x0e	14
221	0x2f	47
222	0xf1	-15
223	0x81	-127
224	0x89	-119
225	0x46	70
226	0xc1	-63
227	0x9a	-102
228	0x17	23
229	0xa9	-87
230	0xcb	-53
231	0x37	55
232	0xf6	-10
233	0x81	-127
234	0x0f	15
235	0xa8	-88
236	0x37	55
237	0x50	80
238	0x65	101
239	0xe5	-27
240	0xbb	-69
241	0x86	-122
242	0x16	22
243	0xd0	-48
244	0x91	-111
245	0xbe	-66
246	0xab	-85
247	0x20	32
248	0xf4	-12
249	0x7f	127
250	0x46	70
251	0xce	-50
252	0x30	48
253	0x3e	62
254	0xbe	-66
255	0x83	-125

model/dense_linear_bottleneck_block_2/batch_normalization_34/FusedBatchNormV3;model/dense_linear_bottleneck_block_2/depthwise_conv2d_21/depthwise;model/dense_linear_bottleneck_block_2/depthwise_conv2d_21/BiasAdd/ReadVariableOp;model/dense_linear_bottleneck_block_2/depthwise_conv2d_21/BiasAdd;model/dense_linear_bottleneck_block_3/depthwise_conv2d_22/depthwise1 i1 [1, 3, 3, 168]
0	0x06	6
1	0xec	-20
2	0xb4	-76
3	0x69	105
4	0xb0	-80
5	0x81	-127
6	0x05	5
7	0x35	53
8	0xf0	-16
9	0x9d	-99
10	0x7c	124
11	0x33	51
12	0x4c	76
13	0x7f	127
14	0x7f	127
15	0xec	-20
16	0x7f	127
17	0x53	83
18	0xc2	-62
19	0xa0	-96
20	0x7f	127
21	0x04	4
22	0xf1	-15
23	0xc6	-58
24	0x7f	127
25	0x81	-127
26	0x8f	-113
27	0x81	-127
28	0x2d	45
29	0x04	4
30	0x7f	127
31	0x79	121
32	0xe5	-27
33	0x61	97
34	0x63	99
35	0x03	3
36	0x25	37
37	0x81	-127
38	0x27	39
39	0x7f	127
40	0xeb	-21
41	0x14	20
42	0x95	-107
43	0x6c	108
44	0x95	-107
45	0x1d	29
46	0x77	119
47	0x7f	127
48	0x5a	90
49	0x7f	127
50	0xd1	-47
51	0x1f	31
52	0x81	-127
53	0x06	6
54	0xcf	-49
55	0x56	86
56	0x81	-127
57	0x76	118
58	0x7f	127
59	0xb6	-74
60	0xff	-1
61	0x81	-127
62	0xbf	-65
63	0x05	5
64	0xd6	-42
65	0xcd	-51
66	0xcc	-52
67	0xc4	-60
68	0xb9	-71
69	0x4f	79
70	0x37	55
71	0x9d	-99
72	0xdf	-33
73	0xd1	-47
74	0xbc	-68
75	0xdf	-33
76	0x81	-127
77	0xae	-82
78	0xc3	-61
79	0xc9	-55
80	0x7f	127
81	0x50	80
82	0x0d	13
83	0xfa	-6
84	0x95	-107
85	0x0e	14
86	0xfa	-6
87	0x19	25
88	0x12	18
89	0x4e	78
90	0xae	-82
91	0x7f	127
92	0xaf	-81
93	0x46	70
94	0xb8	-72
95	0x31	49
96	0x0c	12
97	0x8a	-118
98	0xc2	-62
99	0xfb	-5
100	0xcc	-52
101	0x4f	79
102	0x81	-127
103	0xf6	-10
104	0xf8	-8
105	0xab	-85
106	0xd5	-43
107	0x6b	107
108	0x4a	74
109	0xa2	-94
110	0x8c	-116
111	0x12	18
112	0x9f	-97
113	0x49	73
114	0x28	40
115	0x30	48
116	0x13	19
117	0x2e	46
118	0x7f	127
119	0x81	-127
120	0x96	-106
121	0x3d	61
122	0x81	-127
123	0x95	-107
124	0x54	84
125	0xf9	-7
126	0x90	-112
127	0x66	102
128	0x68	104
129	0xdb	-37
130	0x64	100
131	0x77	119
132	0xac	-84
133	0x7c	124
134	0xa8	-88
135	0xdd	-35
136	0x76	118
137	0xa0	-96
138	0x74	116
139	0x1c	28
140	0x5f	95
141	0xcd	-51
142	0xa9	-87
143	0xfc	-4
144	0x38	56
145	0xa5	-91
146	0xae	-82
147	0x7f	127
148	0x5d	93
149	0xb1	-79
150	0x87	-121
151	0x98	-104
152	0x9e	-98
153	0x60	96
154	0xc3	-61
155	0x3b	59
156	0x63	99
157	0x81	-127
158	0x47	71
159	0x7f	127
160	0xf8	-8
161	0x81	-127
162	0x79	121
163	0x81	-127
164	0xf4	-12
165	0xc5	-59
166	0xba	-70
167	0xc2	-62
168	0x1d	29
169	0x4b	75
170	0x29	41
171	0x68	104
172	0xe1	-31
173	0x8c	-116
174	0x0f	15
175	0xfd	-3
176	0xb1	-79
177	0xd0	-48
178	0x7f	127
179	0x4a	74
180	0x50	80
181	0x68	104
182	0x1e	30
183	0x81	-127
184	0x3d	61
185	0xf1	-15
186	0x81	-127
187	0x15	21
188	0x60	96
189	0xd8	-40
190	0x9a	-102
191	0xcd	-51
192	0x3f	63
193	0xb6	-74
194	0x37	55
195	0xc9	-55
196	0x26	38
197	0x3b	59
198	0x0c	12
199	0x60	96
200	0x14	20
201	0x6f	111
202	0xf4	-12
203	0xb6	-74
204	0x7f	127
205	0xe1	-31
206	0x21	33
207	0x55	85
208	0x26	38
209	0x56	86
210	0xaf	-81
211	0x7f	127
212	0x81	-127
213	0xf2	-14
214	0x5f	95
215	0x4b	75
216	0x68	104
217	0x5c	92
218	0xa5	-91
219	0xfe	-2
220	0x35	53
221	0x58	88
222	0xab	-85
223	0x7f	127
224	0xcd	-51
225	0x18	24
226	0x01	1
227	0x15	21
228	0x5f	95
229	0xd0	-48
230	0xdf	-33
231	0xce	-50
232	0x0c	12
233	0xba	-70
234	0xd1	-47
235	0xc3	-61
236	0x0f	15
237	0x25	37
238	0x09	9
239	0xc8	-56
240	0xa3	-93
241	0xa5	-91
242	0xdf	-33
243	0xf8	-8
244	0xba	-70
245	0xc9	-55
246	0x0b	11
247	0xf8	-8
248	0x17	23
249	0x7f	127
250	0xe9	-23
251	0x44	68
252	0xe4	-28
253	0x2b	43
254	0x3e	62
255	0x8b	-117

model/dense_linear_bottleneck_block_2/conv2d_12/Conv2D i1 [168, 1, 1, 168]
0	0xcd	-51
1	0xef	-17
2	0x03	3
3	0xd2	-46
4	0xd7	-41
5	0xeb	-21
6	0x13	19
7	0x28	40
8	0x18	24
9	0x0a	10
10	0xf0	-16
11	0x12	18
12	0x25	37
13	0xdd	-35
14	0xfd	-3
15	0x02	2
16	0xcc	-52
17	0xdd	-35
18	0xe5	-27
19	0xd5	-43
20	0x24	36
21	0x10	16
22	0xdd	-35
23	0x10	16
24	0xdc	-36
25	0x6b	107
26	0xfc	-4
27	0xbc	-68
28	0x1e	30
29	0xf3	-13
30	0xd5	-43
31	0xc3	-61
32	0x0e	14
33	0x12	18
34	0xe3	-29
35	0x03	3
36	0x4b	75
37	0xdc	-36
38	0x17	23
39	0x0c	12
40	0x0a	10
41	0xfa	-6
42	0xf7	-9
43	0x10	16
44	0x5c	92
45	0xf2	-14
46	0xfe	-2
47	0x0a	10
48	0x00	0
49	0x19	25
50	0xa8	-88
51	0x25	37
52	0x0e	14
53	0xf4	-12
54	0x08	8
55	0xd9	-39
56	0x05	5
57	0xea	-22
58	0x2b	43
59	0x17	23
60	0xeb	-21
61	0xb3	-77
62	0xff	-1
63	0x12	18
64	0xf0	-16
65	0x22	34
66	0x2e	46
67	0x26	38
68	0x24	36
69	0x32	50
70	0xf3	-13
71	0xd0	-48
72	0x15	21
73	0xf0	-16
74	0x57	87
75	0xc9	-55
76	0x13	19
77	0xfd	-3
78	0xfb	-5
79	0x09	9
80	0x15	21
81	0xfd	-3
82	0x01	1
83	0xc6	-58
84	0xe4	-28
85	0xdc	-36
86	0xba	-70
87	0xeb	-21
88	0x23	35
89	0xda	-38
90	0xce	-50
91	0x41	65
92	0x0e	14
93	0xf4	-12
94	0x10	16
95	0x2f	47
96	0xf5	-11
97	0x1f	31
98	0x10	16
99	0xf6	-10
100	0x07	7
101	0xdc	-36
102	0xff	-1
103	0x04	4
104	0x0f	15
105	0x10	16
106	0xba	-70
107	0x34	52
108	0x06	6
109	0xd9	-39
110	0x04	4
111	0x2f	47
112	0x45	69
113	0xd9	-39
114	0x0e	14
115	0xc4	-60
116	0x1f	31
117	0xf2	-14
118	0x01	1
119	0x15	21
120	0xd3	-45
121	0xd4	-44
122	0xed	-19
123	0xf2	-14
124	0xed	-19
125	0x2e	46
126	0xed	-19
127	0x2a	42
128	0x2b	43
129	0x3d	61
130	0x19	25
131	0x1b	27
132	0x26	38
133	0x16	22
134	0x10	16
135	0x19	25
136	0xe3	-29
137	0xfe	-2
138	0xed	-19
139	0x37	55
140	0xba	-70
141	0xdb	-37
142	0x0d	13
143	0x2e	46
144	0x47	71
145	0xfb	-5
146	0xcf	-49
147	0xf9	-7
148	0x12	18
149	0xf2	-14
150	0xf4	-12
151	0x0c	12
152	0xe1	-31
153	0xeb	-21
154	0xd3	-45
155	0xe1	-31
156	0xd7	-41
157	0x5b	91
158	0xf1	-15
159	0x3f	63
160	0x17	23
161	0x26	38
162	0xe5	-27
163	0x81	-127
164	0xfc	-4
165	0x00	0
166	0x2a	42
167	0xab	-85
168	0xe1	-31
169	0x68	104
170	0xdf	-33
171	0xae	-82
172	0xb8	-72
173	0x20	32
174	0xa2	-94
175	0xfb	-5
176	0x67	103
177	0xaf	-81
178	0xed	-19
179	0xeb	-21
180	0xdc	-36
181	0xfc	-4
182	0xd5	-43
183	0xcc	-52
184	0xcc	-52
185	0x04	4
186	0xd0	-48
187	0x3e	62
188	0x32	50
189	0xcc	-52
190	0xed	-19
191	0xdc	-36
192	0x09	9
193	0x0c	12
194	0xee	-18
195	0x16	22
196	0xb0	-80
197	0x07	7
198	0xff	-1
199	0xf6	-10
200	0xce	-50
201	0x12	18
202	0x21	33
203	0xd0	-48
204	0x1e	30
205	0xf4	-12
206	0xbb	-69
207	0xb2	-78
208	0xd4	-44
209	0x43	67
210	0xc9	-55
211	0x47	71
212	0xed	-19
213	0x42	66
214	0xf9	-7
215	0x15	21
216	0xd5	-43
217	0x27	39
218	0xf2	-14
219	0xed	-19
220	0x17	23
221	0x3b	59
222	0x60	96
223	0xa4	-92
224	0x06	6
225	0xd0	-48
226	0x12	18
227	0xd6	-42
228	0xd1	-47
229	0xd1	-47
230	0x00	0
231	0x19	25
232	0x02	2
233	0xcc	-52
234	0x32	50
235	0x00	0
236	0x56	86
237	0x08	8
238	0xe9	-23
239	0xd2	-46
240	0xf1	-15
241	0x1d	29
242	0xac	-84
243	0xb7	-73
244	0xca	-54
245	0x18	24
246	0x2f	47
247	0xac	-84
248	0x20	32
249	0x7e	126
250	0xf3	-13
251	0xb2	-78
252	0x22	34
253	0x07	7
254	0xec	-20
255	0xd0	-48

model/dense_linear_bottleneck_block_2/batch_normalization_32/FusedBatchNormV3;model/dense_linear_bottleneck_block_2/depthwise_conv2d_20/depthwise;model/dense_linear_bottleneck_block_2/depthwise_conv2d_20/BiasAdd/ReadVariableOp;model/dense_linear_bottleneck_block_2/depthwise_conv2d_20/BiasAdd;model/dense_linear_bottleneck_block_3/depthwise_conv2d_22/depthwise1 i1 [1, 3, 3, 168]
0	0xcc	-52
1	0x07	7
2	0xec	-20
3	0x7f	127
4	0x7f	127
5	0x6d	109
6	0xb6	-74
7	0x6a	106
8	0xe7	-25
9	0xee	-18
10	0x13	19
11	0x3c	60
12	0x13	19
13	0x03	3
14	0x54	84
15	0x17	23
16	0x3d	61
17	0xb4	-76
18	0xfc	-4
19	0x1e	30
20	0x8f	-113
21	0x81	-127
22	0x7f	127
23	0x7d	125
24	0x17	23
25	0xc2	-62
26	0x7f	127
27	0x7f	127
28	0x09	9
29	0x7f	127
30	0x64	100
31	0xbc	-68
32	0x10	16
33	0xf5	-11
34	0x30	48
35	0xa1	-95
36	0x5e	94
37	0xe9	-23
38	0x81	-127
39	0x64	100
40	0xad	-83
41	0x44	68
42	0x7f	127
43	0xfd	-3
44	0x97	-105
45	0xf1	-15
46	0xf7	-9
47	0x50	80
48	0xa5	-91
49	0xee	-18
50	0xfc	-4
51	0x8d	-115
52	0x81	-127
53	0x8b	-117
54	0x34	52
55	0xac	-84
56	0xde	-34
57	0x28	40
58	0x5e	94
59	0x99	-103
60	0x1c	28
61	0x00	0
62	0x66	102
63	0xd5	-43
64	0x82	-126
65	0x90	-112
66	0xc3	-61
67	0xc5	-59
68	0x4f	79
69	0x81	-127
70	0x26	38
71	0x41	65
72	0xdd	-35
73	0x81	-127
74	0x5e	94
75	0xa1	-95
76	0x83	-125
77	0x69	105
78	0xfb	-5
79	0x73	115
80	0xf7	-9
81	0x91	-111
82	0xa9	-87
83	0x5c	92
84	0x35	53
85	0x63	99
86	0xcd	-51
87	0x19	25
88	0x81	-127
89	0x39	57
90	0xe2	-30
91	0x7f	127
92	0x96	-106
93	0x0f	15
94	0x67	103
95	0xa5	-91
96	0x4a	74
97	0x90	-112
98	0x65	101
99	0x8c	-116
100	0xce	-50
101	0x1b	27
102	0x58	88
103	0x04	4
104	0xce	-50
105	0xfd	-3
106	0x19	25
107	0xf3	-13
108	0x7f	127
109	0xa8	-88
110	0x04	4
111	0x82	-126
112	0x81	-127
113	0x36	54
114	0x9e	-98
115	0x49	73
116	0xc8	-56
117	0x48	72
118	0x54	84
119	0x19	25
120	0x1f	31
121	0x1f	31
122	0xed	-19
123	0x69	105
124	0x7f	127
125	0x2c	44
126	0x86	-122
127	0xa7	-89
128	0x46	70
129	0x10	16
130	0x78	120
131	0x8b	-117
132	0xb3	-77
133	0xf9	-7
134	0x6e	110
135	0xd8	-40
136	0x96	-106
137	0x21	33
138	0x33	51
139	0xea	-22
140	0x61	97
141	0x37	55
142	0x20	32
143	0xdf	-33
144	0xb4	-76
145	0x81	-127
146	0x96	-106
147	0x1a	26
148	0x55	85
149	0x45	69
150	0x2e	46
151	0xdd	-35
152	0xb6	-74
153	0x81	-127
154	0xec	-20
155	0x77	119
156	0x59	89
157	0x5e	94
158	0xbe	-66
159	0x8c	-116
160	0xb8	-72
161	0x81	-127
162	0x81	-127
163	0x23	35
164	0x7c	124
165	0x4c	76
166	0x00	0
167	0xf2	-14
168	0xd6	-42
169	0xd8	-40
170	0xa9	-87
171	0x74	116
172	0x52	82
173	0x7f	127
174	0xa4	-92
175	0x7f	127
176	0xc8	-56
177	0x89	-119
178	0xd0	-48
179	0x6d	109
180	0x75	117
181	0x7f	127
182	0x9e	-98
183	0x06	6
184	0x3d	61
185	0xe2	-30
186	0x46	70
187	0x74	116
188	0x3a	58
189	0xc2	-62
190	0x34	52
191	0x7f	127
192	0x7f	127
193	0x86	-122
194	0x4a	74
195	0x44	68
196	0xc6	-58
197	0x5c	92
198	0xf2	-14
199	0x91	-111
200	0x4a	74
201	0xa3	-93
202	0x1e	30
203	0x81	-127
204	0x7f	127
205	0x33	51
206	0xd1	-47
207	0x7f	127
208	0x81	-127
209	0x49	73
210	0x79	121
211	0x41	65
212	0xa1	-95
213	0x8c	-116
214	0x0f	15
215	0x7f	127
216	0xae	-82
217	0x3a	58
218	0x7f	127
219	0xb4	-76
220	0x99	-103
221	0x81	-127
222	0x7f	127
223	0xfe	-2
224	0xf8	-8
225	0x83	-125
226	0x08	8
227	0xbf	-65
228	0x29	41
229	0xe7	-25
230	0x7f	127
231	0x38	56
232	0xc0	-64
233	0x02	2
234	0x81	-127
235	0x36	54
236	0x60	96
237	0xcf	-49
238	0xe9	-23
239	0x5b	91
240	0xac	-84
241	0xf0	-16
242	0x2e	46
243	0xc2	-62
244	0xe3	-29
245	0x46	70
246	0x0c	12
247	0x7f	127
248	0xc0	-64
249	0x81	-127
250	0xd2	-46
251	0x7f	127
252	0x1f	31
253	0x7f	127
254	0xb5	-75
255	0x44	68

model/dense_linear_bottleneck_block_1/batch_normalization_31/FusedBatchNormV3;model/dense_linear_bottleneck_block_1/depthwise_conv2d_19/depthwise;model/dense_linear_bottleneck_block_1/depthwise_conv2d_19/BiasAdd/ReadVariableOp;model/dense_linear_bottleneck_block_1/depthwise_conv2d_19/BiasAdd;model/dense_linear_bottleneck_block_3/depthwise_conv2d_22/depthwise1 i1 [1, 3, 3, 168]
0	0xe8	-24
1	0xfa	-6
2	0x20	32
3	0xee	-18
4	0x81	-127
5	0x45	69
6	0xce	-50
7	0xb3	-77
8	0xc8	-56
9	0x7f	127
10	0xba	-70
11	0xd6	-42
12	0x9b	-101
13	0x7f	127
14	0x7e	126
15	0x1b	27
16	0xe1	-31
17	0x3a	58
18	0x82	-126
19	0x10	16
20	0x20	32
21	0x16	22
22	0x7d	125
23	0x81	-127
24	0x7f	127
25	0x59	89
26	0x25	37
27	0x50	80
28	0xfa	-6
29	0x1c	28
30	0x55	85
31	0x7f	127
32	0xe2	-30
33	0xb2	-78
34	0x65	101
35	0x81	-127
36	0xd8	-40
37	0x6b	107
38	0x2b	43
39	0x13	19
40	0x44	68
41	0x1c	28
42	0xb9	-71
43	0x7b	123
44	0x7f	127
45	0xe2	-30
46	0x0e	14
47	0x37	55
48	0x04	4
49	0x8c	-116
50	0xd9	-39
51	0x63	99
52	0xb1	-79
53	0x7f	127
54	0x5a	90
55	0xca	-54
56	0x81	-127
57	0xe6	-26
58	0x0d	13
59	0x4d	77
60	0x2c	44
61	0xde	-34
62	0xb2	-78
63	0x7f	127
64	0x75	117
65	0x3f	63
66	0xc7	-57
67	0x91	-111
68	0x64	100
69	0x43	67
70	0xa5	-91
71	0xc5	-59
72	0xcb	-53
73	0x8e	-114
74	0xba	-70
75	0x12	18
76	0x1c	28
77	0xa4	-92
78	0x81	-127
79	0x42	66
80	0x6f	111
81	0xeb	-21
82	0x7f	127
83	0x94	-108
84	0x6d	109
85	0x8a	-118
86	0x81	-127
87	0x7f	127
88	0xce	-50
89	0xac	-84
90	0xc0	-64
91	0xf1	-15
92	0xf2	-14
93	0xe9	-23
94	0xb5	-75
95	0x09	9
96	0x7f	127
97	0x7f	127
98	0x7f	127
99	0x50	80
100	0xd3	-45
101	0x7f	127
102	0x8c	-116
103	0x7f	127
104	0xd2	-46
105	0xc9	-55
106	0x1d	29
107	0x02	2
108	0x7f	127
109	0xc8	-56
110	0x96	-106
111	0x3e	62
112	0x4f	79
113	0xc4	-60
114	0xde	-34
115	0x2a	42
116	0x7f	127
117	0xff	-1
118	0xd4	-44
119	0xed	-19
120	0xd1	-47
121	0x58	88
122	0xab	-85
123	0x7e	126
124	0xeb	-21
125	0x56	86
126	0x56	86
127	0x09	9
128	0xca	-54
129	0x3e	62
130	0x62	98
131	0xbb	-69
132	0x81	-127
133	0x0c	12
134	0x2a	42
135	0x81	-127
136	0x4b	75
137	0xd5	-43
138	0x14	20
139	0x4b	75
140	0x36	54
141	0x0f	15
142	0x81	-127
143	0x8b	-117
144	0xe3	-29
145	0x81	-127
146	0x5f	95
147	0xd0	-48
148	0x81	-127
149	0x78	120
150	0x5f	95
151	0x81	-127
152	0xa9	-87
153	0xad	-83
154	0x17	23
155	0xdc	-36
156	0x65	101
157	0x81	-127
158	0xec	-20
159	0xcb	-53
160	0x7f	127
161	0x52	82
162	0x81	-127
163	0xde	-34
164	0xb3	-77
165	0x8a	-118
166	0xb9	-71
167	0x18	24
168	0x9e	-98
169	0x59	89
170	0xdc	-36
171	0x4d	77
172	0xbf	-65
173	0x3d	61
174	0xd1	-47
175	0xda	-38
176	0xb6	-74
177	0x43	67
178	0xe9	-23
179	0x97	-105
180	0x81	-127
181	0x1d	29
182	0x52	82
183	0x22	34
184	0x81	-127
185	0x81	-127
186	0xd5	-43
187	0xde	-34
188	0x7f	127
189	0x49	73
190	0x7d	125
191	0xf5	-11
192	0x40	64
193	0x7f	127
194	0x70	112
195	0x70	112
196	0x8c	-116
197	0x16	22
198	0x0c	12
199	0x27	39
200	0x8a	-118
201	0xb5	-75
202	0x42	66
203	0xdc	-36
204	0x0c	12
205	0x66	102
206	0x58	88
207	0xe7	-25
208	0xaf	-81
209	0x48	72
210	0x2b	43
211	0x3a	58
212	0x40	64
213	0x14	20
214	0x52	82
215	0x7f	127
216	0xe5	-27
217	0xc2	-62
218	0x5a	90
219	0x40	64
220	0x99	-103
221	0x4d	77
222	0x30	48
223	0xe7	-25
224	0xbb	-69
225	0xf8	-8
226	0xfa	-6
227	0x56	86
228	0x60	96
229	0xfd	-3
230	0xd2	-46
231	0xec	-20
232	0x0a	10
233	0x42	66
234	0xeb	-21
235	0x1f	31
236	0x3a	58
237	0x7f	127
238	0x36	54
239	0xc4	-60
240	0xdb	-37
241	0x5b	91
242	0x81	-127
243	0x24	36
244	0x08	8
245	0xbb	-69
246	0xdf	-33
247	0xdc	-36
248	0x4d	77
249	0xe4	-28
250	0x54	84
251	0xdb	-37
252	0x78	120
253	0xf7	-9
254	0xcf	-49
255	0xd0	-48

model/dense_linear_bottleneck_block_1/conv2d_11/Conv2D i1 [168, 1, 1, 168]
0	0xf1	-15
1	0x0f	15
2	0x29	41
3	0x37	55
4	0x09	9
5	0xd8	-40
6	0x81	-127
7	0xec	-20
8	0x19	25
9	0x3c	60
10	0xe2	-30
11	0xcf	-49
12	0x1a	26
13	0xc8	-56
14	0x0b	11
15	0x00	0
16	0x03	3
17	0xcc	-52
18	0xbd	-67
19	0xfb	-5
20	0xf4	-12
21	0x27	39
22	0x2a	42
23	0x09	9
24	0xf4	-12
25	0xe1	-31
26	0x10	16
27	0x01	1
28	0xdb	-37
29	0x05	5
30	0xa1	-95
31	0x36	54
32	0x47	71
33	0xd5	-43
34	0xf7	-9
35	0xe4	-28
36	0xf7	-9
37	0xe4	-28
38	0x1e	30
39	0x23	35
40	0x01	1
41	0xd8	-40
42	0x6f	111
43	0xd6	-42
44	0x2c	44
45	0xed	-19
46	0x3c	60
47	0xff	-1
48	0x09	9
49	0xfb	-5
50	0xf8	-8
51	0x67	103
52	0x14	20
53	0xfd	-3
54	0xed	-19
55	0x0b	11
56	0x05	5
57	0xb9	-71
58	0x17	23
59	0xf1	-15
60	0x1e	30
61	0x36	54
62	0xf6	-10
63	0x3b	59
64	0xef	-17
65	0xfd	-3
66	0x47	71
67	0xec	-20
68	0x22	34
69	0xd0	-48
70	0xda	-38
71	0xf3	-13
72	0x0c	12
73	0x12	18
74	0x2b	43
75	0x08	8
76	0x18	24
77	0xf1	-15
78	0xed	-19
79	0xf1	-15
80	0xe3	-29
81	0x17	23
82	0xda	-38
83	0x32	50
84	0x04	4
85	0x08	8
86	0xcd	-51
87	0xe4	-28
88	0xd5	-43
89	0x5d	93
90	0xef	-17
91	0xff	-1
92	0xdf	-33
93	0x50	80
94	0xfe	-2
95	0xe8	-24
96	0xfd	-3
97	0x1b	27
98	0x0e	14
99	0xf2	-14
100	0xdb	-37
101	0xd2	-46
102	0xde	-34
103	0x09	9
104	0xf0	-16
105	0xe1	-31
106	0xce	-50
107	0x0c	12
108	0x1a	26
109	0xdb	-37
110	0x1a	26
111	0x0d	13
112	0xeb	-21
113	0x21	33
114	0xe4	-28
115	0x0d	13
116	0x21	33
117	0x33	51
118	0xbd	-67
119	0xe4	-28
120	0xf4	-12
121	0x1c	28
122	0xe4	-28
123	0xe4	-28
124	0xda	-38
125	0x18	24
126	0xf9	-7
127	0x03	3
128	0xd9	-39
129	0x04	4
130	0xf0	-16
131	0x24	36
132	0xc9	-55
133	0xe0	-32
134	0x38	56
135	0x24	36
136	0x12	18
137	0x1b	27
138	0xf9	-7
139	0xe6	-26
140	0xf7	-9
141	0xe7	-25
142	0xfd	-3
143	0x16	22
144	0x1f	31
145	0x12	18
146	0x30	48
147	0x14	20
148	0xfe	-2
149	0xdf	-33
150	0xeb	-21
151	0xda	-38
152	0x2d	45
153	0x33	51
154	0xd6	-42
155	0x3e	62
156	0x2b	43
157	0x3c	60
158	0x1b	27
159	0x1b	27
160	0xd9	-39
161	0x5f	95
162	0xe4	-28
163	0x1b	27
164	0xb1	-79
165	0x09	9
166	0xcc	-52
167	0xd3	-45
168	0x6f	111
169	0x09	9
170	0x15	21
171	0x24	36
172	0x26	38
173	0x1b	27
174	0x01	1
175	0xad	-83
176	0xef	-17
177	0x03	3
178	0xee	-18
179	0xe3	-29
180	0x49	73
181	0xf0	-16
182	0x2e	46
183	0x10	16
184	0x48	72
185	0x30	48
186	0x0f	15
187	0x3d	61
188	0xf3	-13
189	0x33	51
190	0x08	8
191	0xfa	-6
192	0x46	70
193	0x07	7
194	0xde	-34
195	0xf5	-11
196	0x22	34
197	0xfd	-3
198	0x25	37
199	0xed	-19
200	0xce	-50
201	0x0c	12
202	0xfc	-4
203	0xfd	-3
204	0x0a	10
205	0xa6	-90
206	0xda	-38
207	0xf4	-12
208	0xe1	-31
209	0xeb	-21
210	0xec	-20
211	0x1e	30
212	0x27	39
213	0xec	-20
214	0xc7	-57
215	0x30	48
216	0x20	32
217	0x1f	31
218	0x1c	28
219	0x0f	15
220	0x09	9
221	0x24	36
222	0xf6	-10
223	0x13	19
224	0x18	24
225	0xd0	-48
226	0x79	121
227	0x01	1
228	0xdf	-33
229	0xce	-50
230	0x1d	29
231	0x1c	28
232	0xf2	-14
233	0xdf	-33
234	0xd6	-42
235	0xea	-22
236	0x55	85
237	0xe8	-24
238	0x5b	91
239	0xe7	-25
240	0x3a	58
241	0xfb	-5
242	0x3e	62
243	0xc4	-60
244	0x1d	29
245	0xbe	-66
246	0x97	-105
247	0x2b	43
248	0xd3	-45
249	0xf7	-9
250	0xe4	-28
251	0xba	-70
252	0x4f	79
253	0xcd	-51
254	0x25	37
255	0xf6	-10

model/dense_linear_bottleneck_block_1/batch_normalization_29/FusedBatchNormV3;model/dense_linear_bottleneck_block_1/depthwise_conv2d_18/depthwise;model/dense_linear_bottleneck_block_1/depthwise_conv2d_18/BiasAdd/ReadVariableOp;model/dense_linear_bottleneck_block_1/depthwise_conv2d_18/BiasAdd;model/dense_linear_bottleneck_block_3/depthwise_conv2d_22/depthwise1 i1 [1, 3, 3, 168]
0	0x7f	127
1	0x36	54
2	0xbe	-66
3	0x84	-124
4	0xdc	-36
5	0x1d	29
6	0x81	-127
7	0x0f	15
8	0x7f	127
9	0x85	-123
10	0xea	-22
11	0x37	55
12	0xcd	-51
13	0x4b	75
14	0x26	38
15	0x40	64
16	0x1a	26
17	0x7f	127
18	0x97	-105
19	0x3c	60
20	0xcb	-53
21	0x55	85
22	0x81	-127
23	0x31	49
24	0xbd	-67
25	0xdd	-35
26	0xa2	-94
27	0x88	-120
28	0x1d	29
29	0xb7	-73
30	0xc6	-58
31	0x7f	127
32	0x92	-110
33	0x81	-127
34	0xe5	-27
35	0xa4	-92
36	0x01	1
37	0x7f	127
38	0x45	69
39	0x81	-127
40	0x23	35
41	0x32	50
42	0x7f	127
43	0xd2	-46
44	0xa9	-87
45	0x1a	26
46	0x07	7
47	0xfc	-4
48	0x60	96
49	0x81	-127
50	0xdc	-36
51	0xc6	-58
52	0x4b	75
53	0x49	73
54	0x39	57
55	0x2c	44
56	0x21	33
57	0x7f	127
58	0x9c	-100
59	0x33	51
60	0x8c	-116
61	0xc0	-64
62	0xb4	-76
63	0x61	97
64	0xd4	-44
65	0xc0	-64
66	0xfd	-3
67	0x7f	127
68	0xbe	-66
69	0xb1	-79
70	0x81	-127
71	0x61	97
72	0xa8	-88
73	0x06	6
74	0x54	84
75	0xb2	-78
76	0x7f	127
77	0x38	56
78	0x0f	15
79	0xaa	-86
80	0x72	114
81	0xec	-20
82	0x81	-127
83	0x20	32
84	0x2d	45
85	0xb8	-72
86	0xa8	-88
87	0x4e	78
88	0x81	-127
89	0x5b	91
90	0x3b	59
91	0x21	33
92	0xca	-54
93	0xfa	-6
94	0x2e	46
95	0x29	41
96	0x9d	-99
97	0x45	69
98	0x9e	-98
99	0xc6	-58
100	0x19	25
101	0x45	69
102	0x2a	42
103	0x48	72
104	0x7f	127
105	0x88	-120
106	0xf0	-16
107	0x44	68
108	0xd9	-39
109	0xa9	-87
110	0x81	-127
111	0x7f	127
112	0xdd	-35
113	0xad	-83
114	0x37	55
115	0x72	114
116	0x13	19
117	0xed	-19
118	0x98	-104
119	0x05	5
120	0xbe	-66
121	0x46	70
122	0x96	-106
123	0xef	-17
124	0x86	-122
125	0x1f	31
126	0xe4	-28
127	0x4a	74
128	0x02	2
129	0x7f	127
130	0x7f	127
131	0x46	70
132	0x56	86
133	0xd0	-48
134	0x3e	62
135	0x7f	127
136	0x4a	74
137	0x47	71
138	0x81	-127
139	0xfe	-2
140	0xf6	-10
141	0x35	53
142	0x7f	127
143	0x28	40
144	0x88	-120
145	0xaa	-86
146	0xe7	-25
147	0xb3	-77
148	0xfa	-6
149	0xff	-1
150	0x0a	10
151	0xc7	-57
152	0x47	71
153	0x85	-123
154	0x12	18
155	0x1a	26
156	0x9a	-102
157	0x33	51
158	0x3b	59
159	0x1c	28
160	0x1f	31
161	0x19	25
162	0x01	1
163	0x81	-127
164	0xff	-1
165	0x81	-127
166	0x12	18
167	0x40	64
168	0x63	99
169	0x7f	127
170	0x88	-120
171	0x90	-112
172	0x9a	-102
173	0x46	70
174	0x86	-122
175	0xf7	-9
176	0x51	81
177	0xa6	-90
178	0x1d	29
179	0x57	87
180	0x1c	28
181	0x5f	95
182	0x4a	74
183	0xe5	-27
184	0xfc	-4
185	0xdf	-33
186	0xdf	-33
187	0x7f	127
188	0x1f	31
189	0x57	87
190	0x8a	-118
191	0x81	-127
192	0xad	-83
193	0x4a	74
194	0xc6	-58
195	0xc2	-62
196	0x79	121
197	0x83	-125
198	0xe2	-30
199	0x41	65
200	0xcb	-53
201	0x0f	15
202	0x95	-107
203	0x92	-110
204	0x4d	77
205	0x1b	27
206	0x38	56
207	0x8a	-118
208	0x19	25
209	0x18	24
210	0x78	120
211	0xc0	-64
212	0xbe	-66
213	0xcc	-52
214	0x0d	13
215	0x72	114
216	0x7f	127
217	0x93	-109
218	0x85	-123
219	0xc3	-61
220	0x40	64
221	0x0b	11
222	0x7d	125
223	0x1b	27
224	0x7f	127
225	0x38	56
226	0xfd	-3
227	0xf4	-12
228	0x8a	-118
229	0xfc	-4
230	0x9c	-100
231	0x56	86
232	0x3f	63
233	0x12	18
234	0x00	0
235	0x64	100
236	0xaf	-81
237	0x8b	-117
238	0x2b	43
239	0x1b	27
240	0xd3	-45
241	0x7f	127
242	0x7b	123
243	0x81	-127
244	0x46	70
245	0xf6	-10
246	0xc3	-61
247	0x31	49
248	0x43	67
249	0x81	-127
250	0xa1	-95
251	0x15	21
252	0x2b	43
253	0xfd	-3
254	0x82	-126
255	0xf8	-8
